#loc = loc("/home/zhengyang/git/flagtree/python/test/ops/varmean/var_mean_ascend.py":17:0)
#loc1 = loc(unknown)
#loc32 = loc("/home/zhengyang/git/flagtree/python/test/ops/varmean/var_mean_ascend.py":55:25)
#loc35 = loc("/home/zhengyang/git/flagtree/python/test/ops/varmean/var_mean_ascend.py":58:26)
#loc43 = loc("/home/zhengyang/git/flagtree/python/test/ops/varmean/var_mean_ascend.py":68:17)
#loc51 = loc(callsite(#loc1 at #loc32))
#loc54 = loc(callsite(#loc1 at #loc35))
#loc56 = loc(callsite(#loc1 at #loc43))
module {
  tt.func public @var_mean_welford_kernel(%arg0: !tt.ptr<f32> {tt.divisibility = 16 : i32} loc("/home/zhengyang/git/flagtree/python/test/ops/varmean/var_mean_ascend.py":17:0), %arg1: !tt.ptr<f32> {tt.divisibility = 16 : i32} loc("/home/zhengyang/git/flagtree/python/test/ops/varmean/var_mean_ascend.py":17:0), %arg2: !tt.ptr<f32> {tt.divisibility = 16 : i32} loc("/home/zhengyang/git/flagtree/python/test/ops/varmean/var_mean_ascend.py":17:0), %arg3: i32 loc("/home/zhengyang/git/flagtree/python/test/ops/varmean/var_mean_ascend.py":17:0), %arg4: i32 {tt.divisibility = 16 : i32} loc("/home/zhengyang/git/flagtree/python/test/ops/varmean/var_mean_ascend.py":17:0), %arg5: i32 loc("/home/zhengyang/git/flagtree/python/test/ops/varmean/var_mean_ascend.py":17:0)) attributes {noinline = false} {
    %cst = arith.constant dense<1.000000e+00> : tensor<4xf32> loc(#loc1)
    %cst_0 = arith.constant dense<1.000000e+00> : tensor<4x64xf32> loc(#loc1)
    %c64_i32 = arith.constant 64 : i32 loc(#loc1)
    %c0_i32 = arith.constant 0 : i32 loc(#loc1)
    %cst_1 = arith.constant dense<0.000000e+00> : tensor<4x64xf32> loc(#loc1)
    %c4_i32 = arith.constant 4 : i32 loc(#loc1)
    %0 = tt.get_program_id x : i32 loc(#loc2)
    %1 = arith.muli %0, %c4_i32 : i32 loc(#loc3)
    %2 = tt.make_range {end = 4 : i32, start = 0 : i32} : tensor<4xi32> loc(#loc4)
    %3 = tt.expand_dims %2 {axis = 1 : i32} : tensor<4xi32> -> tensor<4x1xi32> loc(#loc5)
    %4 = tt.splat %1 : i32 -> tensor<4x1xi32> loc(#loc6)
    %5 = arith.addi %4, %3 : tensor<4x1xi32> loc(#loc6)
    %6 = tt.splat %arg4 : i32 -> tensor<4x1xi32> loc(#loc7)
    %7 = arith.muli %5, %6 : tensor<4x1xi32> loc(#loc7)
    %8 = tt.splat %arg0 : !tt.ptr<f32> -> tensor<4x1x!tt.ptr<f32>> loc(#loc8)
    %9 = tt.addptr %8, %7 : tensor<4x1x!tt.ptr<f32>>, tensor<4x1xi32> loc(#loc8)
    %10 = tt.splat %arg1 : !tt.ptr<f32> -> tensor<4x1x!tt.ptr<f32>> loc(#loc9)
    %11 = tt.addptr %10, %5 : tensor<4x1x!tt.ptr<f32>>, tensor<4x1xi32> loc(#loc9)
    %12 = tt.splat %arg2 : !tt.ptr<f32> -> tensor<4x1x!tt.ptr<f32>> loc(#loc10)
    %13 = tt.addptr %12, %5 : tensor<4x1x!tt.ptr<f32>>, tensor<4x1xi32> loc(#loc10)
    %14 = tt.splat %arg3 : i32 -> tensor<4x1xi32> loc(#loc11)
    %15 = arith.cmpi slt, %5, %14 : tensor<4x1xi32> loc(#loc11)
    %16 = tt.make_range {end = 64 : i32, start = 0 : i32} : tensor<64xi32> loc(#loc12)
    %17 = tt.expand_dims %16 {axis = 0 : i32} : tensor<64xi32> -> tensor<1x64xi32> loc(#loc13)
    %18 = tt.splat %arg4 : i32 -> tensor<1x64xi32> loc(#loc14)
    %19 = tt.broadcast %15 : tensor<4x1xi1> -> tensor<4x64xi1> loc(#loc15)
    %20 = tt.broadcast %9 : tensor<4x1x!tt.ptr<f32>> -> tensor<4x64x!tt.ptr<f32>> loc(#loc16)
    %21:3 = scf.for %arg6 = %c0_i32 to %arg4 step %c64_i32 iter_args(%arg7 = %cst_1, %arg8 = %cst_1, %arg9 = %cst_1) -> (tensor<4x64xf32>, tensor<4x64xf32>, tensor<4x64xf32>)  : i32 {
      %39 = tt.splat %arg6 : i32 -> tensor<1x64xi32> loc(#loc18)
      %40 = arith.addi %39, %17 : tensor<1x64xi32> loc(#loc18)
      %41 = arith.cmpi slt, %40, %18 : tensor<1x64xi32> loc(#loc14)
      %42 = tt.broadcast %41 : tensor<1x64xi1> -> tensor<4x64xi1> loc(#loc15)
      %43 = arith.andi %19, %42 : tensor<4x64xi1> loc(#loc15)
      %44 = tt.broadcast %40 : tensor<1x64xi32> -> tensor<4x64xi32> loc(#loc16)
      %45 = tt.addptr %20, %44 : tensor<4x64x!tt.ptr<f32>>, tensor<4x64xi32> loc(#loc16)
      %46 = tt.load %45, %43, %cst_1 : tensor<4x64x!tt.ptr<f32>> loc(#loc19)
      %47 = arith.uitofp %43 : tensor<4x64xi1> to tensor<4x64xf32> loc(#loc20)
      %48 = arith.addf %arg9, %47 : tensor<4x64xf32> loc(#loc20)
      %49 = arith.maxnumf %48, %cst_0 : tensor<4x64xf32> loc(#loc21)
      %50 = arith.mulf %arg8, %arg9 : tensor<4x64xf32> loc(#loc22)
      %51 = arith.addf %50, %46 : tensor<4x64xf32> loc(#loc23)
      %52 = arith.divf %51, %49 : tensor<4x64xf32> loc(#loc24)
      %53 = arith.subf %46, %52 : tensor<4x64xf32> loc(#loc25)
      %54 = arith.subf %46, %arg8 : tensor<4x64xf32> loc(#loc26)
      %55 = arith.mulf %53, %54 : tensor<4x64xf32> loc(#loc27)
      %56 = arith.mulf %55, %47 : tensor<4x64xf32> loc(#loc28)
      %57 = arith.addf %arg7, %56 : tensor<4x64xf32> loc(#loc29)
      scf.yield %57, %52, %48 : tensor<4x64xf32>, tensor<4x64xf32>, tensor<4x64xf32> loc(#loc30)
    } loc(#loc17)
    %22 = "tt.reduce"(%21#2) <{axis = 1 : i32}> ({
    ^bb0(%arg6: f32 loc(callsite(#loc1 at #loc32)), %arg7: f32 loc(callsite(#loc1 at #loc32))):
      %39 = arith.addf %arg6, %arg7 : f32 loc(#loc57)
      tt.reduce.return %39 : f32 loc(#loc50)
    }) : (tensor<4x64xf32>) -> tensor<4xf32> loc(#loc50)
    %23 = arith.mulf %21#1, %21#2 : tensor<4x64xf32> loc(#loc34)
    %24 = "tt.reduce"(%23) <{axis = 1 : i32}> ({
    ^bb0(%arg6: f32 loc(callsite(#loc1 at #loc35)), %arg7: f32 loc(callsite(#loc1 at #loc35))):
      %39 = arith.addf %arg6, %arg7 : f32 loc(#loc58)
      tt.reduce.return %39 : f32 loc(#loc53)
    }) : (tensor<4x64xf32>) -> tensor<4xf32> loc(#loc53)
    %25 = arith.maxnumf %22, %cst : tensor<4xf32> loc(#loc36)
    %26 = arith.divf %24, %25 : tensor<4xf32> loc(#loc37)
    %27 = tt.expand_dims %26 {axis = 1 : i32} : tensor<4xf32> -> tensor<4x1xf32> loc(#loc38)
    %28 = tt.broadcast %27 : tensor<4x1xf32> -> tensor<4x64xf32> loc(#loc39)
    %29 = arith.subf %21#1, %28 : tensor<4x64xf32> loc(#loc39)
    %30 = arith.mulf %21#2, %29 : tensor<4x64xf32> loc(#loc40)
    %31 = arith.mulf %30, %29 : tensor<4x64xf32> loc(#loc41)
    %32 = arith.addf %21#0, %31 : tensor<4x64xf32> loc(#loc42)
    %33 = "tt.reduce"(%32) <{axis = 1 : i32}> ({
    ^bb0(%arg6: f32 loc(callsite(#loc1 at #loc43)), %arg7: f32 loc(callsite(#loc1 at #loc43))):
      %39 = arith.addf %arg6, %arg7 : f32 loc(#loc59)
      tt.reduce.return %39 : f32 loc(#loc55)
    }) : (tensor<4x64xf32>) -> tensor<4xf32> loc(#loc55)
    %34 = arith.subi %arg4, %arg5 : i32 loc(#loc44)
    %35 = arith.sitofp %34 : i32 to f32 loc(#loc45)
    %36 = tt.splat %35 : f32 -> tensor<4xf32> loc(#loc45)
    %37 = arith.divf %33, %36 : tensor<4xf32> loc(#loc45)
    %38 = tt.expand_dims %37 {axis = 1 : i32} : tensor<4xf32> -> tensor<4x1xf32> loc(#loc46)
    tt.store %13, %27, %15 : tensor<4x1x!tt.ptr<f32>> loc(#loc47)
    tt.store %11, %38, %15 : tensor<4x1x!tt.ptr<f32>> loc(#loc48)
    tt.return loc(#loc49)
  } loc(#loc)
} loc(#loc)
#loc2 = loc("/home/zhengyang/git/flagtree/python/test/ops/varmean/var_mean_ascend.py":28:24)
#loc3 = loc("/home/zhengyang/git/flagtree/python/test/ops/varmean/var_mean_ascend.py":28:29)
#loc4 = loc("/home/zhengyang/git/flagtree/python/test/ops/varmean/var_mean_ascend.py":28:52)
#loc5 = loc("/home/zhengyang/git/flagtree/python/test/ops/varmean/var_mean_ascend.py":28:61)
#loc6 = loc("/home/zhengyang/git/flagtree/python/test/ops/varmean/var_mean_ascend.py":28:39)
#loc7 = loc("/home/zhengyang/git/flagtree/python/test/ops/varmean/var_mean_ascend.py":29:18)
#loc8 = loc("/home/zhengyang/git/flagtree/python/test/ops/varmean/var_mean_ascend.py":29:12)
#loc9 = loc("/home/zhengyang/git/flagtree/python/test/ops/varmean/var_mean_ascend.py":30:16)
#loc10 = loc("/home/zhengyang/git/flagtree/python/test/ops/varmean/var_mean_ascend.py":31:18)
#loc11 = loc("/home/zhengyang/git/flagtree/python/test/ops/varmean/var_mean_ascend.py":32:21)
#loc12 = loc("/home/zhengyang/git/flagtree/python/test/ops/varmean/var_mean_ascend.py":39:34)
#loc13 = loc("/home/zhengyang/git/flagtree/python/test/ops/varmean/var_mean_ascend.py":39:43)
#loc14 = loc("/home/zhengyang/git/flagtree/python/test/ops/varmean/var_mean_ascend.py":40:26)
#loc15 = loc("/home/zhengyang/git/flagtree/python/test/ops/varmean/var_mean_ascend.py":41:28)
#loc16 = loc("/home/zhengyang/git/flagtree/python/test/ops/varmean/var_mean_ascend.py":42:24)
#loc17 = loc("/home/zhengyang/git/flagtree/python/test/ops/varmean/var_mean_ascend.py":38:27)
#loc18 = loc("/home/zhengyang/git/flagtree/python/test/ops/varmean/var_mean_ascend.py":39:21)
#loc19 = loc("/home/zhengyang/git/flagtree/python/test/ops/varmean/var_mean_ascend.py":42:30)
#loc20 = loc("/home/zhengyang/git/flagtree/python/test/ops/varmean/var_mean_ascend.py":44:25)
#loc21 = loc("/home/zhengyang/git/flagtree/python/test/ops/varmean/var_mean_ascend.py":45:32)
#loc22 = loc("/home/zhengyang/git/flagtree/python/test/ops/varmean/var_mean_ascend.py":46:28)
#loc23 = loc("/home/zhengyang/git/flagtree/python/test/ops/varmean/var_mean_ascend.py":46:37)
#loc24 = loc("/home/zhengyang/git/flagtree/python/test/ops/varmean/var_mean_ascend.py":46:42)
#loc25 = loc("/home/zhengyang/git/flagtree/python/test/ops/varmean/var_mean_ascend.py":47:21)
#loc26 = loc("/home/zhengyang/git/flagtree/python/test/ops/varmean/var_mean_ascend.py":47:38)
#loc27 = loc("/home/zhengyang/git/flagtree/python/test/ops/varmean/var_mean_ascend.py":47:34)
#loc28 = loc("/home/zhengyang/git/flagtree/python/test/ops/varmean/var_mean_ascend.py":47:47)
#loc29 = loc("/home/zhengyang/git/flagtree/python/test/ops/varmean/var_mean_ascend.py":47:16)
#loc30 = loc("/home/zhengyang/git/flagtree/python/test/ops/varmean/var_mean_ascend.py":49:8)
#loc31 = loc("/usr/local/python3.11.13/lib/python3.11/site-packages/triton/language/standard.py":267:36)
#loc33 = loc("/usr/local/python3.11.13/lib/python3.11/site-packages/triton/language/standard.py":256:15)
#loc34 = loc("/home/zhengyang/git/flagtree/python/test/ops/varmean/var_mean_ascend.py":58:34)
#loc36 = loc("/home/zhengyang/git/flagtree/python/test/ops/varmean/var_mean_ascend.py":59:50)
#loc37 = loc("/home/zhengyang/git/flagtree/python/test/ops/varmean/var_mean_ascend.py":59:26)
#loc38 = loc("/home/zhengyang/git/flagtree/python/test/ops/varmean/var_mean_ascend.py":63:25)
#loc39 = loc("/home/zhengyang/git/flagtree/python/test/ops/varmean/var_mean_ascend.py":67:49)
#loc40 = loc("/home/zhengyang/git/flagtree/python/test/ops/varmean/var_mean_ascend.py":67:41)
#loc41 = loc("/home/zhengyang/git/flagtree/python/test/ops/varmean/var_mean_ascend.py":67:67)
#loc42 = loc("/home/zhengyang/git/flagtree/python/test/ops/varmean/var_mean_ascend.py":67:31)
#loc44 = loc("/home/zhengyang/git/flagtree/python/test/ops/varmean/var_mean_ascend.py":70:21)
#loc45 = loc("/home/zhengyang/git/flagtree/python/test/ops/varmean/var_mean_ascend.py":70:17)
#loc46 = loc("/home/zhengyang/git/flagtree/python/test/ops/varmean/var_mean_ascend.py":72:14)
#loc47 = loc("/home/zhengyang/git/flagtree/python/test/ops/varmean/var_mean_ascend.py":75:25)
#loc48 = loc("/home/zhengyang/git/flagtree/python/test/ops/varmean/var_mean_ascend.py":76:23)
#loc49 = loc("/home/zhengyang/git/flagtree/python/test/ops/varmean/var_mean_ascend.py":76:4)
#loc50 = loc(callsite(#loc31 at #loc32))
#loc52 = loc(callsite(#loc33 at #loc31))
#loc53 = loc(callsite(#loc31 at #loc35))
#loc55 = loc(callsite(#loc31 at #loc43))
#loc57 = loc(callsite(#loc52 at #loc32))
#loc58 = loc(callsite(#loc52 at #loc35))
#loc59 = loc(callsite(#loc52 at #loc43))
