#loc = loc("/home/zhengyang/git/flagtree/python/test/ops/bmm/bmm_ascend.py":17:0)
module {
  tt.func public @bmm_kernel(%arg0: !tt.ptr<f32> {tt.divisibility = 16 : i32} loc("/home/zhengyang/git/flagtree/python/test/ops/bmm/bmm_ascend.py":17:0), %arg1: !tt.ptr<f32> {tt.divisibility = 16 : i32} loc("/home/zhengyang/git/flagtree/python/test/ops/bmm/bmm_ascend.py":17:0), %arg2: !tt.ptr<f32> {tt.divisibility = 16 : i32} loc("/home/zhengyang/git/flagtree/python/test/ops/bmm/bmm_ascend.py":17:0), %arg3: i32 loc("/home/zhengyang/git/flagtree/python/test/ops/bmm/bmm_ascend.py":17:0), %arg4: i32 loc("/home/zhengyang/git/flagtree/python/test/ops/bmm/bmm_ascend.py":17:0), %arg5: i32 loc("/home/zhengyang/git/flagtree/python/test/ops/bmm/bmm_ascend.py":17:0)) attributes {noinline = false} {
    %c63_i32 = arith.constant 63 : i32 loc(#loc1)
    %c1_i32 = arith.constant 1 : i32 loc(#loc1)
    %c0_i32 = arith.constant 0 : i32 loc(#loc1)
    %cst = arith.constant dense<0.000000e+00> : tensor<64x64xf32> loc(#loc1)
    %cst_0 = arith.constant dense<64> : tensor<64x64xi32> loc(#loc1)
    %c64_i32 = arith.constant 64 : i32 loc(#loc1)
    %0 = tt.get_program_id z : i32 loc(#loc2)
    %1 = arith.muli %0, %arg3 : i32 loc(#loc3)
    %2 = arith.muli %1, %arg5 : i32 loc(#loc4)
    %3 = tt.addptr %arg0, %2 : !tt.ptr<f32>, i32 loc(#loc5)
    %4 = arith.muli %0, %arg5 : i32 loc(#loc6)
    %5 = arith.muli %4, %arg4 : i32 loc(#loc7)
    %6 = tt.addptr %arg1, %5 : !tt.ptr<f32>, i32 loc(#loc8)
    %7 = arith.muli %1, %arg4 : i32 loc(#loc9)
    %8 = tt.addptr %arg2, %7 : !tt.ptr<f32>, i32 loc(#loc10)
    %9 = tt.get_program_id x : i32 loc(#loc11)
    %10 = tt.get_program_id y : i32 loc(#loc12)
    %11 = arith.muli %9, %c64_i32 : i32 loc(#loc13)
    %12 = tt.make_range {end = 64 : i32, start = 0 : i32} : tensor<64xi32> loc(#loc14)
    %13 = tt.splat %11 : i32 -> tensor<64xi32> loc(#loc15)
    %14 = arith.addi %13, %12 : tensor<64xi32> loc(#loc15)
    %15 = arith.muli %10, %c64_i32 : i32 loc(#loc16)
    %16 = tt.splat %15 : i32 -> tensor<64xi32> loc(#loc17)
    %17 = arith.addi %16, %12 : tensor<64xi32> loc(#loc17)
    %18 = tt.expand_dims %14 {axis = 1 : i32} : tensor<64xi32> -> tensor<64x1xi32> loc(#loc18)
    %19 = tt.splat %arg5 : i32 -> tensor<64x1xi32> loc(#loc19)
    %20 = arith.muli %18, %19 : tensor<64x1xi32> loc(#loc19)
    %21 = tt.splat %3 : !tt.ptr<f32> -> tensor<64x1x!tt.ptr<f32>> loc(#loc20)
    %22 = tt.addptr %21, %20 : tensor<64x1x!tt.ptr<f32>>, tensor<64x1xi32> loc(#loc20)
    %23 = tt.expand_dims %12 {axis = 0 : i32} : tensor<64xi32> -> tensor<1x64xi32> loc(#loc21)
    %24 = tt.broadcast %22 : tensor<64x1x!tt.ptr<f32>> -> tensor<64x64x!tt.ptr<f32>> loc(#loc22)
    %25 = tt.broadcast %23 : tensor<1x64xi32> -> tensor<64x64xi32> loc(#loc22)
    %26 = tt.addptr %24, %25 : tensor<64x64x!tt.ptr<f32>>, tensor<64x64xi32> loc(#loc22)
    %27 = tt.expand_dims %12 {axis = 1 : i32} : tensor<64xi32> -> tensor<64x1xi32> loc(#loc23)
    %28 = tt.splat %arg4 : i32 -> tensor<64x1xi32> loc(#loc24)
    %29 = arith.muli %27, %28 : tensor<64x1xi32> loc(#loc24)
    %30 = tt.splat %6 : !tt.ptr<f32> -> tensor<64x1x!tt.ptr<f32>> loc(#loc25)
    %31 = tt.addptr %30, %29 : tensor<64x1x!tt.ptr<f32>>, tensor<64x1xi32> loc(#loc25)
    %32 = tt.expand_dims %17 {axis = 0 : i32} : tensor<64xi32> -> tensor<1x64xi32> loc(#loc26)
    %33 = tt.broadcast %31 : tensor<64x1x!tt.ptr<f32>> -> tensor<64x64x!tt.ptr<f32>> loc(#loc27)
    %34 = tt.broadcast %32 : tensor<1x64xi32> -> tensor<64x64xi32> loc(#loc27)
    %35 = tt.addptr %33, %34 : tensor<64x64x!tt.ptr<f32>>, tensor<64x64xi32> loc(#loc27)
    %36 = arith.muli %18, %28 : tensor<64x1xi32> loc(#loc28)
    %37 = tt.splat %8 : !tt.ptr<f32> -> tensor<64x1x!tt.ptr<f32>> loc(#loc29)
    %38 = tt.addptr %37, %36 : tensor<64x1x!tt.ptr<f32>>, tensor<64x1xi32> loc(#loc29)
    %39 = tt.broadcast %38 : tensor<64x1x!tt.ptr<f32>> -> tensor<64x64x!tt.ptr<f32>> loc(#loc30)
    %40 = tt.addptr %39, %34 : tensor<64x64x!tt.ptr<f32>>, tensor<64x64xi32> loc(#loc30)
    %41 = arith.addi %arg5, %c63_i32 : i32 loc(#loc53)
    %42 = arith.divsi %41, %c64_i32 : i32 loc(#loc54)
    %43 = arith.muli %arg4, %c64_i32 : i32 loc(#loc34)
    %44 = tt.splat %43 : i32 -> tensor<64x64xi32> loc(#loc35)
    %45:3 = scf.for %arg6 = %c0_i32 to %42 step %c1_i32 iter_args(%arg7 = %26, %arg8 = %35, %arg9 = %cst) -> (tensor<64x64x!tt.ptr<f32>>, tensor<64x64x!tt.ptr<f32>>, tensor<64x64xf32>)  : i32 {
      %55 = arith.muli %arg6, %c64_i32 : i32 loc(#loc37)
      %56 = arith.subi %arg5, %55 : i32 loc(#loc38)
      %57 = tt.splat %56 : i32 -> tensor<1x64xi32> loc(#loc39)
      %58 = arith.cmpi slt, %23, %57 : tensor<1x64xi32> loc(#loc39)
      %59 = tt.splat %56 : i32 -> tensor<64x1xi32> loc(#loc40)
      %60 = arith.cmpi slt, %27, %59 : tensor<64x1xi32> loc(#loc40)
      %61 = tt.broadcast %58 : tensor<1x64xi1> -> tensor<64x64xi1> loc(#loc41)
      %62 = tt.load %arg7, %61, %cst : tensor<64x64x!tt.ptr<f32>> loc(#loc41)
      %63 = tt.broadcast %60 : tensor<64x1xi1> -> tensor<64x64xi1> loc(#loc42)
      %64 = tt.load %arg8, %63, %cst : tensor<64x64x!tt.ptr<f32>> loc(#loc42)
      %65 = tt.addptr %arg7, %cst_0 : tensor<64x64x!tt.ptr<f32>>, tensor<64x64xi32> loc(#loc43)
      %66 = tt.addptr %arg8, %44 : tensor<64x64x!tt.ptr<f32>>, tensor<64x64xi32> loc(#loc35)
      %67 = tt.dot %62, %64, %arg9 : tensor<64x64xf32> * tensor<64x64xf32> -> tensor<64x64xf32> loc(#loc44)
      scf.yield %65, %66, %67 : tensor<64x64x!tt.ptr<f32>>, tensor<64x64x!tt.ptr<f32>>, tensor<64x64xf32> loc(#loc45)
    } loc(#loc36)
    %46 = tt.splat %arg3 : i32 -> tensor<64xi32> loc(#loc46)
    %47 = arith.cmpi slt, %14, %46 : tensor<64xi32> loc(#loc46)
    %48 = tt.splat %arg4 : i32 -> tensor<64xi32> loc(#loc47)
    %49 = arith.cmpi slt, %17, %48 : tensor<64xi32> loc(#loc47)
    %50 = tt.expand_dims %47 {axis = 1 : i32} : tensor<64xi1> -> tensor<64x1xi1> loc(#loc48)
    %51 = tt.expand_dims %49 {axis = 0 : i32} : tensor<64xi1> -> tensor<1x64xi1> loc(#loc49)
    %52 = tt.broadcast %50 : tensor<64x1xi1> -> tensor<64x64xi1> loc(#loc50)
    %53 = tt.broadcast %51 : tensor<1x64xi1> -> tensor<64x64xi1> loc(#loc50)
    %54 = arith.andi %52, %53 : tensor<64x64xi1> loc(#loc50)
    tt.store %40, %45#2, %54 : tensor<64x64x!tt.ptr<f32>> loc(#loc51)
    tt.return loc(#loc52)
  } loc(#loc)
} loc(#loc)
#loc1 = loc(unknown)
#loc2 = loc("/home/zhengyang/git/flagtree/python/test/ops/bmm/bmm_ascend.py":33:26)
#loc3 = loc("/home/zhengyang/git/flagtree/python/test/ops/bmm/bmm_ascend.py":34:17)
#loc4 = loc("/home/zhengyang/git/flagtree/python/test/ops/bmm/bmm_ascend.py":34:21)
#loc5 = loc("/home/zhengyang/git/flagtree/python/test/ops/bmm/bmm_ascend.py":34:9)
#loc6 = loc("/home/zhengyang/git/flagtree/python/test/ops/bmm/bmm_ascend.py":35:17)
#loc7 = loc("/home/zhengyang/git/flagtree/python/test/ops/bmm/bmm_ascend.py":35:21)
#loc8 = loc("/home/zhengyang/git/flagtree/python/test/ops/bmm/bmm_ascend.py":35:9)
#loc9 = loc("/home/zhengyang/git/flagtree/python/test/ops/bmm/bmm_ascend.py":36:21)
#loc10 = loc("/home/zhengyang/git/flagtree/python/test/ops/bmm/bmm_ascend.py":36:9)
#loc11 = loc("/home/zhengyang/git/flagtree/python/test/ops/bmm/bmm_ascend.py":38:25)
#loc12 = loc("/home/zhengyang/git/flagtree/python/test/ops/bmm/bmm_ascend.py":39:25)
#loc13 = loc("/home/zhengyang/git/flagtree/python/test/ops/bmm/bmm_ascend.py":58:21)
#loc14 = loc("/home/zhengyang/git/flagtree/python/test/ops/bmm/bmm_ascend.py":58:43)
#loc15 = loc("/home/zhengyang/git/flagtree/python/test/ops/bmm/bmm_ascend.py":58:30)
#loc16 = loc("/home/zhengyang/git/flagtree/python/test/ops/bmm/bmm_ascend.py":59:21)
#loc17 = loc("/home/zhengyang/git/flagtree/python/test/ops/bmm/bmm_ascend.py":59:30)
#loc18 = loc("/home/zhengyang/git/flagtree/python/test/ops/bmm/bmm_ascend.py":62:24)
#loc19 = loc("/home/zhengyang/git/flagtree/python/test/ops/bmm/bmm_ascend.py":62:35)
#loc20 = loc("/home/zhengyang/git/flagtree/python/test/ops/bmm/bmm_ascend.py":62:17)
#loc21 = loc("/home/zhengyang/git/flagtree/python/test/ops/bmm/bmm_ascend.py":62:46)
#loc22 = loc("/home/zhengyang/git/flagtree/python/test/ops/bmm/bmm_ascend.py":62:39)
#loc23 = loc("/home/zhengyang/git/flagtree/python/test/ops/bmm/bmm_ascend.py":63:24)
#loc24 = loc("/home/zhengyang/git/flagtree/python/test/ops/bmm/bmm_ascend.py":63:35)
#loc25 = loc("/home/zhengyang/git/flagtree/python/test/ops/bmm/bmm_ascend.py":63:17)
#loc26 = loc("/home/zhengyang/git/flagtree/python/test/ops/bmm/bmm_ascend.py":63:46)
#loc27 = loc("/home/zhengyang/git/flagtree/python/test/ops/bmm/bmm_ascend.py":63:39)
#loc28 = loc("/home/zhengyang/git/flagtree/python/test/ops/bmm/bmm_ascend.py":64:35)
#loc29 = loc("/home/zhengyang/git/flagtree/python/test/ops/bmm/bmm_ascend.py":64:17)
#loc30 = loc("/home/zhengyang/git/flagtree/python/test/ops/bmm/bmm_ascend.py":64:39)
#loc31 = loc("/usr/local/python3.11.13/lib/python3.11/site-packages/triton/language/standard.py":40:22)
#loc32 = loc("/home/zhengyang/git/flagtree/python/test/ops/bmm/bmm_ascend.py":66:27)
#loc33 = loc("/usr/local/python3.11.13/lib/python3.11/site-packages/triton/language/standard.py":40:28)
#loc34 = loc("/home/zhengyang/git/flagtree/python/test/ops/bmm/bmm_ascend.py":75:27)
#loc35 = loc("/home/zhengyang/git/flagtree/python/test/ops/bmm/bmm_ascend.py":75:18)
#loc36 = loc("/home/zhengyang/git/flagtree/python/test/ops/bmm/bmm_ascend.py":68:19)
#loc37 = loc("/home/zhengyang/git/flagtree/python/test/ops/bmm/bmm_ascend.py":69:43)
#loc38 = loc("/home/zhengyang/git/flagtree/python/test/ops/bmm/bmm_ascend.py":69:39)
#loc39 = loc("/home/zhengyang/git/flagtree/python/test/ops/bmm/bmm_ascend.py":69:35)
#loc40 = loc("/home/zhengyang/git/flagtree/python/test/ops/bmm/bmm_ascend.py":70:35)
#loc41 = loc("/home/zhengyang/git/flagtree/python/test/ops/bmm/bmm_ascend.py":71:20)
#loc42 = loc("/home/zhengyang/git/flagtree/python/test/ops/bmm/bmm_ascend.py":72:20)
#loc43 = loc("/home/zhengyang/git/flagtree/python/test/ops/bmm/bmm_ascend.py":74:18)
#loc44 = loc("/home/zhengyang/git/flagtree/python/test/ops/bmm/bmm_ascend.py":77:23)
#loc45 = loc("/home/zhengyang/git/flagtree/python/test/ops/bmm/bmm_ascend.py":77:8)
#loc46 = loc("/home/zhengyang/git/flagtree/python/test/ops/bmm/bmm_ascend.py":79:55)
#loc47 = loc("/home/zhengyang/git/flagtree/python/test/ops/bmm/bmm_ascend.py":80:55)
#loc48 = loc("/home/zhengyang/git/flagtree/python/test/ops/bmm/bmm_ascend.py":81:20)
#loc49 = loc("/home/zhengyang/git/flagtree/python/test/ops/bmm/bmm_ascend.py":81:38)
#loc50 = loc("/home/zhengyang/git/flagtree/python/test/ops/bmm/bmm_ascend.py":81:31)
#loc51 = loc("/home/zhengyang/git/flagtree/python/test/ops/bmm/bmm_ascend.py":82:24)
#loc52 = loc("/home/zhengyang/git/flagtree/python/test/ops/bmm/bmm_ascend.py":82:4)
#loc53 = loc(callsite(#loc31 at #loc32))
#loc54 = loc(callsite(#loc33 at #loc32))
