#loc = loc("/home/zhengyang/git/flagtree/python/test/ops/min_dim/min_dim_ascend_perf.py":38:0)
#loc1 = loc(unknown)
#loc19 = loc("/home/zhengyang/git/flagtree/python/test/ops/min_dim/min_dim_ascend_perf.py":67:51)
#loc46 = loc(callsite(#loc1 at #loc19))
module {
  tt.func public @min_kernel(%arg0: !tt.ptr<f32> {tt.divisibility = 16 : i32} loc("/home/zhengyang/git/flagtree/python/test/ops/min_dim/min_dim_ascend_perf.py":38:0), %arg1: !tt.ptr<f32> {tt.divisibility = 16 : i32} loc("/home/zhengyang/git/flagtree/python/test/ops/min_dim/min_dim_ascend_perf.py":38:0), %arg2: !tt.ptr<i64> {tt.divisibility = 16 : i32} loc("/home/zhengyang/git/flagtree/python/test/ops/min_dim/min_dim_ascend_perf.py":38:0), %arg3: i32 loc("/home/zhengyang/git/flagtree/python/test/ops/min_dim/min_dim_ascend_perf.py":38:0), %arg4: i32 {tt.divisibility = 16 : i32} loc("/home/zhengyang/git/flagtree/python/test/ops/min_dim/min_dim_ascend_perf.py":38:0), %arg5: i32 loc("/home/zhengyang/git/flagtree/python/test/ops/min_dim/min_dim_ascend_perf.py":38:0)) attributes {noinline = false} {
    %cst = arith.constant dense<0x7F800000> : tensor<8x256xf32> loc(#loc1)
    %cst_0 = arith.constant dense<0x7F800000> : tensor<8xf32> loc(#loc1)
    %c256_i32 = arith.constant 256 : i32 loc(#loc1)
    %c0_i32 = arith.constant 0 : i32 loc(#loc1)
    %cst_1 = arith.constant dense<0> : tensor<8xi64> loc(#loc1)
    %c8_i32 = arith.constant 8 : i32 loc(#loc1)
    %0 = tt.get_program_id x : i32 loc(#loc2)
    %1 = tt.get_program_id y : i32 loc(#loc3)
    %2 = arith.muli %0, %c8_i32 : i32 loc(#loc4)
    %3 = tt.make_range {end = 8 : i32, start = 0 : i32} : tensor<8xi32> loc(#loc5)
    %4 = tt.splat %2 : i32 -> tensor<8xi32> loc(#loc6)
    %5 = arith.addi %4, %3 : tensor<8xi32> loc(#loc6)
    %6 = tt.make_range {end = 256 : i32, start = 0 : i32} : tensor<256xi32> loc(#loc7)
    %7 = tt.expand_dims %5 {axis = 1 : i32} : tensor<8xi32> -> tensor<8x1xi32> loc(#loc8)
    %8 = tt.splat %arg4 : i32 -> tensor<8x1xi32> loc(#loc9)
    %9 = arith.muli %7, %8 : tensor<8x1xi32> loc(#loc9)
    %10 = tt.splat %arg5 : i32 -> tensor<8x1xi32> loc(#loc10)
    %11 = arith.muli %9, %10 : tensor<8x1xi32> loc(#loc10)
    %12 = tt.splat %arg5 : i32 -> tensor<1x256xi32> loc(#loc11)
    %13 = tt.broadcast %11 : tensor<8x1xi32> -> tensor<8x256xi32> loc(#loc12)
    %14 = tt.splat %1 : i32 -> tensor<8x256xi32> loc(#loc13)
    %15 = tt.splat %arg3 : i32 -> tensor<8x1xi32> loc(#loc14)
    %16 = arith.cmpi slt, %7, %15 : tensor<8x1xi32> loc(#loc14)
    %17 = tt.splat %arg4 : i32 -> tensor<1x256xi32> loc(#loc15)
    %18 = tt.broadcast %16 : tensor<8x1xi1> -> tensor<8x256xi1> loc(#loc16)
    %19 = tt.splat %arg0 : !tt.ptr<f32> -> tensor<8x256x!tt.ptr<f32>> loc(#loc17)
    %20 = tt.expand_dims %6 {axis = 0 : i32} : tensor<256xi32> -> tensor<1x256xi32> loc(#loc45)
    %21 = tt.broadcast %20 : tensor<1x256xi32> -> tensor<8x256xi32> loc(#loc45)
    %22:2 = scf.for %arg6 = %c0_i32 to %arg4 step %c256_i32 iter_args(%arg7 = %cst_0, %arg8 = %cst_1) -> (tensor<8xf32>, tensor<8xi64>)  : i32 {
      %33 = tt.splat %arg6 : i32 -> tensor<256xi32> loc(#loc21)
      %34 = arith.addi %33, %6 : tensor<256xi32> loc(#loc21)
      %35 = tt.expand_dims %34 {axis = 0 : i32} : tensor<256xi32> -> tensor<1x256xi32> loc(#loc22)
      %36 = arith.muli %35, %12 : tensor<1x256xi32> loc(#loc11)
      %37 = tt.broadcast %36 : tensor<1x256xi32> -> tensor<8x256xi32> loc(#loc12)
      %38 = arith.addi %13, %37 : tensor<8x256xi32> loc(#loc12)
      %39 = arith.addi %38, %14 : tensor<8x256xi32> loc(#loc13)
      %40 = arith.cmpi slt, %35, %17 : tensor<1x256xi32> loc(#loc15)
      %41 = tt.broadcast %40 : tensor<1x256xi1> -> tensor<8x256xi1> loc(#loc16)
      %42 = arith.andi %18, %41 : tensor<8x256xi1> loc(#loc16)
      %43 = tt.addptr %19, %39 : tensor<8x256x!tt.ptr<f32>>, tensor<8x256xi32> loc(#loc17)
      %44 = tt.load %43, %42, %cst : tensor<8x256x!tt.ptr<f32>> loc(#loc23)
      %45:2 = "tt.reduce"(%44, %21) <{axis = 1 : i32}> ({
      ^bb0(%arg9: f32 loc(callsite(#loc1 at #loc19)), %arg10: i32 loc(callsite(#loc1 at #loc19)), %arg11: f32 loc(callsite(#loc1 at #loc19)), %arg12: i32 loc(callsite(#loc1 at #loc19))):
        %52 = arith.cmpf oeq, %arg9, %arg11 : f32 loc(#loc61)
        %53 = arith.cmpi slt, %arg10, %arg12 : i32 loc(#loc62)
        %54 = arith.andi %52, %53 : i1 loc(#loc63)
        %55 = arith.cmpf olt, %arg9, %arg11 : f32 loc(#loc64)
        %56 = arith.ori %55, %54 : i1 loc(#loc65)
        %57 = arith.select %56, %arg9, %arg11 : f32 loc(#loc66)
        %58 = arith.select %56, %arg10, %arg12 : i32 loc(#loc67)
        tt.reduce.return %57, %58 : f32, i32 loc(#loc45)
      }) : (tensor<8x256xf32>, tensor<8x256xi32>) -> (tensor<8xf32>, tensor<8xi32>) loc(#loc45)
      %46 = arith.cmpf olt, %45#0, %arg7 : tensor<8xf32> loc(#loc32)
      %47 = arith.select %46, %45#0, %arg7 : tensor<8xi1>, tensor<8xf32> loc(#loc33)
      %48 = tt.splat %arg6 : i32 -> tensor<8xi32> loc(#loc34)
      %49 = arith.addi %48, %45#1 : tensor<8xi32> loc(#loc34)
      %50 = arith.extsi %49 : tensor<8xi32> to tensor<8xi64> loc(#loc35)
      %51 = arith.select %46, %50, %arg8 : tensor<8xi1>, tensor<8xi64> loc(#loc35)
      scf.yield %47, %51 : tensor<8xf32>, tensor<8xi64> loc(#loc36)
    } loc(#loc20)
    %23 = tt.splat %arg5 : i32 -> tensor<8xi32> loc(#loc37)
    %24 = arith.muli %5, %23 : tensor<8xi32> loc(#loc37)
    %25 = tt.splat %1 : i32 -> tensor<8xi32> loc(#loc38)
    %26 = arith.addi %24, %25 : tensor<8xi32> loc(#loc38)
    %27 = tt.splat %arg1 : !tt.ptr<f32> -> tensor<8x!tt.ptr<f32>> loc(#loc39)
    %28 = tt.addptr %27, %26 : tensor<8x!tt.ptr<f32>>, tensor<8xi32> loc(#loc39)
    %29 = tt.splat %arg2 : !tt.ptr<i64> -> tensor<8x!tt.ptr<i64>> loc(#loc40)
    %30 = tt.addptr %29, %26 : tensor<8x!tt.ptr<i64>>, tensor<8xi32> loc(#loc40)
    %31 = tt.splat %arg3 : i32 -> tensor<8xi32> loc(#loc41)
    %32 = arith.cmpi slt, %5, %31 : tensor<8xi32> loc(#loc41)
    tt.store %28, %22#0, %32 : tensor<8x!tt.ptr<f32>> loc(#loc42)
    tt.store %30, %22#1, %32 : tensor<8x!tt.ptr<i64>> loc(#loc43)
    tt.return loc(#loc44)
  } loc(#loc)
} loc(#loc)
#loc2 = loc("/home/zhengyang/git/flagtree/python/test/ops/min_dim/min_dim_ascend_perf.py":49:26)
#loc3 = loc("/home/zhengyang/git/flagtree/python/test/ops/min_dim/min_dim_ascend_perf.py":50:26)
#loc4 = loc("/home/zhengyang/git/flagtree/python/test/ops/min_dim/min_dim_ascend_perf.py":51:23)
#loc5 = loc("/home/zhengyang/git/flagtree/python/test/ops/min_dim/min_dim_ascend_perf.py":51:46)
#loc6 = loc("/home/zhengyang/git/flagtree/python/test/ops/min_dim/min_dim_ascend_perf.py":51:33)
#loc7 = loc("/home/zhengyang/git/flagtree/python/test/ops/min_dim/min_dim_ascend_perf.py":60:42)
#loc8 = loc("/home/zhengyang/git/flagtree/python/test/ops/min_dim/min_dim_ascend_perf.py":61:26)
#loc9 = loc("/home/zhengyang/git/flagtree/python/test/ops/min_dim/min_dim_ascend_perf.py":61:37)
#loc10 = loc("/home/zhengyang/git/flagtree/python/test/ops/min_dim/min_dim_ascend_perf.py":61:41)
#loc11 = loc("/home/zhengyang/git/flagtree/python/test/ops/min_dim/min_dim_ascend_perf.py":61:65)
#loc12 = loc("/home/zhengyang/git/flagtree/python/test/ops/min_dim/min_dim_ascend_perf.py":61:45)
#loc13 = loc("/home/zhengyang/git/flagtree/python/test/ops/min_dim/min_dim_ascend_perf.py":61:69)
#loc14 = loc("/home/zhengyang/git/flagtree/python/test/ops/min_dim/min_dim_ascend_perf.py":62:35)
#loc15 = loc("/home/zhengyang/git/flagtree/python/test/ops/min_dim/min_dim_ascend_perf.py":62:61)
#loc16 = loc("/home/zhengyang/git/flagtree/python/test/ops/min_dim/min_dim_ascend_perf.py":62:41)
#loc17 = loc("/home/zhengyang/git/flagtree/python/test/ops/min_dim/min_dim_ascend_perf.py":63:25)
#loc18 = loc("/usr/local/python3.11.13/lib/python3.11/site-packages/triton/language/standard.py":233:58)
#loc20 = loc("/home/zhengyang/git/flagtree/python/test/ops/min_dim/min_dim_ascend_perf.py":59:31)
#loc21 = loc("/home/zhengyang/git/flagtree/python/test/ops/min_dim/min_dim_ascend_perf.py":60:29)
#loc22 = loc("/home/zhengyang/git/flagtree/python/test/ops/min_dim/min_dim_ascend_perf.py":61:54)
#loc23 = loc("/home/zhengyang/git/flagtree/python/test/ops/min_dim/min_dim_ascend_perf.py":64:27)
#loc24 = loc("/usr/local/python3.11.13/lib/python3.11/site-packages/triton/language/standard.py":201:24)
#loc25 = loc("/usr/local/python3.11.13/lib/python3.11/site-packages/triton/language/standard.py":212:59)
#loc26 = loc("/usr/local/python3.11.13/lib/python3.11/site-packages/triton/language/standard.py":201:44)
#loc27 = loc("/usr/local/python3.11.13/lib/python3.11/site-packages/triton/language/standard.py":201:35)
#loc28 = loc("/usr/local/python3.11.13/lib/python3.11/site-packages/triton/language/standard.py":204:18)
#loc29 = loc("/usr/local/python3.11.13/lib/python3.11/site-packages/triton/language/standard.py":204:28)
#loc30 = loc("/usr/local/python3.11.13/lib/python3.11/site-packages/triton/language/standard.py":205:39)
#loc31 = loc("/usr/local/python3.11.13/lib/python3.11/site-packages/triton/language/standard.py":206:39)
#loc32 = loc("/home/zhengyang/git/flagtree/python/test/ops/min_dim/min_dim_ascend_perf.py":70:29)
#loc33 = loc("/home/zhengyang/git/flagtree/python/test/ops/min_dim/min_dim_ascend_perf.py":71:49)
#loc34 = loc("/home/zhengyang/git/flagtree/python/test/ops/min_dim/min_dim_ascend_perf.py":72:51)
#loc35 = loc("/home/zhengyang/git/flagtree/python/test/ops/min_dim/min_dim_ascend_perf.py":72:65)
#loc36 = loc("/home/zhengyang/git/flagtree/python/test/ops/min_dim/min_dim_ascend_perf.py":72:8)
#loc37 = loc("/home/zhengyang/git/flagtree/python/test/ops/min_dim/min_dim_ascend_perf.py":74:30)
#loc38 = loc("/home/zhengyang/git/flagtree/python/test/ops/min_dim/min_dim_ascend_perf.py":74:34)
#loc39 = loc("/home/zhengyang/git/flagtree/python/test/ops/min_dim/min_dim_ascend_perf.py":75:33)
#loc40 = loc("/home/zhengyang/git/flagtree/python/test/ops/min_dim/min_dim_ascend_perf.py":76:33)
#loc41 = loc("/home/zhengyang/git/flagtree/python/test/ops/min_dim/min_dim_ascend_perf.py":77:23)
#loc42 = loc("/home/zhengyang/git/flagtree/python/test/ops/min_dim/min_dim_ascend_perf.py":78:29)
#loc43 = loc("/home/zhengyang/git/flagtree/python/test/ops/min_dim/min_dim_ascend_perf.py":79:29)
#loc44 = loc("/home/zhengyang/git/flagtree/python/test/ops/min_dim/min_dim_ascend_perf.py":79:4)
#loc45 = loc(callsite(#loc18 at #loc19))
#loc47 = loc(callsite(#loc24 at #loc25))
#loc48 = loc(callsite(#loc26 at #loc25))
#loc49 = loc(callsite(#loc27 at #loc25))
#loc50 = loc(callsite(#loc28 at #loc25))
#loc51 = loc(callsite(#loc29 at #loc25))
#loc52 = loc(callsite(#loc30 at #loc25))
#loc53 = loc(callsite(#loc31 at #loc25))
#loc54 = loc(callsite(#loc47 at #loc18))
#loc55 = loc(callsite(#loc48 at #loc18))
#loc56 = loc(callsite(#loc49 at #loc18))
#loc57 = loc(callsite(#loc50 at #loc18))
#loc58 = loc(callsite(#loc51 at #loc18))
#loc59 = loc(callsite(#loc52 at #loc18))
#loc60 = loc(callsite(#loc53 at #loc18))
#loc61 = loc(callsite(#loc54 at #loc19))
#loc62 = loc(callsite(#loc55 at #loc19))
#loc63 = loc(callsite(#loc56 at #loc19))
#loc64 = loc(callsite(#loc57 at #loc19))
#loc65 = loc(callsite(#loc58 at #loc19))
#loc66 = loc(callsite(#loc59 at #loc19))
#loc67 = loc(callsite(#loc60 at #loc19))
