#loc = loc("/home/zhengyang/git/flagtree/python/test/ops/angle/angle.py":17:0)
module {
  tt.func public @angle_kernel(%arg0: !tt.ptr<f16> {tt.divisibility = 16 : i32} loc("/home/zhengyang/git/flagtree/python/test/ops/angle/angle.py":17:0), %arg1: !tt.ptr<f16> loc("/home/zhengyang/git/flagtree/python/test/ops/angle/angle.py":17:0), %arg2: !tt.ptr<f16> {tt.divisibility = 16 : i32} loc("/home/zhengyang/git/flagtree/python/test/ops/angle/angle.py":17:0), %arg3: i32 loc("/home/zhengyang/git/flagtree/python/test/ops/angle/angle.py":17:0)) attributes {noinline = false} {
    %cst = arith.constant dense<0.000000e+00> : tensor<1024xf32> loc(#loc1)
    %cst_0 = arith.constant dense<1.57079637> : tensor<1024xf32> loc(#loc1)
    %cst_1 = arith.constant dense<-1.57079637> : tensor<1024xf32> loc(#loc1)
    %cst_2 = arith.constant dense<3.14159274> : tensor<1024xf32> loc(#loc1)
    %cst_3 = arith.constant dense<-3.14159274> : tensor<1024xf32> loc(#loc1)
    %cst_4 = arith.constant dense<0.000000e+00> : tensor<1024xf16> loc(#loc1)
    %c1024_i32 = arith.constant 1024 : i32 loc(#loc1)
    %0 = tt.get_program_id x : i32 loc(#loc2)
    %1 = arith.muli %0, %c1024_i32 : i32 loc(#loc3)
    %2 = tt.make_range {end = 1024 : i32, start = 0 : i32} : tensor<1024xi32> loc(#loc4)
    %3 = tt.splat %1 : i32 -> tensor<1024xi32> loc(#loc5)
    %4 = arith.addi %3, %2 : tensor<1024xi32> loc(#loc5)
    %5 = tt.splat %arg3 : i32 -> tensor<1024xi32> loc(#loc6)
    %6 = arith.cmpi slt, %4, %5 : tensor<1024xi32> loc(#loc6)
    %7 = tt.splat %arg0 : !tt.ptr<f16> -> tensor<1024x!tt.ptr<f16>> loc(#loc7)
    %8 = tt.addptr %7, %4 : tensor<1024x!tt.ptr<f16>>, tensor<1024xi32> loc(#loc7)
    %9 = tt.load %8, %6, %cst_4 : tensor<1024x!tt.ptr<f16>> loc(#loc8)
    %10 = tt.splat %arg1 : !tt.ptr<f16> -> tensor<1024x!tt.ptr<f16>> loc(#loc9)
    %11 = tt.addptr %10, %4 : tensor<1024x!tt.ptr<f16>>, tensor<1024xi32> loc(#loc9)
    %12 = tt.load %11, %6, %cst_4 : tensor<1024x!tt.ptr<f16>> loc(#loc10)
    %13 = arith.extf %9 : tensor<1024xf16> to tensor<1024xf32> loc(#loc11)
    %14 = arith.extf %12 : tensor<1024xf16> to tensor<1024xf32> loc(#loc12)
    %15 = arith.cmpf oeq, %13, %cst : tensor<1024xf32> loc(#loc35)
    %16 = arith.divf %14, %13 : tensor<1024xf32> loc(#loc36)
    %17 = tt.extern_elementwise %16 {libname = "", libpath = "", pure = true, symbol = "__hmf_atanf"} : (tensor<1024xf32>) -> tensor<1024xf32> loc(#loc37)
    %18 = arith.select %15, %cst, %17 : tensor<1024xi1>, tensor<1024xf32> loc(#loc38)
    %19 = arith.cmpf ogt, %14, %cst : tensor<1024xf32> loc(#loc39)
    %20 = arith.andi %15, %19 : tensor<1024xi1> loc(#loc40)
    %21 = arith.select %20, %cst_0, %18 : tensor<1024xi1>, tensor<1024xf32> loc(#loc41)
    %22 = arith.cmpf olt, %14, %cst : tensor<1024xf32> loc(#loc42)
    %23 = arith.andi %15, %22 : tensor<1024xi1> loc(#loc43)
    %24 = arith.select %23, %cst_1, %21 : tensor<1024xi1>, tensor<1024xf32> loc(#loc44)
    %25 = arith.cmpf olt, %13, %cst : tensor<1024xf32> loc(#loc45)
    %26 = arith.cmpf oge, %14, %cst : tensor<1024xf32> loc(#loc46)
    %27 = arith.andi %25, %26 : tensor<1024xi1> loc(#loc47)
    %28 = arith.select %27, %cst_2, %cst : tensor<1024xi1>, tensor<1024xf32> loc(#loc48)
    %29 = arith.andi %25, %22 : tensor<1024xi1> loc(#loc49)
    %30 = arith.select %29, %cst_3, %cst : tensor<1024xi1>, tensor<1024xf32> loc(#loc50)
    %31 = arith.addf %24, %28 : tensor<1024xf32> loc(#loc51)
    %32 = arith.addf %31, %30 : tensor<1024xf32> loc(#loc52)
    %33 = tt.splat %arg2 : !tt.ptr<f16> -> tensor<1024x!tt.ptr<f16>> loc(#loc32)
    %34 = tt.addptr %33, %4 : tensor<1024x!tt.ptr<f16>>, tensor<1024xi32> loc(#loc32)
    %35 = arith.truncf %32 : tensor<1024xf32> to tensor<1024xf16> loc(#loc33)
    tt.store %34, %35, %6 : tensor<1024x!tt.ptr<f16>> loc(#loc33)
    tt.return loc(#loc34)
  } loc(#loc)
} loc(#loc)
#loc1 = loc(unknown)
#loc2 = loc("/home/zhengyang/git/flagtree/python/test/ops/angle/angle.py":24:24)
#loc3 = loc("/home/zhengyang/git/flagtree/python/test/ops/angle/angle.py":25:24)
#loc4 = loc("/home/zhengyang/git/flagtree/python/test/ops/angle/angle.py":26:41)
#loc5 = loc("/home/zhengyang/git/flagtree/python/test/ops/angle/angle.py":26:28)
#loc6 = loc("/home/zhengyang/git/flagtree/python/test/ops/angle/angle.py":27:21)
#loc7 = loc("/home/zhengyang/git/flagtree/python/test/ops/angle/angle.py":28:27)
#loc8 = loc("/home/zhengyang/git/flagtree/python/test/ops/angle/angle.py":28:19)
#loc9 = loc("/home/zhengyang/git/flagtree/python/test/ops/angle/angle.py":29:27)
#loc10 = loc("/home/zhengyang/git/flagtree/python/test/ops/angle/angle.py":29:19)
#loc11 = loc("/home/zhengyang/git/flagtree/python/test/ops/angle/angle.py":31:17)
#loc12 = loc("/home/zhengyang/git/flagtree/python/test/ops/angle/angle.py":31:38)
#loc13 = loc("/usr/local/python3.11.13/lib/python3.11/site-packages/triton/triton_patch/language/standard.py":131:27)
#loc14 = loc("/home/zhengyang/git/flagtree/python/test/ops/angle/angle.py":35:38)
#loc15 = loc("/usr/local/python3.11.13/lib/python3.11/site-packages/triton/triton_patch/language/standard.py":131:61)
#loc16 = loc("/usr/local/python3.11.13/lib/python3.11/site-packages/triton/triton_patch/language/standard.py":131:45)
#loc17 = loc("/usr/local/python3.11.13/lib/python3.11/site-packages/triton/triton_patch/language/standard.py":131:35)
#loc18 = loc("/usr/local/python3.11.13/lib/python3.11/site-packages/triton/triton_patch/language/standard.py":132:38)
#loc19 = loc("/usr/local/python3.11.13/lib/python3.11/site-packages/triton/triton_patch/language/standard.py":132:34)
#loc20 = loc("/usr/local/python3.11.13/lib/python3.11/site-packages/triton/triton_patch/language/standard.py":132:51)
#loc21 = loc("/usr/local/python3.11.13/lib/python3.11/site-packages/triton/triton_patch/language/standard.py":133:38)
#loc22 = loc("/usr/local/python3.11.13/lib/python3.11/site-packages/triton/triton_patch/language/standard.py":133:34)
#loc23 = loc("/usr/local/python3.11.13/lib/python3.11/site-packages/triton/triton_patch/language/standard.py":133:52)
#loc24 = loc("/usr/local/python3.11.13/lib/python3.11/site-packages/triton/triton_patch/language/standard.py":135:29)
#loc25 = loc("/usr/local/python3.11.13/lib/python3.11/site-packages/triton/triton_patch/language/standard.py":135:40)
#loc26 = loc("/usr/local/python3.11.13/lib/python3.11/site-packages/triton/triton_patch/language/standard.py":135:35)
#loc27 = loc("/usr/local/python3.11.13/lib/python3.11/site-packages/triton/triton_patch/language/standard.py":135:48)
#loc28 = loc("/usr/local/python3.11.13/lib/python3.11/site-packages/triton/triton_patch/language/standard.py":136:35)
#loc29 = loc("/usr/local/python3.11.13/lib/python3.11/site-packages/triton/triton_patch/language/standard.py":136:48)
#loc30 = loc("/usr/local/python3.11.13/lib/python3.11/site-packages/triton/triton_patch/language/standard.py":137:19)
#loc31 = loc("/usr/local/python3.11.13/lib/python3.11/site-packages/triton/triton_patch/language/standard.py":137:28)
#loc32 = loc("/home/zhengyang/git/flagtree/python/test/ops/angle/angle.py":36:26)
#loc33 = loc("/home/zhengyang/git/flagtree/python/test/ops/angle/angle.py":36:35)
#loc34 = loc("/home/zhengyang/git/flagtree/python/test/ops/angle/angle.py":36:4)
#loc35 = loc(callsite(#loc13 at #loc14))
#loc36 = loc(callsite(#loc15 at #loc14))
#loc37 = loc(callsite(#loc16 at #loc14))
#loc38 = loc(callsite(#loc17 at #loc14))
#loc39 = loc(callsite(#loc18 at #loc14))
#loc40 = loc(callsite(#loc19 at #loc14))
#loc41 = loc(callsite(#loc20 at #loc14))
#loc42 = loc(callsite(#loc21 at #loc14))
#loc43 = loc(callsite(#loc22 at #loc14))
#loc44 = loc(callsite(#loc23 at #loc14))
#loc45 = loc(callsite(#loc24 at #loc14))
#loc46 = loc(callsite(#loc25 at #loc14))
#loc47 = loc(callsite(#loc26 at #loc14))
#loc48 = loc(callsite(#loc27 at #loc14))
#loc49 = loc(callsite(#loc28 at #loc14))
#loc50 = loc(callsite(#loc29 at #loc14))
#loc51 = loc(callsite(#loc30 at #loc14))
#loc52 = loc(callsite(#loc31 at #loc14))
