#loc = loc("/home/zhengyang/FlagTree/flagtree/python/test/ops/argmin/argmin_ascend_perf.py":37:0)
#loc1 = loc(unknown)
#loc15 = loc("/home/zhengyang/FlagTree/flagtree/python/test/ops/argmin/argmin_ascend_perf.py":65:26)
#loc38 = loc(callsite(#loc1 at #loc15))
module {
  tt.func public @argmin_kernel(%arg0: !tt.ptr<f32> {tt.divisibility = 16 : i32} loc("/home/zhengyang/FlagTree/flagtree/python/test/ops/argmin/argmin_ascend_perf.py":37:0), %arg1: !tt.ptr<i64> {tt.divisibility = 16 : i32} loc("/home/zhengyang/FlagTree/flagtree/python/test/ops/argmin/argmin_ascend_perf.py":37:0), %arg2: i32 {tt.divisibility = 16 : i32} loc("/home/zhengyang/FlagTree/flagtree/python/test/ops/argmin/argmin_ascend_perf.py":37:0)) attributes {noinline = false} {
    %cst = arith.constant dense<0x7F800000> : tensor<8x16xf32> loc(#loc1)
    %cst_0 = arith.constant dense<0x7F800000> : tensor<8xf32> loc(#loc1)
    %c16_i32 = arith.constant 16 : i32 loc(#loc1)
    %c0_i32 = arith.constant 0 : i32 loc(#loc1)
    %cst_1 = arith.constant dense<1> : tensor<8xi32> loc(#loc1)
    %cst_2 = arith.constant dense<1> : tensor<8x1xi32> loc(#loc1)
    %cst_3 = arith.constant dense<0> : tensor<8xi64> loc(#loc1)
    %c8_i32 = arith.constant 8 : i32 loc(#loc1)
    %0 = tt.get_program_id x : i32 loc(#loc2)
    %1 = arith.muli %0, %c8_i32 : i32 loc(#loc3)
    %2 = tt.make_range {end = 8 : i32, start = 0 : i32} : tensor<8xi32> loc(#loc4)
    %3 = tt.splat %1 : i32 -> tensor<8xi32> loc(#loc5)
    %4 = arith.addi %3, %2 : tensor<8xi32> loc(#loc5)
    %5 = tt.make_range {end = 16 : i32, start = 0 : i32} : tensor<16xi32> loc(#loc6)
    %6 = tt.expand_dims %4 {axis = 1 : i32} : tensor<8xi32> -> tensor<8x1xi32> loc(#loc7)
    %7 = tt.splat %arg2 : i32 -> tensor<8x1xi32> loc(#loc8)
    %8 = arith.muli %6, %7 : tensor<8x1xi32> loc(#loc8)
    %9 = tt.broadcast %8 : tensor<8x1xi32> -> tensor<8x16xi32> loc(#loc9)
    %10 = arith.cmpi slt, %6, %cst_2 : tensor<8x1xi32> loc(#loc10)
    %11 = tt.splat %arg2 : i32 -> tensor<1x16xi32> loc(#loc11)
    %12 = tt.broadcast %10 : tensor<8x1xi1> -> tensor<8x16xi1> loc(#loc12)
    %13 = tt.splat %arg0 : !tt.ptr<f32> -> tensor<8x16x!tt.ptr<f32>> loc(#loc13)
    %14 = tt.expand_dims %5 {axis = 0 : i32} : tensor<16xi32> -> tensor<1x16xi32> loc(#loc37)
    %15 = tt.broadcast %14 : tensor<1x16xi32> -> tensor<8x16xi32> loc(#loc37)
    %16:2 = scf.for %arg3 = %c0_i32 to %arg2 step %c16_i32 iter_args(%arg4 = %cst_0, %arg5 = %cst_3) -> (tensor<8xf32>, tensor<8xi64>)  : i32 {
      %20 = tt.splat %arg3 : i32 -> tensor<16xi32> loc(#loc17)
      %21 = arith.addi %20, %5 : tensor<16xi32> loc(#loc17)
      %22 = tt.expand_dims %21 {axis = 0 : i32} : tensor<16xi32> -> tensor<1x16xi32> loc(#loc18)
      %23 = tt.broadcast %22 : tensor<1x16xi32> -> tensor<8x16xi32> loc(#loc9)
      %24 = arith.addi %9, %23 : tensor<8x16xi32> loc(#loc9)
      %25 = arith.cmpi slt, %22, %11 : tensor<1x16xi32> loc(#loc11)
      %26 = tt.broadcast %25 : tensor<1x16xi1> -> tensor<8x16xi1> loc(#loc12)
      %27 = arith.andi %12, %26 : tensor<8x16xi1> loc(#loc12)
      %28 = tt.addptr %13, %24 : tensor<8x16x!tt.ptr<f32>>, tensor<8x16xi32> loc(#loc13)
      %29 = tt.load %28, %27, %cst : tensor<8x16x!tt.ptr<f32>> loc(#loc19)
      %30:2 = "tt.reduce"(%29, %15) <{axis = 1 : i32}> ({
      ^bb0(%arg6: f32 loc(callsite(#loc1 at #loc15)), %arg7: i32 loc(callsite(#loc1 at #loc15)), %arg8: f32 loc(callsite(#loc1 at #loc15)), %arg9: i32 loc(callsite(#loc1 at #loc15))):
        %37 = arith.cmpf oeq, %arg6, %arg8 : f32 loc(#loc53)
        %38 = arith.cmpi slt, %arg7, %arg9 : i32 loc(#loc54)
        %39 = arith.andi %37, %38 : i1 loc(#loc55)
        %40 = arith.cmpf olt, %arg6, %arg8 : f32 loc(#loc56)
        %41 = arith.ori %40, %39 : i1 loc(#loc57)
        %42 = arith.select %41, %arg6, %arg8 : f32 loc(#loc58)
        %43 = arith.select %41, %arg7, %arg9 : i32 loc(#loc59)
        tt.reduce.return %42, %43 : f32, i32 loc(#loc37)
      }) : (tensor<8x16xf32>, tensor<8x16xi32>) -> (tensor<8xf32>, tensor<8xi32>) loc(#loc37)
      %31 = arith.cmpf olt, %30#0, %arg4 : tensor<8xf32> loc(#loc28)
      %32 = arith.select %31, %30#0, %arg4 : tensor<8xi1>, tensor<8xf32> loc(#loc29)
      %33 = tt.splat %arg3 : i32 -> tensor<8xi32> loc(#loc30)
      %34 = arith.addi %33, %30#1 : tensor<8xi32> loc(#loc30)
      %35 = arith.extsi %34 : tensor<8xi32> to tensor<8xi64> loc(#loc31)
      %36 = arith.select %31, %35, %arg5 : tensor<8xi1>, tensor<8xi64> loc(#loc31)
      scf.yield %32, %36 : tensor<8xf32>, tensor<8xi64> loc(#loc32)
    } loc(#loc16)
    %17 = tt.splat %arg1 : !tt.ptr<i64> -> tensor<8x!tt.ptr<i64>> loc(#loc33)
    %18 = tt.addptr %17, %4 : tensor<8x!tt.ptr<i64>>, tensor<8xi32> loc(#loc33)
    %19 = arith.cmpi slt, %4, %cst_1 : tensor<8xi32> loc(#loc34)
    tt.store %18, %16#1, %19 : tensor<8x!tt.ptr<i64>> loc(#loc35)
    tt.return loc(#loc36)
  } loc(#loc)
} loc(#loc)
#loc2 = loc("/home/zhengyang/FlagTree/flagtree/python/test/ops/argmin/argmin_ascend_perf.py":47:26)
#loc3 = loc("/home/zhengyang/FlagTree/flagtree/python/test/ops/argmin/argmin_ascend_perf.py":50:27)
#loc4 = loc("/home/zhengyang/FlagTree/flagtree/python/test/ops/argmin/argmin_ascend_perf.py":50:50)
#loc5 = loc("/home/zhengyang/FlagTree/flagtree/python/test/ops/argmin/argmin_ascend_perf.py":50:37)
#loc6 = loc("/home/zhengyang/FlagTree/flagtree/python/test/ops/argmin/argmin_ascend_perf.py":58:46)
#loc7 = loc("/home/zhengyang/FlagTree/flagtree/python/test/ops/argmin/argmin_ascend_perf.py":59:30)
#loc8 = loc("/home/zhengyang/FlagTree/flagtree/python/test/ops/argmin/argmin_ascend_perf.py":59:41)
#loc9 = loc("/home/zhengyang/FlagTree/flagtree/python/test/ops/argmin/argmin_ascend_perf.py":59:49)
#loc10 = loc("/home/zhengyang/FlagTree/flagtree/python/test/ops/argmin/argmin_ascend_perf.py":60:39)
#loc11 = loc("/home/zhengyang/FlagTree/flagtree/python/test/ops/argmin/argmin_ascend_perf.py":60:65)
#loc12 = loc("/home/zhengyang/FlagTree/flagtree/python/test/ops/argmin/argmin_ascend_perf.py":60:45)
#loc13 = loc("/home/zhengyang/FlagTree/flagtree/python/test/ops/argmin/argmin_ascend_perf.py":61:29)
#loc14 = loc("/usr/local/python3.11.13/lib/python3.11/site-packages/triton/language/standard.py":233:58)
#loc16 = loc("/home/zhengyang/FlagTree/flagtree/python/test/ops/argmin/argmin_ascend_perf.py":57:35)
#loc17 = loc("/home/zhengyang/FlagTree/flagtree/python/test/ops/argmin/argmin_ascend_perf.py":58:33)
#loc18 = loc("/home/zhengyang/FlagTree/flagtree/python/test/ops/argmin/argmin_ascend_perf.py":59:58)
#loc19 = loc("/home/zhengyang/FlagTree/flagtree/python/test/ops/argmin/argmin_ascend_perf.py":62:31)
#loc20 = loc("/usr/local/python3.11.13/lib/python3.11/site-packages/triton/language/standard.py":201:24)
#loc21 = loc("/usr/local/python3.11.13/lib/python3.11/site-packages/triton/language/standard.py":212:59)
#loc22 = loc("/usr/local/python3.11.13/lib/python3.11/site-packages/triton/language/standard.py":201:44)
#loc23 = loc("/usr/local/python3.11.13/lib/python3.11/site-packages/triton/language/standard.py":201:35)
#loc24 = loc("/usr/local/python3.11.13/lib/python3.11/site-packages/triton/language/standard.py":204:18)
#loc25 = loc("/usr/local/python3.11.13/lib/python3.11/site-packages/triton/language/standard.py":204:28)
#loc26 = loc("/usr/local/python3.11.13/lib/python3.11/site-packages/triton/language/standard.py":205:39)
#loc27 = loc("/usr/local/python3.11.13/lib/python3.11/site-packages/triton/language/standard.py":206:39)
#loc28 = loc("/home/zhengyang/FlagTree/flagtree/python/test/ops/argmin/argmin_ascend_perf.py":69:33)
#loc29 = loc("/home/zhengyang/FlagTree/flagtree/python/test/ops/argmin/argmin_ascend_perf.py":70:53)
#loc30 = loc("/home/zhengyang/FlagTree/flagtree/python/test/ops/argmin/argmin_ascend_perf.py":71:55)
#loc31 = loc("/home/zhengyang/FlagTree/flagtree/python/test/ops/argmin/argmin_ascend_perf.py":71:69)
#loc32 = loc("/home/zhengyang/FlagTree/flagtree/python/test/ops/argmin/argmin_ascend_perf.py":71:12)
#loc33 = loc("/home/zhengyang/FlagTree/flagtree/python/test/ops/argmin/argmin_ascend_perf.py":74:37)
#loc34 = loc("/home/zhengyang/FlagTree/flagtree/python/test/ops/argmin/argmin_ascend_perf.py":75:27)
#loc35 = loc("/home/zhengyang/FlagTree/flagtree/python/test/ops/argmin/argmin_ascend_perf.py":76:33)
#loc36 = loc("/home/zhengyang/FlagTree/flagtree/python/test/ops/argmin/argmin_ascend_perf.py":49:4)
#loc37 = loc(callsite(#loc14 at #loc15))
#loc39 = loc(callsite(#loc20 at #loc21))
#loc40 = loc(callsite(#loc22 at #loc21))
#loc41 = loc(callsite(#loc23 at #loc21))
#loc42 = loc(callsite(#loc24 at #loc21))
#loc43 = loc(callsite(#loc25 at #loc21))
#loc44 = loc(callsite(#loc26 at #loc21))
#loc45 = loc(callsite(#loc27 at #loc21))
#loc46 = loc(callsite(#loc39 at #loc14))
#loc47 = loc(callsite(#loc40 at #loc14))
#loc48 = loc(callsite(#loc41 at #loc14))
#loc49 = loc(callsite(#loc42 at #loc14))
#loc50 = loc(callsite(#loc43 at #loc14))
#loc51 = loc(callsite(#loc44 at #loc14))
#loc52 = loc(callsite(#loc45 at #loc14))
#loc53 = loc(callsite(#loc46 at #loc15))
#loc54 = loc(callsite(#loc47 at #loc15))
#loc55 = loc(callsite(#loc48 at #loc15))
#loc56 = loc(callsite(#loc49 at #loc15))
#loc57 = loc(callsite(#loc50 at #loc15))
#loc58 = loc(callsite(#loc51 at #loc15))
#loc59 = loc(callsite(#loc52 at #loc15))
