module {
  func.func @sum_dim_kernel(%arg0: memref<?xi8>, %arg1: memref<?xi8>, %arg2: memref<?xf32> {tt.divisibility = 16 : i32, tt.tensor_kind = 0 : i32}, %arg3: memref<?xf32> {tt.divisibility = 16 : i32, tt.tensor_kind = 1 : i32}, %arg4: i32 {tt.divisibility = 16 : i32}, %arg5: i32, %arg6: i32, %arg7: i32, %arg8: i32, %arg9: i32, %arg10: i32) attributes {SyncBlockLockArgIdx = 0 : i64, WorkspaceArgIdx = 1 : i64, global_kernel = "local", mix_mode = "aiv"} {
    %c256 = arith.constant 256 : index
    %c1 = arith.constant 1 : index
    %c8 = arith.constant 8 : index
    %c8_i32 = arith.constant 8 : i32
    %c0_i32 = arith.constant 0 : i32
    %c256_i32 = arith.constant 256 : i32
    %cst = arith.constant 0.000000e+00 : f32
    %0 = tensor.empty() : tensor<8x256xf32>
    %1 = linalg.fill ins(%cst : f32) outs(%0 : tensor<8x256xf32>) -> tensor<8x256xf32>
    %2 = arith.muli %arg8, %c8_i32 : i32
    %3 = arith.index_cast %2 : i32 to index
    %4 = arith.index_cast %arg4 : i32 to index
    %5 = arith.muli %3, %4 : index
    %reinterpret_cast = memref.reinterpret_cast %arg3 to offset: [%3], sizes: [8, 1], strides: [1, 1] : memref<?xf32> to memref<8x1xf32, strided<[1, 1], offset: ?>>
    %6 = scf.for %arg11 = %c0_i32 to %arg4 step %c256_i32 iter_args(%arg12 = %1) -> (tensor<8x256xf32>)  : i32 {
      %13 = arith.index_cast %arg11 : i32 to index
      %14 = arith.addi %5, %13 : index
      %reinterpret_cast_0 = memref.reinterpret_cast %arg2 to offset: [%14], sizes: [8, 256], strides: [%4, 1] : memref<?xf32> to memref<8x256xf32, strided<[?, 1], offset: ?>>
      %alloc = memref.alloc() : memref<8x256xf32>
      %15 = arith.addi %3, %c8 : index
      %16 = arith.maxsi %3, %c1 : index
      %17 = arith.minsi %15, %16 : index
      %18 = arith.subi %17, %3 : index
      %19 = arith.addi %13, %c256 : index
      %20 = arith.maxsi %13, %4 : index
      %21 = arith.minsi %19, %20 : index
      %22 = arith.subi %21, %13 : index
      %23 = arith.minsi %18, %c8 : index
      %24 = arith.minsi %22, %c256 : index
      %25 = arith.cmpi slt, %23, %c8 : index
      %26 = arith.cmpi slt, %24, %c256 : index
      %27 = arith.ori %25, %26 : i1
      scf.if %27 {
        linalg.fill ins(%cst : f32) outs(%alloc : memref<8x256xf32>)
      }
      %subview_1 = memref.subview %reinterpret_cast_0[0, 0] [%23, %24] [1, 1] : memref<8x256xf32, strided<[?, 1], offset: ?>> to memref<?x?xf32, strided<[?, 1], offset: ?>>
      %subview_2 = memref.subview %alloc[0, 0] [%23, %24] [1, 1] : memref<8x256xf32> to memref<?x?xf32, strided<[256, 1]>>
      memref.copy %subview_1, %subview_2 : memref<?x?xf32, strided<[?, 1], offset: ?>> to memref<?x?xf32, strided<[256, 1]>>
      %28 = bufferization.to_tensor %alloc restrict writable : memref<8x256xf32>
      %29 = arith.addf %arg12, %28 : tensor<8x256xf32>
      scf.yield %29 : tensor<8x256xf32>
    }
    %7 = tensor.empty() : tensor<8xf32>
    %8 = linalg.fill ins(%cst : f32) outs(%7 : tensor<8xf32>) -> tensor<8xf32>
    %reduced = linalg.reduce ins(%6 : tensor<8x256xf32>) outs(%8 : tensor<8xf32>) dimensions = [1] 
      (%in: f32, %init: f32) {
        %13 = arith.addf %in, %init : f32
        linalg.yield %13 : f32
      }
    %expanded = tensor.expand_shape %reduced [[0, 1]] output_shape [8, 1] : tensor<8xf32> into tensor<8x1xf32>
    %9 = arith.addi %3, %c8 : index
    %10 = arith.maxsi %3, %c1 : index
    %11 = arith.minsi %9, %10 : index
    %12 = arith.subi %11, %3 : index
    %extracted_slice = tensor.extract_slice %expanded[0, 0] [%12, 1] [1, 1] : tensor<8x1xf32> to tensor<?x1xf32>
    %subview = memref.subview %reinterpret_cast[0, 0] [%12, 1] [1, 1] : memref<8x1xf32, strided<[1, 1], offset: ?>> to memref<?x1xf32, strided<[1, 1], offset: ?>>
    bufferization.materialize_in_destination %extracted_slice in writable %subview : (tensor<?x1xf32>, memref<?x1xf32, strided<[1, 1], offset: ?>>) -> ()
    return
  }
}

