#loc = loc("/home/zhengyang/git/flagtree/python/test/ops/sum_dim/sum_dim.py":17:0)
#loc1 = loc(unknown)
#loc22 = loc("/home/zhengyang/git/flagtree/python/test/ops/sum_dim/sum_dim.py":49:17)
#loc28 = loc(callsite(#loc1 at #loc22))
module {
  tt.func public @sum_dim_kernel(%arg0: !tt.ptr<f32> {tt.divisibility = 16 : i32} loc("/home/zhengyang/git/flagtree/python/test/ops/sum_dim/sum_dim.py":17:0), %arg1: !tt.ptr<f32> {tt.divisibility = 16 : i32} loc("/home/zhengyang/git/flagtree/python/test/ops/sum_dim/sum_dim.py":17:0), %arg2: i32 {tt.divisibility = 16 : i32} loc("/home/zhengyang/git/flagtree/python/test/ops/sum_dim/sum_dim.py":17:0)) attributes {noinline = false} {
    %cst = arith.constant dense<0.000000e+00> : tensor<8x256xf32> loc(#loc1)
    %c256_i32 = arith.constant 256 : i32 loc(#loc1)
    %c0_i32 = arith.constant 0 : i32 loc(#loc1)
    %cst_0 = arith.constant dense<1> : tensor<8x1xi32> loc(#loc1)
    %c8_i32 = arith.constant 8 : i32 loc(#loc1)
    %0 = tt.get_program_id x : i32 loc(#loc2)
    %1 = arith.muli %0, %c8_i32 : i32 loc(#loc3)
    %2 = tt.make_range {end = 8 : i32, start = 0 : i32} : tensor<8xi32> loc(#loc4)
    %3 = tt.expand_dims %2 {axis = 1 : i32} : tensor<8xi32> -> tensor<8x1xi32> loc(#loc5)
    %4 = tt.splat %1 : i32 -> tensor<8x1xi32> loc(#loc6)
    %5 = arith.addi %4, %3 : tensor<8x1xi32> loc(#loc6)
    %6 = tt.splat %arg2 : i32 -> tensor<8x1xi32> loc(#loc7)
    %7 = arith.muli %5, %6 : tensor<8x1xi32> loc(#loc7)
    %8 = tt.splat %arg0 : !tt.ptr<f32> -> tensor<8x1x!tt.ptr<f32>> loc(#loc8)
    %9 = tt.addptr %8, %7 : tensor<8x1x!tt.ptr<f32>>, tensor<8x1xi32> loc(#loc8)
    %10 = tt.splat %arg1 : !tt.ptr<f32> -> tensor<8x1x!tt.ptr<f32>> loc(#loc9)
    %11 = tt.addptr %10, %5 : tensor<8x1x!tt.ptr<f32>>, tensor<8x1xi32> loc(#loc9)
    %12 = arith.cmpi slt, %5, %cst_0 : tensor<8x1xi32> loc(#loc10)
    %13 = tt.make_range {end = 256 : i32, start = 0 : i32} : tensor<256xi32> loc(#loc11)
    %14 = tt.expand_dims %13 {axis = 0 : i32} : tensor<256xi32> -> tensor<1x256xi32> loc(#loc12)
    %15 = tt.splat %arg2 : i32 -> tensor<1x256xi32> loc(#loc13)
    %16 = tt.broadcast %12 : tensor<8x1xi1> -> tensor<8x256xi1> loc(#loc14)
    %17 = tt.broadcast %9 : tensor<8x1x!tt.ptr<f32>> -> tensor<8x256x!tt.ptr<f32>> loc(#loc15)
    %18 = scf.for %arg3 = %c0_i32 to %arg2 step %c256_i32 iter_args(%arg4 = %cst) -> (tensor<8x256xf32>)  : i32 {
      %21 = tt.splat %arg3 : i32 -> tensor<1x256xi32> loc(#loc17)
      %22 = arith.addi %21, %14 : tensor<1x256xi32> loc(#loc17)
      %23 = arith.cmpi slt, %22, %15 : tensor<1x256xi32> loc(#loc13)
      %24 = tt.broadcast %23 : tensor<1x256xi1> -> tensor<8x256xi1> loc(#loc14)
      %25 = arith.andi %16, %24 : tensor<8x256xi1> loc(#loc14)
      %26 = tt.broadcast %22 : tensor<1x256xi32> -> tensor<8x256xi32> loc(#loc15)
      %27 = tt.addptr %17, %26 : tensor<8x256x!tt.ptr<f32>>, tensor<8x256xi32> loc(#loc15)
      %28 = tt.load %27, %25, %cst : tensor<8x256x!tt.ptr<f32>> loc(#loc18)
      %29 = arith.addf %arg4, %28 : tensor<8x256xf32> loc(#loc19)
      scf.yield %29 : tensor<8x256xf32> loc(#loc20)
    } loc(#loc16)
    %19 = "tt.reduce"(%18) <{axis = 1 : i32}> ({
    ^bb0(%arg3: f32 loc(callsite(#loc1 at #loc22)), %arg4: f32 loc(callsite(#loc1 at #loc22))):
      %21 = arith.addf %arg3, %arg4 : f32 loc(#loc30)
      tt.reduce.return %21 : f32 loc(#loc27)
    }) : (tensor<8x256xf32>) -> tensor<8xf32> loc(#loc27)
    %20 = tt.expand_dims %19 {axis = 1 : i32} : tensor<8xf32> -> tensor<8x1xf32> loc(#loc24)
    tt.store %11, %20, %12 : tensor<8x1x!tt.ptr<f32>> loc(#loc25)
    tt.return loc(#loc26)
  } loc(#loc)
} loc(#loc)
#loc2 = loc("/home/zhengyang/git/flagtree/python/test/ops/sum_dim/sum_dim.py":33:24)
#loc3 = loc("/home/zhengyang/git/flagtree/python/test/ops/sum_dim/sum_dim.py":33:29)
#loc4 = loc("/home/zhengyang/git/flagtree/python/test/ops/sum_dim/sum_dim.py":33:52)
#loc5 = loc("/home/zhengyang/git/flagtree/python/test/ops/sum_dim/sum_dim.py":33:61)
#loc6 = loc("/home/zhengyang/git/flagtree/python/test/ops/sum_dim/sum_dim.py":33:39)
#loc7 = loc("/home/zhengyang/git/flagtree/python/test/ops/sum_dim/sum_dim.py":34:22)
#loc8 = loc("/home/zhengyang/git/flagtree/python/test/ops/sum_dim/sum_dim.py":34:16)
#loc9 = loc("/home/zhengyang/git/flagtree/python/test/ops/sum_dim/sum_dim.py":35:16)
#loc10 = loc("/home/zhengyang/git/flagtree/python/test/ops/sum_dim/sum_dim.py":36:21)
#loc11 = loc("/home/zhengyang/git/flagtree/python/test/ops/sum_dim/sum_dim.py":41:34)
#loc12 = loc("/home/zhengyang/git/flagtree/python/test/ops/sum_dim/sum_dim.py":41:43)
#loc13 = loc("/home/zhengyang/git/flagtree/python/test/ops/sum_dim/sum_dim.py":42:26)
#loc14 = loc("/home/zhengyang/git/flagtree/python/test/ops/sum_dim/sum_dim.py":43:28)
#loc15 = loc("/home/zhengyang/git/flagtree/python/test/ops/sum_dim/sum_dim.py":45:26)
#loc16 = loc("/home/zhengyang/git/flagtree/python/test/ops/sum_dim/sum_dim.py":40:27)
#loc17 = loc("/home/zhengyang/git/flagtree/python/test/ops/sum_dim/sum_dim.py":41:21)
#loc18 = loc("/home/zhengyang/git/flagtree/python/test/ops/sum_dim/sum_dim.py":45:32)
#loc19 = loc("/home/zhengyang/git/flagtree/python/test/ops/sum_dim/sum_dim.py":46:16)
#loc20 = loc("/home/zhengyang/git/flagtree/python/test/ops/sum_dim/sum_dim.py":46:8)
#loc21 = loc("/usr/local/python3.11.13/lib/python3.11/site-packages/triton/language/standard.py":267:36)
#loc23 = loc("/usr/local/python3.11.13/lib/python3.11/site-packages/triton/language/standard.py":256:15)
#loc24 = loc("/home/zhengyang/git/flagtree/python/test/ops/sum_dim/sum_dim.py":49:31)
#loc25 = loc("/home/zhengyang/git/flagtree/python/test/ops/sum_dim/sum_dim.py":50:23)
#loc26 = loc("/home/zhengyang/git/flagtree/python/test/ops/sum_dim/sum_dim.py":50:4)
#loc27 = loc(callsite(#loc21 at #loc22))
#loc29 = loc(callsite(#loc23 at #loc21))
#loc30 = loc(callsite(#loc29 at #loc22))
