#loc = loc("/home/zhengyang/git/flagtree/python/test/ops/addmm/addmm_ascend.py":17:0)
module {
  tt.func public @addmm_kernel(%arg0: !tt.ptr<f32> {tt.divisibility = 16 : i32} loc("/home/zhengyang/git/flagtree/python/test/ops/addmm/addmm_ascend.py":17:0), %arg1: !tt.ptr<f32> {tt.divisibility = 16 : i32} loc("/home/zhengyang/git/flagtree/python/test/ops/addmm/addmm_ascend.py":17:0), %arg2: !tt.ptr<f32> {tt.divisibility = 16 : i32} loc("/home/zhengyang/git/flagtree/python/test/ops/addmm/addmm_ascend.py":17:0), %arg3: !tt.ptr<f32> {tt.divisibility = 16 : i32} loc("/home/zhengyang/git/flagtree/python/test/ops/addmm/addmm_ascend.py":17:0), %arg4: f32 loc("/home/zhengyang/git/flagtree/python/test/ops/addmm/addmm_ascend.py":17:0), %arg5: f32 loc("/home/zhengyang/git/flagtree/python/test/ops/addmm/addmm_ascend.py":17:0), %arg6: i32 loc("/home/zhengyang/git/flagtree/python/test/ops/addmm/addmm_ascend.py":17:0), %arg7: i32 loc("/home/zhengyang/git/flagtree/python/test/ops/addmm/addmm_ascend.py":17:0), %arg8: i32 loc("/home/zhengyang/git/flagtree/python/test/ops/addmm/addmm_ascend.py":17:0), %arg9: i32 loc("/home/zhengyang/git/flagtree/python/test/ops/addmm/addmm_ascend.py":17:0), %arg10: i32 loc("/home/zhengyang/git/flagtree/python/test/ops/addmm/addmm_ascend.py":17:0), %arg11: i32 loc("/home/zhengyang/git/flagtree/python/test/ops/addmm/addmm_ascend.py":17:0), %arg12: i32 loc("/home/zhengyang/git/flagtree/python/test/ops/addmm/addmm_ascend.py":17:0)) attributes {noinline = false} {
    %c7_i32 = arith.constant 7 : i32 loc(#loc1)
    %c1_i32 = arith.constant 1 : i32 loc(#loc1)
    %c0_i32 = arith.constant 0 : i32 loc(#loc1)
    %cst = arith.constant dense<8> : tensor<8x8xi32> loc(#loc1)
    %cst_0 = arith.constant dense<0.000000e+00> : tensor<8x8xf32> loc(#loc1)
    %c8_i32 = arith.constant 8 : i32 loc(#loc1)
    %0 = tt.get_program_id x : i32 loc(#loc2)
    %1 = tt.get_program_id y : i32 loc(#loc3)
    %2 = arith.muli %0, %c8_i32 : i32 loc(#loc4)
    %3 = tt.make_range {end = 8 : i32, start = 0 : i32} : tensor<8xi32> loc(#loc5)
    %4 = tt.splat %2 : i32 -> tensor<8xi32> loc(#loc6)
    %5 = arith.addi %4, %3 : tensor<8xi32> loc(#loc6)
    %6 = arith.muli %1, %c8_i32 : i32 loc(#loc7)
    %7 = tt.splat %6 : i32 -> tensor<8xi32> loc(#loc8)
    %8 = arith.addi %7, %3 : tensor<8xi32> loc(#loc8)
    %9 = tt.expand_dims %5 {axis = 1 : i32} : tensor<8xi32> -> tensor<8x1xi32> loc(#loc9)
    %10 = tt.splat %arg9 : i32 -> tensor<8x1xi32> loc(#loc10)
    %11 = arith.muli %9, %10 : tensor<8x1xi32> loc(#loc10)
    %12 = tt.expand_dims %3 {axis = 0 : i32} : tensor<8xi32> -> tensor<1x8xi32> loc(#loc11)
    %13 = tt.broadcast %11 : tensor<8x1xi32> -> tensor<8x8xi32> loc(#loc12)
    %14 = tt.broadcast %12 : tensor<1x8xi32> -> tensor<8x8xi32> loc(#loc12)
    %15 = arith.addi %13, %14 : tensor<8x8xi32> loc(#loc12)
    %16 = tt.splat %arg0 : !tt.ptr<f32> -> tensor<8x8x!tt.ptr<f32>> loc(#loc13)
    %17 = tt.addptr %16, %15 : tensor<8x8x!tt.ptr<f32>>, tensor<8x8xi32> loc(#loc13)
    %18 = tt.expand_dims %3 {axis = 1 : i32} : tensor<8xi32> -> tensor<8x1xi32> loc(#loc14)
    %19 = tt.splat %arg10 : i32 -> tensor<8x1xi32> loc(#loc15)
    %20 = arith.muli %18, %19 : tensor<8x1xi32> loc(#loc15)
    %21 = tt.expand_dims %8 {axis = 0 : i32} : tensor<8xi32> -> tensor<1x8xi32> loc(#loc16)
    %22 = tt.broadcast %20 : tensor<8x1xi32> -> tensor<8x8xi32> loc(#loc17)
    %23 = tt.broadcast %21 : tensor<1x8xi32> -> tensor<8x8xi32> loc(#loc17)
    %24 = arith.addi %22, %23 : tensor<8x8xi32> loc(#loc17)
    %25 = tt.splat %arg1 : !tt.ptr<f32> -> tensor<8x8x!tt.ptr<f32>> loc(#loc18)
    %26 = tt.addptr %25, %24 : tensor<8x8x!tt.ptr<f32>>, tensor<8x8xi32> loc(#loc18)
    %27 = arith.addi %arg8, %c7_i32 : i32 loc(#loc49)
    %28 = arith.divsi %27, %c8_i32 : i32 loc(#loc50)
    %29 = arith.muli %arg10, %c8_i32 : i32 loc(#loc22)
    %30 = tt.splat %29 : i32 -> tensor<8x8xi32> loc(#loc23)
    %31:3 = scf.for %arg13 = %c0_i32 to %28 step %c1_i32 iter_args(%arg14 = %cst_0, %arg15 = %17, %arg16 = %26) -> (tensor<8x8xf32>, tensor<8x8x!tt.ptr<f32>>, tensor<8x8x!tt.ptr<f32>>)  : i32 {
      %57 = arith.muli %arg13, %c8_i32 : i32 loc(#loc25)
      %58 = arith.subi %arg8, %57 : i32 loc(#loc26)
      %59 = tt.splat %58 : i32 -> tensor<1x8xi32> loc(#loc27)
      %60 = arith.cmpi slt, %12, %59 : tensor<1x8xi32> loc(#loc27)
      %61 = tt.broadcast %60 : tensor<1x8xi1> -> tensor<8x8xi1> loc(#loc28)
      %62 = tt.load %arg15, %61, %cst_0 : tensor<8x8x!tt.ptr<f32>> loc(#loc28)
      %63 = tt.splat %58 : i32 -> tensor<8x1xi32> loc(#loc29)
      %64 = arith.cmpi slt, %18, %63 : tensor<8x1xi32> loc(#loc29)
      %65 = tt.broadcast %64 : tensor<8x1xi1> -> tensor<8x8xi1> loc(#loc30)
      %66 = tt.load %arg16, %65, %cst_0 : tensor<8x8x!tt.ptr<f32>> loc(#loc30)
      %67 = tt.dot %62, %66, %arg14 : tensor<8x8xf32> * tensor<8x8xf32> -> tensor<8x8xf32> loc(#loc31)
      %68 = tt.addptr %arg15, %cst : tensor<8x8x!tt.ptr<f32>>, tensor<8x8xi32> loc(#loc32)
      %69 = tt.addptr %arg16, %30 : tensor<8x8x!tt.ptr<f32>>, tensor<8x8xi32> loc(#loc23)
      scf.yield %67, %68, %69 : tensor<8x8xf32>, tensor<8x8x!tt.ptr<f32>>, tensor<8x8x!tt.ptr<f32>> loc(#loc33)
    } loc(#loc24)
    %32 = tt.splat %arg12 : i32 -> tensor<8x1xi32> loc(#loc34)
    %33 = arith.muli %32, %9 : tensor<8x1xi32> loc(#loc34)
    %34 = tt.splat %arg3 : !tt.ptr<f32> -> tensor<8x1x!tt.ptr<f32>> loc(#loc35)
    %35 = tt.addptr %34, %33 : tensor<8x1x!tt.ptr<f32>>, tensor<8x1xi32> loc(#loc35)
    %36 = tt.broadcast %35 : tensor<8x1x!tt.ptr<f32>> -> tensor<8x8x!tt.ptr<f32>> loc(#loc36)
    %37 = tt.addptr %36, %23 : tensor<8x8x!tt.ptr<f32>>, tensor<8x8xi32> loc(#loc36)
    %38 = tt.splat %arg6 : i32 -> tensor<8x1xi32> loc(#loc37)
    %39 = arith.cmpi slt, %9, %38 : tensor<8x1xi32> loc(#loc37)
    %40 = tt.splat %arg7 : i32 -> tensor<1x8xi32> loc(#loc38)
    %41 = arith.cmpi slt, %21, %40 : tensor<1x8xi32> loc(#loc38)
    %42 = tt.broadcast %39 : tensor<8x1xi1> -> tensor<8x8xi1> loc(#loc39)
    %43 = tt.broadcast %41 : tensor<1x8xi1> -> tensor<8x8xi1> loc(#loc39)
    %44 = arith.andi %42, %43 : tensor<8x8xi1> loc(#loc39)
    %45 = tt.splat %arg11 : i32 -> tensor<8x1xi32> loc(#loc40)
    %46 = arith.muli %45, %9 : tensor<8x1xi32> loc(#loc40)
    %47 = tt.splat %arg2 : !tt.ptr<f32> -> tensor<8x1x!tt.ptr<f32>> loc(#loc41)
    %48 = tt.addptr %47, %46 : tensor<8x1x!tt.ptr<f32>>, tensor<8x1xi32> loc(#loc41)
    %49 = tt.broadcast %48 : tensor<8x1x!tt.ptr<f32>> -> tensor<8x8x!tt.ptr<f32>> loc(#loc42)
    %50 = tt.addptr %49, %23 : tensor<8x8x!tt.ptr<f32>>, tensor<8x8xi32> loc(#loc42)
    %51 = tt.load %50, %44, %cst_0 : tensor<8x8x!tt.ptr<f32>> loc(#loc43)
    %52 = tt.splat %arg4 : f32 -> tensor<8x8xf32> loc(#loc44)
    %53 = arith.mulf %31#0, %52 : tensor<8x8xf32> loc(#loc44)
    %54 = tt.splat %arg5 : f32 -> tensor<8x8xf32> loc(#loc45)
    %55 = arith.mulf %51, %54 : tensor<8x8xf32> loc(#loc45)
    %56 = arith.addf %53, %55 : tensor<8x8xf32> loc(#loc46)
    tt.store %37, %56, %44 : tensor<8x8x!tt.ptr<f32>> loc(#loc47)
    tt.return loc(#loc48)
  } loc(#loc)
} loc(#loc)
#loc1 = loc(unknown)
#loc2 = loc("/home/zhengyang/git/flagtree/python/test/ops/addmm/addmm_ascend.py":39:26)
#loc3 = loc("/home/zhengyang/git/flagtree/python/test/ops/addmm/addmm_ascend.py":40:26)
#loc4 = loc("/home/zhengyang/git/flagtree/python/test/ops/addmm/addmm_ascend.py":42:22)
#loc5 = loc("/home/zhengyang/git/flagtree/python/test/ops/addmm/addmm_ascend.py":42:50)
#loc6 = loc("/home/zhengyang/git/flagtree/python/test/ops/addmm/addmm_ascend.py":42:37)
#loc7 = loc("/home/zhengyang/git/flagtree/python/test/ops/addmm/addmm_ascend.py":43:22)
#loc8 = loc("/home/zhengyang/git/flagtree/python/test/ops/addmm/addmm_ascend.py":43:37)
#loc9 = loc("/home/zhengyang/git/flagtree/python/test/ops/addmm/addmm_ascend.py":45:30)
#loc10 = loc("/home/zhengyang/git/flagtree/python/test/ops/addmm/addmm_ascend.py":45:41)
#loc11 = loc("/home/zhengyang/git/flagtree/python/test/ops/addmm/addmm_ascend.py":45:60)
#loc12 = loc("/home/zhengyang/git/flagtree/python/test/ops/addmm/addmm_ascend.py":45:53)
#loc13 = loc("/home/zhengyang/git/flagtree/python/test/ops/addmm/addmm_ascend.py":45:22)
#loc14 = loc("/home/zhengyang/git/flagtree/python/test/ops/addmm/addmm_ascend.py":46:29)
#loc15 = loc("/home/zhengyang/git/flagtree/python/test/ops/addmm/addmm_ascend.py":46:40)
#loc16 = loc("/home/zhengyang/git/flagtree/python/test/ops/addmm/addmm_ascend.py":46:60)
#loc17 = loc("/home/zhengyang/git/flagtree/python/test/ops/addmm/addmm_ascend.py":46:52)
#loc18 = loc("/home/zhengyang/git/flagtree/python/test/ops/addmm/addmm_ascend.py":46:22)
#loc19 = loc("/usr/local/python3.11.13/lib/python3.11/site-packages/triton/language/standard.py":40:22)
#loc20 = loc("/home/zhengyang/git/flagtree/python/test/ops/addmm/addmm_ascend.py":49:33)
#loc21 = loc("/usr/local/python3.11.13/lib/python3.11/site-packages/triton/language/standard.py":40:28)
#loc22 = loc("/home/zhengyang/git/flagtree/python/test/ops/addmm/addmm_ascend.py":62:33)
#loc23 = loc("/home/zhengyang/git/flagtree/python/test/ops/addmm/addmm_ascend.py":62:18)
#loc24 = loc("/home/zhengyang/git/flagtree/python/test/ops/addmm/addmm_ascend.py":49:22)
#loc25 = loc("/home/zhengyang/git/flagtree/python/test/ops/addmm/addmm_ascend.py":52:44)
#loc26 = loc("/home/zhengyang/git/flagtree/python/test/ops/addmm/addmm_ascend.py":52:40)
#loc27 = loc("/home/zhengyang/git/flagtree/python/test/ops/addmm/addmm_ascend.py":52:36)
#loc28 = loc("/home/zhengyang/git/flagtree/python/test/ops/addmm/addmm_ascend.py":51:12)
#loc29 = loc("/home/zhengyang/git/flagtree/python/test/ops/addmm/addmm_ascend.py":57:36)
#loc30 = loc("/home/zhengyang/git/flagtree/python/test/ops/addmm/addmm_ascend.py":56:12)
#loc31 = loc("/home/zhengyang/git/flagtree/python/test/ops/addmm/addmm_ascend.py":60:33)
#loc32 = loc("/home/zhengyang/git/flagtree/python/test/ops/addmm/addmm_ascend.py":61:18)
#loc33 = loc("/home/zhengyang/git/flagtree/python/test/ops/addmm/addmm_ascend.py":62:8)
#loc34 = loc("/home/zhengyang/git/flagtree/python/test/ops/addmm/addmm_ascend.py":66:33)
#loc35 = loc("/home/zhengyang/git/flagtree/python/test/ops/addmm/addmm_ascend.py":66:21)
#loc36 = loc("/home/zhengyang/git/flagtree/python/test/ops/addmm/addmm_ascend.py":66:52)
#loc37 = loc("/home/zhengyang/git/flagtree/python/test/ops/addmm/addmm_ascend.py":67:33)
#loc38 = loc("/home/zhengyang/git/flagtree/python/test/ops/addmm/addmm_ascend.py":67:58)
#loc39 = loc("/home/zhengyang/git/flagtree/python/test/ops/addmm/addmm_ascend.py":67:39)
#loc40 = loc("/home/zhengyang/git/flagtree/python/test/ops/addmm/addmm_ascend.py":68:33)
#loc41 = loc("/home/zhengyang/git/flagtree/python/test/ops/addmm/addmm_ascend.py":68:21)
#loc42 = loc("/home/zhengyang/git/flagtree/python/test/ops/addmm/addmm_ascend.py":68:52)
#loc43 = loc("/home/zhengyang/git/flagtree/python/test/ops/addmm/addmm_ascend.py":69:19)
#loc44 = loc("/home/zhengyang/git/flagtree/python/test/ops/addmm/addmm_ascend.py":71:32)
#loc45 = loc("/home/zhengyang/git/flagtree/python/test/ops/addmm/addmm_ascend.py":71:48)
#loc46 = loc("/home/zhengyang/git/flagtree/python/test/ops/addmm/addmm_ascend.py":71:40)
#loc47 = loc("/home/zhengyang/git/flagtree/python/test/ops/addmm/addmm_ascend.py":73:21)
#loc48 = loc("/home/zhengyang/git/flagtree/python/test/ops/addmm/addmm_ascend.py":73:4)
#loc49 = loc(callsite(#loc19 at #loc20))
#loc50 = loc(callsite(#loc21 at #loc20))
