module {
  func.func @addmm_kernel(%arg0: memref<?xi8>, %arg1: memref<?xi8>, %arg2: memref<?xf32> {tt.divisibility = 16 : i32, tt.tensor_kind = 0 : i32}, %arg3: memref<?xf32> {tt.divisibility = 16 : i32, tt.tensor_kind = 0 : i32}, %arg4: memref<?xf32> {tt.divisibility = 16 : i32, tt.tensor_kind = 0 : i32}, %arg5: memref<?xf32> {tt.divisibility = 16 : i32, tt.tensor_kind = 1 : i32}, %arg6: f32, %arg7: f32, %arg8: i32, %arg9: i32, %arg10: i32, %arg11: i32, %arg12: i32, %arg13: i32, %arg14: i32, %arg15: i32, %arg16: i32, %arg17: i32, %arg18: i32, %arg19: i32, %arg20: i32) attributes {SyncBlockLockArgIdx = 0 : i64, WorkspaceArgIdx = 1 : i64, global_kernel = "local", mix_mode = "mix"} {
    %c8 = arith.constant 8 : index
    %c1 = arith.constant 1 : index
    %c0 = arith.constant 0 : index
    %c8_i32 = arith.constant 8 : i32
    %c7_i32 = arith.constant 7 : i32
    %c1_i32 = arith.constant 1 : i32
    %c0_i32 = arith.constant 0 : i32
    %cst = arith.constant 0.000000e+00 : f32
    %0 = tensor.empty() : tensor<8x8xf32>
    %1 = linalg.fill ins(%cst : f32) outs(%0 : tensor<8x8xf32>) -> tensor<8x8xf32>
    %2 = arith.muli %arg18, %c8_i32 : i32
    %3 = arith.muli %arg19, %c8_i32 : i32
    %4 = arith.addi %arg10, %c7_i32 : i32
    %5 = arith.divsi %4, %c8_i32 : i32
    %6 = arith.muli %arg12, %c8_i32 : i32
    %7 = arith.index_cast %2 : i32 to index
    %8 = arith.index_cast %arg11 : i32 to index
    %9 = arith.muli %7, %8 : index
    %10 = arith.index_cast %arg12 : i32 to index
    %11 = arith.index_cast %3 : i32 to index
    %12:3 = scf.for %arg21 = %c0_i32 to %5 step %c1_i32 iter_args(%arg22 = %1, %arg23 = %9, %arg24 = %c0) -> (tensor<8x8xf32>, index, index)  : i32 {
      %40 = arith.addi %arg24, %11 : index
      %reinterpret_cast_3 = memref.reinterpret_cast %arg3 to offset: [%40], sizes: [8, 8], strides: [%10, %c1] : memref<?xf32> to memref<8x8xf32, strided<[?, ?], offset: ?>>
      %reinterpret_cast_4 = memref.reinterpret_cast %arg2 to offset: [%arg23], sizes: [8, 8], strides: [%8, %c1] : memref<?xf32> to memref<8x8xf32, strided<[?, ?], offset: ?>>
      %41 = arith.muli %arg21, %c8_i32 : i32
      %42 = arith.subi %arg10, %41 : i32
      %alloc_5 = memref.alloc() : memref<8x8xf32>
      %43 = arith.index_cast %42 : i32 to index
      %44 = arith.maxsi %43, %c0 : index
      %45 = arith.minsi %44, %c8 : index
      %46 = arith.cmpi slt, %45, %c8 : index
      scf.if %46 {
        linalg.fill ins(%cst : f32) outs(%alloc_5 : memref<8x8xf32>)
      }
      %subview_6 = memref.subview %reinterpret_cast_4[0, 0] [8, %45] [1, 1] : memref<8x8xf32, strided<[?, ?], offset: ?>> to memref<8x?xf32, strided<[?, ?], offset: ?>>
      %subview_7 = memref.subview %alloc_5[0, 0] [8, %45] [1, 1] : memref<8x8xf32> to memref<8x?xf32, strided<[8, 1]>>
      memref.copy %subview_6, %subview_7 : memref<8x?xf32, strided<[?, ?], offset: ?>> to memref<8x?xf32, strided<[8, 1]>>
      annotation.mark %subview_7 {MayImplicitTransposeWithLastAxis} : memref<8x?xf32, strided<[8, 1]>>
      %47 = bufferization.to_tensor %alloc_5 restrict writable : memref<8x8xf32>
      annotation.mark %47 {MayImplicitTransposeWithLastAxis} : tensor<8x8xf32>
      %alloc_8 = memref.alloc() : memref<8x8xf32>
      scf.if %46 {
        linalg.fill ins(%cst : f32) outs(%alloc_8 : memref<8x8xf32>)
      }
      %subview_9 = memref.subview %reinterpret_cast_3[0, 0] [%45, 8] [1, 1] : memref<8x8xf32, strided<[?, ?], offset: ?>> to memref<?x8xf32, strided<[?, ?], offset: ?>>
      %subview_10 = memref.subview %alloc_8[0, 0] [%45, 8] [1, 1] : memref<8x8xf32> to memref<?x8xf32, strided<[8, 1]>>
      memref.copy %subview_9, %subview_10 : memref<?x8xf32, strided<[?, ?], offset: ?>> to memref<?x8xf32, strided<[8, 1]>>
      annotation.mark %subview_10 {MayImplicitTransposeWithLastAxis} : memref<?x8xf32, strided<[8, 1]>>
      %48 = bufferization.to_tensor %alloc_8 restrict writable : memref<8x8xf32>
      annotation.mark %48 {MayImplicitTransposeWithLastAxis} : tensor<8x8xf32>
      %49 = linalg.matmul {input_precison = "ieee"} ins(%47, %48 : tensor<8x8xf32>, tensor<8x8xf32>) outs(%arg22 : tensor<8x8xf32>) -> tensor<8x8xf32>
      %50 = arith.addi %arg23, %c8 : index
      %51 = arith.index_cast %6 : i32 to index
      %52 = arith.addi %arg24, %51 : index
      scf.yield %49, %50, %52 : tensor<8x8xf32>, index, index
    }
    %13 = arith.index_cast %arg14 : i32 to index
    %14 = arith.muli %7, %13 : index
    %15 = arith.addi %14, %11 : index
    %reinterpret_cast = memref.reinterpret_cast %arg5 to offset: [%15], sizes: [8, 8], strides: [%13, 1] : memref<?xf32> to memref<8x8xf32, strided<[?, 1], offset: ?>>
    %16 = arith.index_cast %arg13 : i32 to index
    %17 = arith.muli %7, %16 : index
    %18 = arith.addi %17, %11 : index
    %reinterpret_cast_0 = memref.reinterpret_cast %arg4 to offset: [%18], sizes: [8, 8], strides: [%16, 1] : memref<?xf32> to memref<8x8xf32, strided<[?, 1], offset: ?>>
    %alloc = memref.alloc() : memref<8x8xf32>
    %19 = arith.addi %7, %c8 : index
    %20 = arith.index_cast %arg8 : i32 to index
    %21 = arith.maxsi %7, %20 : index
    %22 = arith.minsi %19, %21 : index
    %23 = arith.subi %22, %7 : index
    %24 = arith.addi %11, %c8 : index
    %25 = arith.index_cast %arg9 : i32 to index
    %26 = arith.maxsi %11, %25 : index
    %27 = arith.minsi %24, %26 : index
    %28 = arith.subi %27, %11 : index
    %29 = arith.minsi %23, %c8 : index
    %30 = arith.minsi %28, %c8 : index
    %31 = arith.cmpi slt, %29, %c8 : index
    %32 = arith.cmpi slt, %30, %c8 : index
    %33 = arith.ori %31, %32 : i1
    scf.if %33 {
      linalg.fill ins(%cst : f32) outs(%alloc : memref<8x8xf32>)
    }
    %subview = memref.subview %reinterpret_cast_0[0, 0] [%29, %30] [1, 1] : memref<8x8xf32, strided<[?, 1], offset: ?>> to memref<?x?xf32, strided<[?, 1], offset: ?>>
    %subview_1 = memref.subview %alloc[0, 0] [%29, %30] [1, 1] : memref<8x8xf32> to memref<?x?xf32, strided<[8, 1]>>
    memref.copy %subview, %subview_1 : memref<?x?xf32, strided<[?, 1], offset: ?>> to memref<?x?xf32, strided<[8, 1]>>
    %34 = bufferization.to_tensor %alloc restrict writable : memref<8x8xf32>
    %35 = linalg.fill ins(%arg6 : f32) outs(%0 : tensor<8x8xf32>) -> tensor<8x8xf32>
    %36 = arith.mulf %12#0, %35 : tensor<8x8xf32>
    %37 = linalg.fill ins(%arg7 : f32) outs(%0 : tensor<8x8xf32>) -> tensor<8x8xf32>
    %38 = arith.mulf %34, %37 : tensor<8x8xf32>
    %39 = arith.addf %36, %38 : tensor<8x8xf32>
    %extracted_slice = tensor.extract_slice %39[0, 0] [%29, %30] [1, 1] : tensor<8x8xf32> to tensor<?x?xf32>
    %subview_2 = memref.subview %reinterpret_cast[0, 0] [%29, %30] [1, 1] : memref<8x8xf32, strided<[?, 1], offset: ?>> to memref<?x?xf32, strided<[?, 1], offset: ?>>
    bufferization.materialize_in_destination %extracted_slice in writable %subview_2 : (tensor<?x?xf32>, memref<?x?xf32, strided<[?, 1], offset: ?>>) -> ()
    return
  }
}

