#loc = loc("/home/zhengyang/git/flagtree/python/test/ops/min_dim/min_dim.py":37:0)
#loc1 = loc(unknown)
#loc15 = loc("/home/zhengyang/git/flagtree/python/test/ops/min_dim/min_dim.py":63:51)
#loc40 = loc(callsite(#loc1 at #loc15))
module {
  tt.func public @min_kernel(%arg0: !tt.ptr<f32> {tt.divisibility = 16 : i32} loc("/home/zhengyang/git/flagtree/python/test/ops/min_dim/min_dim.py":37:0), %arg1: !tt.ptr<f32> {tt.divisibility = 16 : i32} loc("/home/zhengyang/git/flagtree/python/test/ops/min_dim/min_dim.py":37:0), %arg2: !tt.ptr<i64> {tt.divisibility = 16 : i32} loc("/home/zhengyang/git/flagtree/python/test/ops/min_dim/min_dim.py":37:0), %arg3: i32 {tt.divisibility = 16 : i32} loc("/home/zhengyang/git/flagtree/python/test/ops/min_dim/min_dim.py":37:0)) attributes {noinline = false} {
    %cst = arith.constant dense<0x7F800000> : tensor<8x256xf32> loc(#loc1)
    %cst_0 = arith.constant dense<0x7F800000> : tensor<8xf32> loc(#loc1)
    %c256_i32 = arith.constant 256 : i32 loc(#loc1)
    %c0_i32 = arith.constant 0 : i32 loc(#loc1)
    %cst_1 = arith.constant dense<1> : tensor<8xi32> loc(#loc1)
    %cst_2 = arith.constant dense<1> : tensor<8x1xi32> loc(#loc1)
    %cst_3 = arith.constant dense<0> : tensor<8xi64> loc(#loc1)
    %c8_i32 = arith.constant 8 : i32 loc(#loc1)
    %0 = tt.get_program_id x : i32 loc(#loc2)
    %1 = arith.muli %0, %c8_i32 : i32 loc(#loc3)
    %2 = tt.make_range {end = 8 : i32, start = 0 : i32} : tensor<8xi32> loc(#loc4)
    %3 = tt.splat %1 : i32 -> tensor<8xi32> loc(#loc5)
    %4 = arith.addi %3, %2 : tensor<8xi32> loc(#loc5)
    %5 = tt.make_range {end = 256 : i32, start = 0 : i32} : tensor<256xi32> loc(#loc6)
    %6 = tt.expand_dims %4 {axis = 1 : i32} : tensor<8xi32> -> tensor<8x1xi32> loc(#loc7)
    %7 = tt.splat %arg3 : i32 -> tensor<8x1xi32> loc(#loc8)
    %8 = arith.muli %6, %7 : tensor<8x1xi32> loc(#loc8)
    %9 = tt.broadcast %8 : tensor<8x1xi32> -> tensor<8x256xi32> loc(#loc9)
    %10 = arith.cmpi slt, %6, %cst_2 : tensor<8x1xi32> loc(#loc10)
    %11 = tt.splat %arg3 : i32 -> tensor<1x256xi32> loc(#loc11)
    %12 = tt.broadcast %10 : tensor<8x1xi1> -> tensor<8x256xi1> loc(#loc12)
    %13 = tt.splat %arg0 : !tt.ptr<f32> -> tensor<8x256x!tt.ptr<f32>> loc(#loc13)
    %14 = tt.expand_dims %5 {axis = 0 : i32} : tensor<256xi32> -> tensor<1x256xi32> loc(#loc39)
    %15 = tt.broadcast %14 : tensor<1x256xi32> -> tensor<8x256xi32> loc(#loc39)
    %16:2 = scf.for %arg4 = %c0_i32 to %arg3 step %c256_i32 iter_args(%arg5 = %cst_0, %arg6 = %cst_3) -> (tensor<8xf32>, tensor<8xi64>)  : i32 {
      %22 = tt.splat %arg4 : i32 -> tensor<256xi32> loc(#loc17)
      %23 = arith.addi %22, %5 : tensor<256xi32> loc(#loc17)
      %24 = tt.expand_dims %23 {axis = 0 : i32} : tensor<256xi32> -> tensor<1x256xi32> loc(#loc18)
      %25 = tt.broadcast %24 : tensor<1x256xi32> -> tensor<8x256xi32> loc(#loc9)
      %26 = arith.addi %9, %25 : tensor<8x256xi32> loc(#loc9)
      %27 = arith.cmpi slt, %24, %11 : tensor<1x256xi32> loc(#loc11)
      %28 = tt.broadcast %27 : tensor<1x256xi1> -> tensor<8x256xi1> loc(#loc12)
      %29 = arith.andi %12, %28 : tensor<8x256xi1> loc(#loc12)
      %30 = tt.addptr %13, %26 : tensor<8x256x!tt.ptr<f32>>, tensor<8x256xi32> loc(#loc13)
      %31 = tt.load %30, %29, %cst : tensor<8x256x!tt.ptr<f32>> loc(#loc19)
      %32:2 = "tt.reduce"(%31, %15) <{axis = 1 : i32}> ({
      ^bb0(%arg7: f32 loc(callsite(#loc1 at #loc15)), %arg8: i32 loc(callsite(#loc1 at #loc15)), %arg9: f32 loc(callsite(#loc1 at #loc15)), %arg10: i32 loc(callsite(#loc1 at #loc15))):
        %39 = arith.cmpf oeq, %arg7, %arg9 : f32 loc(#loc55)
        %40 = arith.cmpi slt, %arg8, %arg10 : i32 loc(#loc56)
        %41 = arith.andi %39, %40 : i1 loc(#loc57)
        %42 = arith.cmpf olt, %arg7, %arg9 : f32 loc(#loc58)
        %43 = arith.ori %42, %41 : i1 loc(#loc59)
        %44 = arith.select %43, %arg7, %arg9 : f32 loc(#loc60)
        %45 = arith.select %43, %arg8, %arg10 : i32 loc(#loc61)
        tt.reduce.return %44, %45 : f32, i32 loc(#loc39)
      }) : (tensor<8x256xf32>, tensor<8x256xi32>) -> (tensor<8xf32>, tensor<8xi32>) loc(#loc39)
      %33 = arith.cmpf olt, %32#0, %arg5 : tensor<8xf32> loc(#loc28)
      %34 = arith.select %33, %32#0, %arg5 : tensor<8xi1>, tensor<8xf32> loc(#loc29)
      %35 = tt.splat %arg4 : i32 -> tensor<8xi32> loc(#loc30)
      %36 = arith.addi %35, %32#1 : tensor<8xi32> loc(#loc30)
      %37 = arith.extsi %36 : tensor<8xi32> to tensor<8xi64> loc(#loc31)
      %38 = arith.select %33, %37, %arg6 : tensor<8xi1>, tensor<8xi64> loc(#loc31)
      scf.yield %34, %38 : tensor<8xf32>, tensor<8xi64> loc(#loc32)
    } loc(#loc16)
    %17 = tt.splat %arg1 : !tt.ptr<f32> -> tensor<8x!tt.ptr<f32>> loc(#loc33)
    %18 = tt.addptr %17, %4 : tensor<8x!tt.ptr<f32>>, tensor<8xi32> loc(#loc33)
    %19 = tt.splat %arg2 : !tt.ptr<i64> -> tensor<8x!tt.ptr<i64>> loc(#loc34)
    %20 = tt.addptr %19, %4 : tensor<8x!tt.ptr<i64>>, tensor<8xi32> loc(#loc34)
    %21 = arith.cmpi slt, %4, %cst_1 : tensor<8xi32> loc(#loc35)
    tt.store %18, %16#0, %21 : tensor<8x!tt.ptr<f32>> loc(#loc36)
    tt.store %20, %16#1, %21 : tensor<8x!tt.ptr<i64>> loc(#loc37)
    tt.return loc(#loc38)
  } loc(#loc)
} loc(#loc)
#loc2 = loc("/home/zhengyang/git/flagtree/python/test/ops/min_dim/min_dim.py":47:26)
#loc3 = loc("/home/zhengyang/git/flagtree/python/test/ops/min_dim/min_dim.py":48:23)
#loc4 = loc("/home/zhengyang/git/flagtree/python/test/ops/min_dim/min_dim.py":48:46)
#loc5 = loc("/home/zhengyang/git/flagtree/python/test/ops/min_dim/min_dim.py":48:33)
#loc6 = loc("/home/zhengyang/git/flagtree/python/test/ops/min_dim/min_dim.py":58:42)
#loc7 = loc("/home/zhengyang/git/flagtree/python/test/ops/min_dim/min_dim.py":59:26)
#loc8 = loc("/home/zhengyang/git/flagtree/python/test/ops/min_dim/min_dim.py":59:37)
#loc9 = loc("/home/zhengyang/git/flagtree/python/test/ops/min_dim/min_dim.py":59:41)
#loc10 = loc("/home/zhengyang/git/flagtree/python/test/ops/min_dim/min_dim.py":60:35)
#loc11 = loc("/home/zhengyang/git/flagtree/python/test/ops/min_dim/min_dim.py":60:61)
#loc12 = loc("/home/zhengyang/git/flagtree/python/test/ops/min_dim/min_dim.py":60:41)
#loc13 = loc("/home/zhengyang/git/flagtree/python/test/ops/min_dim/min_dim.py":61:25)
#loc14 = loc("/usr/local/python3.11.13/lib/python3.11/site-packages/triton/language/standard.py":233:58)
#loc16 = loc("/home/zhengyang/git/flagtree/python/test/ops/min_dim/min_dim.py":57:31)
#loc17 = loc("/home/zhengyang/git/flagtree/python/test/ops/min_dim/min_dim.py":58:29)
#loc18 = loc("/home/zhengyang/git/flagtree/python/test/ops/min_dim/min_dim.py":59:50)
#loc19 = loc("/home/zhengyang/git/flagtree/python/test/ops/min_dim/min_dim.py":62:27)
#loc20 = loc("/usr/local/python3.11.13/lib/python3.11/site-packages/triton/language/standard.py":201:24)
#loc21 = loc("/usr/local/python3.11.13/lib/python3.11/site-packages/triton/language/standard.py":212:59)
#loc22 = loc("/usr/local/python3.11.13/lib/python3.11/site-packages/triton/language/standard.py":201:44)
#loc23 = loc("/usr/local/python3.11.13/lib/python3.11/site-packages/triton/language/standard.py":201:35)
#loc24 = loc("/usr/local/python3.11.13/lib/python3.11/site-packages/triton/language/standard.py":204:18)
#loc25 = loc("/usr/local/python3.11.13/lib/python3.11/site-packages/triton/language/standard.py":204:28)
#loc26 = loc("/usr/local/python3.11.13/lib/python3.11/site-packages/triton/language/standard.py":205:39)
#loc27 = loc("/usr/local/python3.11.13/lib/python3.11/site-packages/triton/language/standard.py":206:39)
#loc28 = loc("/home/zhengyang/git/flagtree/python/test/ops/min_dim/min_dim.py":64:29)
#loc29 = loc("/home/zhengyang/git/flagtree/python/test/ops/min_dim/min_dim.py":65:49)
#loc30 = loc("/home/zhengyang/git/flagtree/python/test/ops/min_dim/min_dim.py":66:51)
#loc31 = loc("/home/zhengyang/git/flagtree/python/test/ops/min_dim/min_dim.py":66:65)
#loc32 = loc("/home/zhengyang/git/flagtree/python/test/ops/min_dim/min_dim.py":66:8)
#loc33 = loc("/home/zhengyang/git/flagtree/python/test/ops/min_dim/min_dim.py":70:33)
#loc34 = loc("/home/zhengyang/git/flagtree/python/test/ops/min_dim/min_dim.py":71:33)
#loc35 = loc("/home/zhengyang/git/flagtree/python/test/ops/min_dim/min_dim.py":72:23)
#loc36 = loc("/home/zhengyang/git/flagtree/python/test/ops/min_dim/min_dim.py":73:29)
#loc37 = loc("/home/zhengyang/git/flagtree/python/test/ops/min_dim/min_dim.py":74:29)
#loc38 = loc("/home/zhengyang/git/flagtree/python/test/ops/min_dim/min_dim.py":74:4)
#loc39 = loc(callsite(#loc14 at #loc15))
#loc41 = loc(callsite(#loc20 at #loc21))
#loc42 = loc(callsite(#loc22 at #loc21))
#loc43 = loc(callsite(#loc23 at #loc21))
#loc44 = loc(callsite(#loc24 at #loc21))
#loc45 = loc(callsite(#loc25 at #loc21))
#loc46 = loc(callsite(#loc26 at #loc21))
#loc47 = loc(callsite(#loc27 at #loc21))
#loc48 = loc(callsite(#loc41 at #loc14))
#loc49 = loc(callsite(#loc42 at #loc14))
#loc50 = loc(callsite(#loc43 at #loc14))
#loc51 = loc(callsite(#loc44 at #loc14))
#loc52 = loc(callsite(#loc45 at #loc14))
#loc53 = loc(callsite(#loc46 at #loc14))
#loc54 = loc(callsite(#loc47 at #loc14))
#loc55 = loc(callsite(#loc48 at #loc15))
#loc56 = loc(callsite(#loc49 at #loc15))
#loc57 = loc(callsite(#loc50 at #loc15))
#loc58 = loc(callsite(#loc51 at #loc15))
#loc59 = loc(callsite(#loc52 at #loc15))
#loc60 = loc(callsite(#loc53 at #loc15))
#loc61 = loc(callsite(#loc54 at #loc15))
