#map = affine_map<(d0) -> (d0)>
module {
  func.func @min_kernel(%arg0: memref<?xi8>, %arg1: memref<?xi8>, %arg2: memref<?xf32> {tt.divisibility = 16 : i32, tt.tensor_kind = 0 : i32}, %arg3: memref<?xf32> {tt.divisibility = 16 : i32, tt.tensor_kind = 1 : i32}, %arg4: memref<?xi64> {tt.divisibility = 16 : i32, tt.tensor_kind = 1 : i32}, %arg5: i32 {tt.divisibility = 16 : i32}, %arg6: i32, %arg7: i32, %arg8: i32, %arg9: i32, %arg10: i32, %arg11: i32) attributes {SyncBlockLockArgIdx = 0 : i64, WorkspaceArgIdx = 1 : i64, global_kernel = "local", mix_mode = "aiv"} {
    %c-1_i32 = arith.constant -1 : i32
    %c256 = arith.constant 256 : index
    %c1 = arith.constant 1 : index
    %c8 = arith.constant 8 : index
    %c8_i32 = arith.constant 8 : i32
    %c0_i64 = arith.constant 0 : i64
    %c0_i32 = arith.constant 0 : i32
    %c256_i32 = arith.constant 256 : i32
    %cst = arith.constant 0x7F800000 : f32
    %0 = tensor.empty() : tensor<8xf32>
    %1 = linalg.fill ins(%cst : f32) outs(%0 : tensor<8xf32>) -> tensor<8xf32>
    %2 = tensor.empty() : tensor<8xi64>
    %3 = linalg.fill ins(%c0_i64 : i64) outs(%2 : tensor<8xi64>) -> tensor<8xi64>
    %4 = arith.muli %arg9, %c8_i32 : i32
    %5 = tensor.empty() : tensor<256xi32>
    %6 = linalg.generic {indexing_maps = [#map], iterator_types = ["parallel"]} outs(%5 : tensor<256xi32>) {
    ^bb0(%out: i32):
      %14 = linalg.index 0 : index
      %15 = arith.index_cast %14 : index to i32
      linalg.yield %15 : i32
    } -> tensor<256xi32>
    %7 = tensor.empty() : tensor<8x256xi32>
    %broadcasted = linalg.broadcast ins(%6 : tensor<256xi32>) outs(%7 : tensor<8x256xi32>) dimensions = [0] 
    %8:2 = scf.for %arg12 = %c0_i32 to %arg5 step %c256_i32 iter_args(%arg13 = %1, %arg14 = %3) -> (tensor<8xf32>, tensor<8xi64>)  : i32 {
      %14 = arith.index_cast %4 : i32 to index
      %15 = arith.index_cast %arg5 : i32 to index
      %16 = arith.muli %14, %15 : index
      %17 = arith.index_cast %arg12 : i32 to index
      %18 = arith.addi %16, %17 : index
      %reinterpret_cast_3 = memref.reinterpret_cast %arg2 to offset: [%18], sizes: [8, 256], strides: [%15, 1] : memref<?xf32> to memref<8x256xf32, strided<[?, 1], offset: ?>>
      %alloc = memref.alloc() : memref<8x256xf32>
      %19 = arith.addi %14, %c8 : index
      %20 = arith.maxsi %14, %c1 : index
      %21 = arith.minsi %19, %20 : index
      %22 = arith.subi %21, %14 : index
      %23 = arith.addi %17, %c256 : index
      %24 = arith.maxsi %17, %15 : index
      %25 = arith.minsi %23, %24 : index
      %26 = arith.subi %25, %17 : index
      %27 = arith.minsi %22, %c8 : index
      %28 = arith.minsi %26, %c256 : index
      %29 = arith.cmpi slt, %27, %c8 : index
      %30 = arith.cmpi slt, %28, %c256 : index
      %31 = arith.ori %29, %30 : i1
      scf.if %31 {
        linalg.fill ins(%cst : f32) outs(%alloc : memref<8x256xf32>)
      }
      %subview_4 = memref.subview %reinterpret_cast_3[0, 0] [%27, %28] [1, 1] : memref<8x256xf32, strided<[?, 1], offset: ?>> to memref<?x?xf32, strided<[?, 1], offset: ?>>
      %subview_5 = memref.subview %alloc[0, 0] [%27, %28] [1, 1] : memref<8x256xf32> to memref<?x?xf32, strided<[256, 1]>>
      memref.copy %subview_4, %subview_5 : memref<?x?xf32, strided<[?, 1], offset: ?>> to memref<?x?xf32, strided<[256, 1]>>
      %32 = bufferization.to_tensor %alloc restrict writable : memref<8x256xf32>
      %33 = tensor.empty() : tensor<8xi32>
      %34 = linalg.fill ins(%c-1_i32 : i32) outs(%33 : tensor<8xi32>) -> tensor<8xi32>
      %reduced:2 = linalg.reduce ins(%32, %broadcasted : tensor<8x256xf32>, tensor<8x256xi32>) outs(%1, %34 : tensor<8xf32>, tensor<8xi32>) dimensions = [1]  {reduce_mode = "min_with_index"}
        (%in: f32, %in_6: i32, %init: f32, %init_7: i32) {
          %41 = arith.cmpf olt, %in, %init : f32
          %42 = arith.cmpf oeq, %in, %init : f32
          %43 = arith.cmpi slt, %in_6, %init_7 : i32
          %44 = arith.andi %42, %43 : i1
          %45 = arith.ori %41, %44 : i1
          %46 = arith.select %45, %in, %init : f32
          %47 = arith.select %45, %in_6, %init_7 : i32
          linalg.yield %46, %47 : f32, i32
        }
      %35 = arith.cmpf olt, %reduced#0, %arg13 : tensor<8xf32>
      %36 = arith.select %35, %reduced#0, %arg13 : tensor<8xi1>, tensor<8xf32>
      %37 = linalg.fill ins(%arg12 : i32) outs(%33 : tensor<8xi32>) -> tensor<8xi32>
      %38 = arith.addi %37, %reduced#1 : tensor<8xi32>
      %39 = arith.extsi %38 : tensor<8xi32> to tensor<8xi64>
      %40 = arith.select %35, %39, %arg14 : tensor<8xi1>, tensor<8xi64>
      scf.yield %36, %40 : tensor<8xf32>, tensor<8xi64>
    }
    %9 = arith.index_cast %4 : i32 to index
    %reinterpret_cast = memref.reinterpret_cast %arg3 to offset: [%9], sizes: [8], strides: [1] : memref<?xf32> to memref<8xf32, strided<[1], offset: ?>>
    %reinterpret_cast_0 = memref.reinterpret_cast %arg4 to offset: [%9], sizes: [8], strides: [1] : memref<?xi64> to memref<8xi64, strided<[1], offset: ?>>
    %10 = arith.addi %9, %c8 : index
    %11 = arith.maxsi %9, %c1 : index
    %12 = arith.minsi %10, %11 : index
    %13 = arith.subi %12, %9 : index
    %extracted_slice = tensor.extract_slice %8#0[0] [%13] [1] : tensor<8xf32> to tensor<?xf32>
    %subview = memref.subview %reinterpret_cast[0] [%13] [1] : memref<8xf32, strided<[1], offset: ?>> to memref<?xf32, strided<[1], offset: ?>>
    bufferization.materialize_in_destination %extracted_slice in writable %subview : (tensor<?xf32>, memref<?xf32, strided<[1], offset: ?>>) -> ()
    %extracted_slice_1 = tensor.extract_slice %8#1[0] [%13] [1] : tensor<8xi64> to tensor<?xi64>
    %subview_2 = memref.subview %reinterpret_cast_0[0] [%13] [1] : memref<8xi64, strided<[1], offset: ?>> to memref<?xi64, strided<[1], offset: ?>>
    bufferization.materialize_in_destination %extracted_slice_1 in writable %subview_2 : (tensor<?xi64>, memref<?xi64, strided<[1], offset: ?>>) -> ()
    return
  }
}

