#loc = loc("/home/zhengyang/FlagTree/flagtree/python/test/ops/cumsum/cumsum.py":19:0)
#loc1 = loc(unknown)
#loc18 = loc("/home/zhengyang/FlagTree/flagtree/python/test/ops/cumsum/cumsum.py":52:23)
#loc21 = loc("/home/zhengyang/FlagTree/flagtree/python/test/ops/cumsum/cumsum.py":54:30)
#loc28 = loc(callsite(#loc1 at #loc18))
#loc31 = loc(callsite(#loc1 at #loc21))
module {
  tt.func public @scan_part_sum_abc_kernel(%arg0: !tt.ptr<f32> {tt.divisibility = 16 : i32} loc("/home/zhengyang/FlagTree/flagtree/python/test/ops/cumsum/cumsum.py":19:0), %arg1: !tt.ptr<f32> {tt.divisibility = 16 : i32} loc("/home/zhengyang/FlagTree/flagtree/python/test/ops/cumsum/cumsum.py":19:0), %arg2: !tt.ptr<f32> {tt.divisibility = 16 : i32} loc("/home/zhengyang/FlagTree/flagtree/python/test/ops/cumsum/cumsum.py":19:0), %arg3: i32 {tt.divisibility = 16 : i32} loc("/home/zhengyang/FlagTree/flagtree/python/test/ops/cumsum/cumsum.py":19:0), %arg4: i32 loc("/home/zhengyang/FlagTree/flagtree/python/test/ops/cumsum/cumsum.py":19:0)) attributes {noinline = false} {
    %cst = arith.constant dense<0.000000e+00> : tensor<4096xf32> loc(#loc1)
    %c4096_i32 = arith.constant 4096 : i32 loc(#loc1)
    %0 = tt.get_program_id x : i32 loc(#loc2)
    %1 = tt.get_program_id y : i32 loc(#loc3)
    %2 = tt.get_program_id z : i32 loc(#loc4)
    %3 = arith.muli %1, %c4096_i32 : i32 loc(#loc5)
    %4 = tt.make_range {end = 4096 : i32, start = 0 : i32} : tensor<4096xi32> loc(#loc6)
    %5 = tt.splat %3 : i32 -> tensor<4096xi32> loc(#loc7)
    %6 = arith.addi %5, %4 : tensor<4096xi32> loc(#loc7)
    %7 = arith.muli %0, %arg3 : i32 loc(#loc8)
    %8 = tt.splat %7 : i32 -> tensor<4096xi32> loc(#loc9)
    %9 = arith.addi %8, %6 : tensor<4096xi32> loc(#loc9)
    %10 = tt.splat %2 : i32 -> tensor<4096xi32> loc(#loc10)
    %11 = arith.addi %9, %10 : tensor<4096xi32> loc(#loc10)
    %12 = arith.muli %0, %arg4 : i32 loc(#loc11)
    %13 = arith.addi %12, %2 : i32 loc(#loc12)
    %14 = arith.addi %13, %1 : i32 loc(#loc13)
    %15 = tt.splat %arg3 : i32 -> tensor<4096xi32> loc(#loc14)
    %16 = arith.cmpi slt, %6, %15 : tensor<4096xi32> loc(#loc14)
    %17 = tt.splat %arg0 : !tt.ptr<f32> -> tensor<4096x!tt.ptr<f32>> loc(#loc15)
    %18 = tt.addptr %17, %11 : tensor<4096x!tt.ptr<f32>>, tensor<4096xi32> loc(#loc15)
    %19 = tt.load %18, %16, %cst : tensor<4096x!tt.ptr<f32>> loc(#loc16)
    %20 = "tt.scan"(%19) <{axis = 0 : i32, reverse = false}> ({
    ^bb0(%arg5: f32 loc(callsite(#loc1 at #loc18)), %arg6: f32 loc(callsite(#loc1 at #loc18))):
      %25 = arith.addf %arg5, %arg6 : f32 loc(#loc33)
      tt.scan.return %25 : f32 loc(#loc27)
    }) : (tensor<4096xf32>) -> tensor<4096xf32> loc(#loc27)
    %21 = "tt.reduce"(%19) <{axis = 0 : i32}> ({
    ^bb0(%arg5: f32 loc(callsite(#loc1 at #loc21)), %arg6: f32 loc(callsite(#loc1 at #loc21))):
      %25 = arith.addf %arg5, %arg6 : f32 loc(#loc34)
      tt.reduce.return %25 : f32 loc(#loc30)
    }) : (tensor<4096xf32>) -> f32 loc(#loc30)
    %22 = tt.splat %arg1 : !tt.ptr<f32> -> tensor<4096x!tt.ptr<f32>> loc(#loc22)
    %23 = tt.addptr %22, %11 : tensor<4096x!tt.ptr<f32>>, tensor<4096xi32> loc(#loc22)
    tt.store %23, %20, %16 : tensor<4096x!tt.ptr<f32>> loc(#loc23)
    %24 = tt.addptr %arg2, %14 : !tt.ptr<f32>, i32 loc(#loc24)
    tt.store %24, %21 : !tt.ptr<f32> loc(#loc25)
    tt.return loc(#loc26)
  } loc(#loc)
} loc(#loc)
#loc2 = loc("/home/zhengyang/FlagTree/flagtree/python/test/ops/cumsum/cumsum.py":28:26)
#loc3 = loc("/home/zhengyang/FlagTree/flagtree/python/test/ops/cumsum/cumsum.py":29:26)
#loc4 = loc("/home/zhengyang/FlagTree/flagtree/python/test/ops/cumsum/cumsum.py":30:26)
#loc5 = loc("/home/zhengyang/FlagTree/flagtree/python/test/ops/cumsum/cumsum.py":33:20)
#loc6 = loc("/home/zhengyang/FlagTree/flagtree/python/test/ops/cumsum/cumsum.py":33:46)
#loc7 = loc("/home/zhengyang/FlagTree/flagtree/python/test/ops/cumsum/cumsum.py":33:33)
#loc8 = loc("/home/zhengyang/FlagTree/flagtree/python/test/ops/cumsum/cumsum.py":36:21)
#loc9 = loc("/home/zhengyang/FlagTree/flagtree/python/test/ops/cumsum/cumsum.py":36:29)
#loc10 = loc("/home/zhengyang/FlagTree/flagtree/python/test/ops/cumsum/cumsum.py":36:41)
#loc11 = loc("/home/zhengyang/FlagTree/flagtree/python/test/ops/cumsum/cumsum.py":37:31)
#loc12 = loc("/home/zhengyang/FlagTree/flagtree/python/test/ops/cumsum/cumsum.py":37:46)
#loc13 = loc("/home/zhengyang/FlagTree/flagtree/python/test/ops/cumsum/cumsum.py":38:37)
#loc14 = loc("/home/zhengyang/FlagTree/flagtree/python/test/ops/cumsum/cumsum.py":40:19)
#loc15 = loc("/home/zhengyang/FlagTree/flagtree/python/test/ops/cumsum/cumsum.py":41:21)
#loc16 = loc("/home/zhengyang/FlagTree/flagtree/python/test/ops/cumsum/cumsum.py":42:23)
#loc17 = loc("/usr/local/python3.11.13/lib/python3.11/site-packages/triton/language/standard.py":299:60)
#loc19 = loc("/usr/local/python3.11.13/lib/python3.11/site-packages/triton/language/standard.py":256:15)
#loc20 = loc("/usr/local/python3.11.13/lib/python3.11/site-packages/triton/language/standard.py":267:36)
#loc22 = loc("/home/zhengyang/FlagTree/flagtree/python/test/ops/cumsum/cumsum.py":56:21)
#loc23 = loc("/home/zhengyang/FlagTree/flagtree/python/test/ops/cumsum/cumsum.py":57:23)
#loc24 = loc("/home/zhengyang/FlagTree/flagtree/python/test/ops/cumsum/cumsum.py":59:37)
#loc25 = loc("/home/zhengyang/FlagTree/flagtree/python/test/ops/cumsum/cumsum.py":60:31)
#loc26 = loc("/home/zhengyang/FlagTree/flagtree/python/test/ops/cumsum/cumsum.py":60:4)
#loc27 = loc(callsite(#loc17 at #loc18))
#loc29 = loc(callsite(#loc19 at #loc17))
#loc30 = loc(callsite(#loc20 at #loc21))
#loc32 = loc(callsite(#loc19 at #loc20))
#loc33 = loc(callsite(#loc29 at #loc18))
#loc34 = loc(callsite(#loc32 at #loc21))
