#loc = loc("/home/zhengyang/git/flagtree/python/test/ops/amax/amax_ascend_perf.py":33:0)
#loc1 = loc(unknown)
#loc28 = loc("/home/zhengyang/git/flagtree/python/test/ops/amax/amax_ascend_perf.py":66:21)
#loc35 = loc(callsite(#loc1 at #loc28))
module {
  tt.func public @amax_kernel(%arg0: !tt.ptr<f32> {tt.divisibility = 16 : i32} loc("/home/zhengyang/git/flagtree/python/test/ops/amax/amax_ascend_perf.py":33:0), %arg1: !tt.ptr<f32> {tt.divisibility = 16 : i32} loc("/home/zhengyang/git/flagtree/python/test/ops/amax/amax_ascend_perf.py":33:0), %arg2: i32 {tt.divisibility = 16 : i32} loc("/home/zhengyang/git/flagtree/python/test/ops/amax/amax_ascend_perf.py":33:0)) attributes {noinline = false} {
    %cst = arith.constant dense<0xFF800000> : tensor<8x256xf32> loc(#loc1)
    %c256_i32 = arith.constant 256 : i32 loc(#loc1)
    %c1_i32 = arith.constant 1 : i32 loc(#loc1)
    %c0_i32 = arith.constant 0 : i32 loc(#loc1)
    %cst_0 = arith.constant dense<1> : tensor<8x1xi32> loc(#loc1)
    %c8_i32 = arith.constant 8 : i32 loc(#loc1)
    %0 = tt.get_num_programs x : i32 loc(#loc2)
    %1 = tt.get_program_id x : i32 loc(#loc3)
    %2 = arith.divsi %0, %0 : i32 loc(#loc33)
    %3 = tt.make_range {end = 8 : i32, start = 0 : i32} : tensor<8xi32> loc(#loc6)
    %4 = tt.expand_dims %3 {axis = 1 : i32} : tensor<8xi32> -> tensor<8x1xi32> loc(#loc7)
    %5 = tt.splat %arg2 : i32 -> tensor<8x1xi32> loc(#loc8)
    %6 = tt.splat %arg0 : !tt.ptr<f32> -> tensor<8x1x!tt.ptr<f32>> loc(#loc9)
    %7 = tt.splat %arg1 : !tt.ptr<f32> -> tensor<8x1x!tt.ptr<f32>> loc(#loc10)
    %8 = tt.make_range {end = 256 : i32, start = 0 : i32} : tensor<256xi32> loc(#loc11)
    %9 = tt.expand_dims %8 {axis = 0 : i32} : tensor<256xi32> -> tensor<1x256xi32> loc(#loc12)
    %10 = tt.splat %arg2 : i32 -> tensor<1x256xi32> loc(#loc13)
    scf.for %arg3 = %c0_i32 to %2 step %c1_i32  : i32 {
      %11 = arith.muli %arg3, %0 : i32 loc(#loc15)
      %12 = arith.addi %1, %11 : i32 loc(#loc16)
      %13 = arith.muli %12, %c8_i32 : i32 loc(#loc17)
      %14 = tt.splat %13 : i32 -> tensor<8x1xi32> loc(#loc18)
      %15 = arith.addi %14, %4 : tensor<8x1xi32> loc(#loc18)
      %16 = arith.muli %15, %5 : tensor<8x1xi32> loc(#loc8)
      %17 = tt.addptr %6, %16 : tensor<8x1x!tt.ptr<f32>>, tensor<8x1xi32> loc(#loc9)
      %18 = tt.addptr %7, %15 : tensor<8x1x!tt.ptr<f32>>, tensor<8x1xi32> loc(#loc10)
      %19 = arith.cmpi slt, %15, %cst_0 : tensor<8x1xi32> loc(#loc19)
      %20 = tt.broadcast %19 : tensor<8x1xi1> -> tensor<8x256xi1> loc(#loc20)
      %21 = tt.broadcast %17 : tensor<8x1x!tt.ptr<f32>> -> tensor<8x256x!tt.ptr<f32>> loc(#loc21)
      %22 = scf.for %arg4 = %c0_i32 to %arg2 step %c256_i32 iter_args(%arg5 = %cst) -> (tensor<8x256xf32>)  : i32 {
        %25 = tt.splat %arg4 : i32 -> tensor<1x256xi32> loc(#loc23)
        %26 = arith.addi %25, %9 : tensor<1x256xi32> loc(#loc23)
        %27 = arith.cmpi slt, %26, %10 : tensor<1x256xi32> loc(#loc13)
        %28 = tt.broadcast %27 : tensor<1x256xi1> -> tensor<8x256xi1> loc(#loc20)
        %29 = arith.andi %20, %28 : tensor<8x256xi1> loc(#loc20)
        %30 = tt.broadcast %26 : tensor<1x256xi32> -> tensor<8x256xi32> loc(#loc21)
        %31 = tt.addptr %21, %30 : tensor<8x256x!tt.ptr<f32>>, tensor<8x256xi32> loc(#loc21)
        %32 = tt.load %31, %29, %cst : tensor<8x256x!tt.ptr<f32>> loc(#loc24)
        %33 = arith.maxnumf %arg5, %32 : tensor<8x256xf32> loc(#loc25)
        scf.yield %33 : tensor<8x256xf32> loc(#loc26)
      } loc(#loc22)
      %23 = "tt.reduce"(%22) <{axis = 1 : i32}> ({
      ^bb0(%arg4: f32 loc(callsite(#loc1 at #loc28)), %arg5: f32 loc(callsite(#loc1 at #loc28))):
        %25 = arith.maxnumf %arg4, %arg5 : f32 loc(#loc37)
        tt.reduce.return %25 : f32 loc(#loc34)
      }) : (tensor<8x256xf32>) -> tensor<8xf32> loc(#loc34)
      %24 = tt.expand_dims %23 {axis = 1 : i32} : tensor<8xf32> -> tensor<8x1xf32> loc(#loc30)
      tt.store %18, %24, %19 : tensor<8x1x!tt.ptr<f32>> loc(#loc31)
    } loc(#loc14)
    tt.return loc(#loc32)
  } loc(#loc)
} loc(#loc)
#loc2 = loc("/home/zhengyang/git/flagtree/python/test/ops/amax/amax_ascend_perf.py":45:30)
#loc3 = loc("/home/zhengyang/git/flagtree/python/test/ops/amax/amax_ascend_perf.py":46:24)
#loc4 = loc("/usr/local/python3.11.13/lib/python3.11/site-packages/triton/language/standard.py":40:28)
#loc5 = loc("/home/zhengyang/git/flagtree/python/test/ops/amax/amax_ascend_perf.py":49:41)
#loc6 = loc("/home/zhengyang/git/flagtree/python/test/ops/amax/amax_ascend_perf.py":53:48)
#loc7 = loc("/home/zhengyang/git/flagtree/python/test/ops/amax/amax_ascend_perf.py":53:57)
#loc8 = loc("/home/zhengyang/git/flagtree/python/test/ops/amax/amax_ascend_perf.py":54:28)
#loc9 = loc("/home/zhengyang/git/flagtree/python/test/ops/amax/amax_ascend_perf.py":54:21)
#loc10 = loc("/home/zhengyang/git/flagtree/python/test/ops/amax/amax_ascend_perf.py":55:21)
#loc11 = loc("/home/zhengyang/git/flagtree/python/test/ops/amax/amax_ascend_perf.py":61:38)
#loc12 = loc("/home/zhengyang/git/flagtree/python/test/ops/amax/amax_ascend_perf.py":61:47)
#loc13 = loc("/home/zhengyang/git/flagtree/python/test/ops/amax/amax_ascend_perf.py":62:30)
#loc14 = loc("/home/zhengyang/git/flagtree/python/test/ops/amax/amax_ascend_perf.py":51:19)
#loc15 = loc("/home/zhengyang/git/flagtree/python/test/ops/amax/amax_ascend_perf.py":52:28)
#loc16 = loc("/home/zhengyang/git/flagtree/python/test/ops/amax/amax_ascend_perf.py":52:24)
#loc17 = loc("/home/zhengyang/git/flagtree/python/test/ops/amax/amax_ascend_perf.py":53:25)
#loc18 = loc("/home/zhengyang/git/flagtree/python/test/ops/amax/amax_ascend_perf.py":53:35)
#loc19 = loc("/home/zhengyang/git/flagtree/python/test/ops/amax/amax_ascend_perf.py":56:26)
#loc20 = loc("/home/zhengyang/git/flagtree/python/test/ops/amax/amax_ascend_perf.py":63:32)
#loc21 = loc("/home/zhengyang/git/flagtree/python/test/ops/amax/amax_ascend_perf.py":64:31)
#loc22 = loc("/home/zhengyang/git/flagtree/python/test/ops/amax/amax_ascend_perf.py":60:31)
#loc23 = loc("/home/zhengyang/git/flagtree/python/test/ops/amax/amax_ascend_perf.py":61:25)
#loc24 = loc("/home/zhengyang/git/flagtree/python/test/ops/amax/amax_ascend_perf.py":64:37)
#loc25 = loc("/home/zhengyang/git/flagtree/python/test/ops/amax/amax_ascend_perf.py":65:36)
#loc26 = loc("/home/zhengyang/git/flagtree/python/test/ops/amax/amax_ascend_perf.py":65:12)
#loc27 = loc("/usr/local/python3.11.13/lib/python3.11/site-packages/triton/language/standard.py":184:40)
#loc29 = loc("/usr/local/python3.11.13/lib/python3.11/site-packages/triton/language/standard.py":163:27)
#loc30 = loc("/home/zhengyang/git/flagtree/python/test/ops/amax/amax_ascend_perf.py":66:35)
#loc31 = loc("/home/zhengyang/git/flagtree/python/test/ops/amax/amax_ascend_perf.py":67:28)
#loc32 = loc("/home/zhengyang/git/flagtree/python/test/ops/amax/amax_ascend_perf.py":51:4)
#loc33 = loc(callsite(#loc4 at #loc5))
#loc34 = loc(callsite(#loc27 at #loc28))
#loc36 = loc(callsite(#loc29 at #loc27))
#loc37 = loc(callsite(#loc36 at #loc28))
