#loc = loc("/home/zhengyang/FlagTree/flagtree/python/test/ops/argmin/argmin.py":37:0)
#loc1 = loc(unknown)
#loc17 = loc("/home/zhengyang/FlagTree/flagtree/python/test/ops/argmin/argmin.py":64:22)
#loc41 = loc(callsite(#loc1 at #loc17))
module {
  tt.func public @argmin_kernel(%arg0: !tt.ptr<f32> {tt.divisibility = 16 : i32} loc("/home/zhengyang/FlagTree/flagtree/python/test/ops/argmin/argmin.py":37:0), %arg1: !tt.ptr<i64> {tt.divisibility = 16 : i32} loc("/home/zhengyang/FlagTree/flagtree/python/test/ops/argmin/argmin.py":37:0), %arg2: i32 {tt.divisibility = 16 : i32} loc("/home/zhengyang/FlagTree/flagtree/python/test/ops/argmin/argmin.py":37:0)) attributes {noinline = false} {
    %cst = arith.constant dense<0x7F800000> : tensor<8x16xf32> loc(#loc1)
    %cst_0 = arith.constant dense<0x7F800000> : tensor<8xf32> loc(#loc1)
    %c16_i32 = arith.constant 16 : i32 loc(#loc1)
    %c0_i32 = arith.constant 0 : i32 loc(#loc1)
    %cst_1 = arith.constant dense<1> : tensor<8xi32> loc(#loc1)
    %cst_2 = arith.constant dense<1> : tensor<8x1xi32> loc(#loc1)
    %cst_3 = arith.constant dense<0> : tensor<8xi64> loc(#loc1)
    %c8_i32 = arith.constant 8 : i32 loc(#loc1)
    %0 = tt.get_program_id x : i32 loc(#loc2)
    %1 = tt.get_program_id y : i32 loc(#loc3)
    %2 = arith.muli %0, %c8_i32 : i32 loc(#loc4)
    %3 = tt.make_range {end = 8 : i32, start = 0 : i32} : tensor<8xi32> loc(#loc5)
    %4 = tt.splat %2 : i32 -> tensor<8xi32> loc(#loc6)
    %5 = arith.addi %4, %3 : tensor<8xi32> loc(#loc6)
    %6 = tt.make_range {end = 16 : i32, start = 0 : i32} : tensor<16xi32> loc(#loc7)
    %7 = tt.expand_dims %5 {axis = 1 : i32} : tensor<8xi32> -> tensor<8x1xi32> loc(#loc8)
    %8 = tt.splat %arg2 : i32 -> tensor<8x1xi32> loc(#loc9)
    %9 = arith.muli %7, %8 : tensor<8x1xi32> loc(#loc9)
    %10 = tt.broadcast %9 : tensor<8x1xi32> -> tensor<8x16xi32> loc(#loc10)
    %11 = tt.splat %1 : i32 -> tensor<8x16xi32> loc(#loc11)
    %12 = arith.cmpi slt, %7, %cst_2 : tensor<8x1xi32> loc(#loc12)
    %13 = tt.splat %arg2 : i32 -> tensor<1x16xi32> loc(#loc13)
    %14 = tt.broadcast %12 : tensor<8x1xi1> -> tensor<8x16xi1> loc(#loc14)
    %15 = tt.splat %arg0 : !tt.ptr<f32> -> tensor<8x16x!tt.ptr<f32>> loc(#loc15)
    %16 = tt.expand_dims %6 {axis = 0 : i32} : tensor<16xi32> -> tensor<1x16xi32> loc(#loc40)
    %17 = tt.broadcast %16 : tensor<1x16xi32> -> tensor<8x16xi32> loc(#loc40)
    %18:2 = scf.for %arg3 = %c0_i32 to %arg2 step %c16_i32 iter_args(%arg4 = %cst_0, %arg5 = %cst_3) -> (tensor<8xf32>, tensor<8xi64>)  : i32 {
      %24 = tt.splat %arg3 : i32 -> tensor<16xi32> loc(#loc19)
      %25 = arith.addi %24, %6 : tensor<16xi32> loc(#loc19)
      %26 = tt.expand_dims %25 {axis = 0 : i32} : tensor<16xi32> -> tensor<1x16xi32> loc(#loc20)
      %27 = tt.broadcast %26 : tensor<1x16xi32> -> tensor<8x16xi32> loc(#loc10)
      %28 = arith.addi %10, %27 : tensor<8x16xi32> loc(#loc10)
      %29 = arith.addi %28, %11 : tensor<8x16xi32> loc(#loc11)
      %30 = arith.cmpi slt, %26, %13 : tensor<1x16xi32> loc(#loc13)
      %31 = tt.broadcast %30 : tensor<1x16xi1> -> tensor<8x16xi1> loc(#loc14)
      %32 = arith.andi %14, %31 : tensor<8x16xi1> loc(#loc14)
      %33 = tt.addptr %15, %29 : tensor<8x16x!tt.ptr<f32>>, tensor<8x16xi32> loc(#loc15)
      %34 = tt.load %33, %32, %cst : tensor<8x16x!tt.ptr<f32>> loc(#loc21)
      %35:2 = "tt.reduce"(%34, %17) <{axis = 1 : i32}> ({
      ^bb0(%arg6: f32 loc(callsite(#loc1 at #loc17)), %arg7: i32 loc(callsite(#loc1 at #loc17)), %arg8: f32 loc(callsite(#loc1 at #loc17)), %arg9: i32 loc(callsite(#loc1 at #loc17))):
        %42 = arith.cmpf oeq, %arg6, %arg8 : f32 loc(#loc56)
        %43 = arith.cmpi slt, %arg7, %arg9 : i32 loc(#loc57)
        %44 = arith.andi %42, %43 : i1 loc(#loc58)
        %45 = arith.cmpf olt, %arg6, %arg8 : f32 loc(#loc59)
        %46 = arith.ori %45, %44 : i1 loc(#loc60)
        %47 = arith.select %46, %arg6, %arg8 : f32 loc(#loc61)
        %48 = arith.select %46, %arg7, %arg9 : i32 loc(#loc62)
        tt.reduce.return %47, %48 : f32, i32 loc(#loc40)
      }) : (tensor<8x16xf32>, tensor<8x16xi32>) -> (tensor<8xf32>, tensor<8xi32>) loc(#loc40)
      %36 = arith.cmpf olt, %35#0, %arg4 : tensor<8xf32> loc(#loc30)
      %37 = arith.select %36, %35#0, %arg4 : tensor<8xi1>, tensor<8xf32> loc(#loc31)
      %38 = tt.splat %arg3 : i32 -> tensor<8xi32> loc(#loc32)
      %39 = arith.addi %38, %35#1 : tensor<8xi32> loc(#loc32)
      %40 = arith.extsi %39 : tensor<8xi32> to tensor<8xi64> loc(#loc33)
      %41 = arith.select %36, %40, %arg5 : tensor<8xi1>, tensor<8xi64> loc(#loc33)
      scf.yield %37, %41 : tensor<8xf32>, tensor<8xi64> loc(#loc34)
    } loc(#loc18)
    %19 = tt.splat %1 : i32 -> tensor<8xi32> loc(#loc35)
    %20 = arith.addi %5, %19 : tensor<8xi32> loc(#loc35)
    %21 = tt.splat %arg1 : !tt.ptr<i64> -> tensor<8x!tt.ptr<i64>> loc(#loc36)
    %22 = tt.addptr %21, %20 : tensor<8x!tt.ptr<i64>>, tensor<8xi32> loc(#loc36)
    %23 = arith.cmpi slt, %5, %cst_1 : tensor<8xi32> loc(#loc37)
    tt.store %22, %18#1, %23 : tensor<8x!tt.ptr<i64>> loc(#loc38)
    tt.return loc(#loc39)
  } loc(#loc)
} loc(#loc)
#loc2 = loc("/home/zhengyang/FlagTree/flagtree/python/test/ops/argmin/argmin.py":47:26)
#loc3 = loc("/home/zhengyang/FlagTree/flagtree/python/test/ops/argmin/argmin.py":48:26)
#loc4 = loc("/home/zhengyang/FlagTree/flagtree/python/test/ops/argmin/argmin.py":49:23)
#loc5 = loc("/home/zhengyang/FlagTree/flagtree/python/test/ops/argmin/argmin.py":49:46)
#loc6 = loc("/home/zhengyang/FlagTree/flagtree/python/test/ops/argmin/argmin.py":49:33)
#loc7 = loc("/home/zhengyang/FlagTree/flagtree/python/test/ops/argmin/argmin.py":57:42)
#loc8 = loc("/home/zhengyang/FlagTree/flagtree/python/test/ops/argmin/argmin.py":58:26)
#loc9 = loc("/home/zhengyang/FlagTree/flagtree/python/test/ops/argmin/argmin.py":58:37)
#loc10 = loc("/home/zhengyang/FlagTree/flagtree/python/test/ops/argmin/argmin.py":58:45)
#loc11 = loc("/home/zhengyang/FlagTree/flagtree/python/test/ops/argmin/argmin.py":58:69)
#loc12 = loc("/home/zhengyang/FlagTree/flagtree/python/test/ops/argmin/argmin.py":59:35)
#loc13 = loc("/home/zhengyang/FlagTree/flagtree/python/test/ops/argmin/argmin.py":59:61)
#loc14 = loc("/home/zhengyang/FlagTree/flagtree/python/test/ops/argmin/argmin.py":59:41)
#loc15 = loc("/home/zhengyang/FlagTree/flagtree/python/test/ops/argmin/argmin.py":60:25)
#loc16 = loc("/usr/local/python3.11.13/lib/python3.11/site-packages/triton/language/standard.py":233:58)
#loc18 = loc("/home/zhengyang/FlagTree/flagtree/python/test/ops/argmin/argmin.py":56:31)
#loc19 = loc("/home/zhengyang/FlagTree/flagtree/python/test/ops/argmin/argmin.py":57:29)
#loc20 = loc("/home/zhengyang/FlagTree/flagtree/python/test/ops/argmin/argmin.py":58:54)
#loc21 = loc("/home/zhengyang/FlagTree/flagtree/python/test/ops/argmin/argmin.py":61:27)
#loc22 = loc("/usr/local/python3.11.13/lib/python3.11/site-packages/triton/language/standard.py":201:24)
#loc23 = loc("/usr/local/python3.11.13/lib/python3.11/site-packages/triton/language/standard.py":212:59)
#loc24 = loc("/usr/local/python3.11.13/lib/python3.11/site-packages/triton/language/standard.py":201:44)
#loc25 = loc("/usr/local/python3.11.13/lib/python3.11/site-packages/triton/language/standard.py":201:35)
#loc26 = loc("/usr/local/python3.11.13/lib/python3.11/site-packages/triton/language/standard.py":204:18)
#loc27 = loc("/usr/local/python3.11.13/lib/python3.11/site-packages/triton/language/standard.py":204:28)
#loc28 = loc("/usr/local/python3.11.13/lib/python3.11/site-packages/triton/language/standard.py":205:39)
#loc29 = loc("/usr/local/python3.11.13/lib/python3.11/site-packages/triton/language/standard.py":206:39)
#loc30 = loc("/home/zhengyang/FlagTree/flagtree/python/test/ops/argmin/argmin.py":68:29)
#loc31 = loc("/home/zhengyang/FlagTree/flagtree/python/test/ops/argmin/argmin.py":69:49)
#loc32 = loc("/home/zhengyang/FlagTree/flagtree/python/test/ops/argmin/argmin.py":70:51)
#loc33 = loc("/home/zhengyang/FlagTree/flagtree/python/test/ops/argmin/argmin.py":70:65)
#loc34 = loc("/home/zhengyang/FlagTree/flagtree/python/test/ops/argmin/argmin.py":70:8)
#loc35 = loc("/home/zhengyang/FlagTree/flagtree/python/test/ops/argmin/argmin.py":72:34)
#loc36 = loc("/home/zhengyang/FlagTree/flagtree/python/test/ops/argmin/argmin.py":73:33)
#loc37 = loc("/home/zhengyang/FlagTree/flagtree/python/test/ops/argmin/argmin.py":74:23)
#loc38 = loc("/home/zhengyang/FlagTree/flagtree/python/test/ops/argmin/argmin.py":75:29)
#loc39 = loc("/home/zhengyang/FlagTree/flagtree/python/test/ops/argmin/argmin.py":75:4)
#loc40 = loc(callsite(#loc16 at #loc17))
#loc42 = loc(callsite(#loc22 at #loc23))
#loc43 = loc(callsite(#loc24 at #loc23))
#loc44 = loc(callsite(#loc25 at #loc23))
#loc45 = loc(callsite(#loc26 at #loc23))
#loc46 = loc(callsite(#loc27 at #loc23))
#loc47 = loc(callsite(#loc28 at #loc23))
#loc48 = loc(callsite(#loc29 at #loc23))
#loc49 = loc(callsite(#loc42 at #loc16))
#loc50 = loc(callsite(#loc43 at #loc16))
#loc51 = loc(callsite(#loc44 at #loc16))
#loc52 = loc(callsite(#loc45 at #loc16))
#loc53 = loc(callsite(#loc46 at #loc16))
#loc54 = loc(callsite(#loc47 at #loc16))
#loc55 = loc(callsite(#loc48 at #loc16))
#loc56 = loc(callsite(#loc49 at #loc17))
#loc57 = loc(callsite(#loc50 at #loc17))
#loc58 = loc(callsite(#loc51 at #loc17))
#loc59 = loc(callsite(#loc52 at #loc17))
#loc60 = loc(callsite(#loc53 at #loc17))
#loc61 = loc(callsite(#loc54 at #loc17))
#loc62 = loc(callsite(#loc55 at #loc17))
