#map = affine_map<(d0) -> (d0)>
module {
  func.func @argmin_kernel(%arg0: memref<?xi8>, %arg1: memref<?xi8>, %arg2: memref<?xf32> {tt.divisibility = 16 : i32, tt.tensor_kind = 0 : i32}, %arg3: memref<?xi64> {tt.divisibility = 16 : i32, tt.tensor_kind = 1 : i32}, %arg4: i32 {tt.divisibility = 16 : i32}, %arg5: i32, %arg6: i32, %arg7: i32, %arg8: i32, %arg9: i32, %arg10: i32) attributes {SyncBlockLockArgIdx = 0 : i64, WorkspaceArgIdx = 1 : i64, global_kernel = "local", mix_mode = "aiv"} {
    %c-1_i32 = arith.constant -1 : i32
    %c16 = arith.constant 16 : index
    %c1 = arith.constant 1 : index
    %c8 = arith.constant 8 : index
    %c8_i32 = arith.constant 8 : i32
    %c0_i64 = arith.constant 0 : i64
    %c0_i32 = arith.constant 0 : i32
    %c16_i32 = arith.constant 16 : i32
    %cst = arith.constant 0x7F800000 : f32
    %0 = tensor.empty() : tensor<8xf32>
    %1 = linalg.fill ins(%cst : f32) outs(%0 : tensor<8xf32>) -> tensor<8xf32>
    %2 = tensor.empty() : tensor<8xi64>
    %3 = linalg.fill ins(%c0_i64 : i64) outs(%2 : tensor<8xi64>) -> tensor<8xi64>
    %4 = arith.muli %arg8, %c8_i32 : i32
    %5 = tensor.empty() : tensor<16xi32>
    %6 = linalg.generic {indexing_maps = [#map], iterator_types = ["parallel"]} outs(%5 : tensor<16xi32>) {
    ^bb0(%out: i32):
      %16 = linalg.index 0 : index
      %17 = arith.index_cast %16 : index to i32
      linalg.yield %17 : i32
    } -> tensor<16xi32>
    %7 = tensor.empty() : tensor<8x16xi32>
    %broadcasted = linalg.broadcast ins(%6 : tensor<16xi32>) outs(%7 : tensor<8x16xi32>) dimensions = [0] 
    %8:2 = scf.for %arg11 = %c0_i32 to %arg4 step %c16_i32 iter_args(%arg12 = %1, %arg13 = %3) -> (tensor<8xf32>, tensor<8xi64>)  : i32 {
      %16 = arith.index_cast %4 : i32 to index
      %17 = arith.index_cast %arg4 : i32 to index
      %18 = arith.muli %16, %17 : index
      %19 = arith.index_cast %arg11 : i32 to index
      %20 = arith.index_cast %arg9 : i32 to index
      %21 = arith.addi %18, %20 : index
      %22 = arith.addi %21, %19 : index
      %reinterpret_cast_0 = memref.reinterpret_cast %arg2 to offset: [%22], sizes: [8, 16], strides: [%17, 1] : memref<?xf32> to memref<8x16xf32, strided<[?, 1], offset: ?>>
      %alloc = memref.alloc() : memref<8x16xf32>
      %23 = arith.addi %16, %c8 : index
      %24 = arith.maxsi %16, %c1 : index
      %25 = arith.minsi %23, %24 : index
      %26 = arith.subi %25, %16 : index
      %27 = arith.addi %19, %c16 : index
      %28 = arith.maxsi %19, %17 : index
      %29 = arith.minsi %27, %28 : index
      %30 = arith.subi %29, %19 : index
      %31 = arith.minsi %26, %c8 : index
      %32 = arith.minsi %30, %c16 : index
      %33 = arith.cmpi slt, %31, %c8 : index
      %34 = arith.cmpi slt, %32, %c16 : index
      %35 = arith.ori %33, %34 : i1
      scf.if %35 {
        linalg.fill ins(%cst : f32) outs(%alloc : memref<8x16xf32>)
      }
      %subview_1 = memref.subview %reinterpret_cast_0[0, 0] [%31, %32] [1, 1] : memref<8x16xf32, strided<[?, 1], offset: ?>> to memref<?x?xf32, strided<[?, 1], offset: ?>>
      %subview_2 = memref.subview %alloc[0, 0] [%31, %32] [1, 1] : memref<8x16xf32> to memref<?x?xf32, strided<[16, 1]>>
      memref.copy %subview_1, %subview_2 : memref<?x?xf32, strided<[?, 1], offset: ?>> to memref<?x?xf32, strided<[16, 1]>>
      %36 = bufferization.to_tensor %alloc restrict writable : memref<8x16xf32>
      %37 = tensor.empty() : tensor<8xi32>
      %38 = linalg.fill ins(%c-1_i32 : i32) outs(%37 : tensor<8xi32>) -> tensor<8xi32>
      %reduced:2 = linalg.reduce ins(%36, %broadcasted : tensor<8x16xf32>, tensor<8x16xi32>) outs(%1, %38 : tensor<8xf32>, tensor<8xi32>) dimensions = [1]  {reduce_mode = "min_with_index"}
        (%in: f32, %in_3: i32, %init: f32, %init_4: i32) {
          %45 = arith.cmpf olt, %in, %init : f32
          %46 = arith.cmpf oeq, %in, %init : f32
          %47 = arith.cmpi slt, %in_3, %init_4 : i32
          %48 = arith.andi %46, %47 : i1
          %49 = arith.ori %45, %48 : i1
          %50 = arith.select %49, %in, %init : f32
          %51 = arith.select %49, %in_3, %init_4 : i32
          linalg.yield %50, %51 : f32, i32
        }
      %39 = arith.cmpf olt, %reduced#0, %arg12 : tensor<8xf32>
      %40 = arith.select %39, %reduced#0, %arg12 : tensor<8xi1>, tensor<8xf32>
      %41 = linalg.fill ins(%arg11 : i32) outs(%37 : tensor<8xi32>) -> tensor<8xi32>
      %42 = arith.addi %41, %reduced#1 : tensor<8xi32>
      %43 = arith.extsi %42 : tensor<8xi32> to tensor<8xi64>
      %44 = arith.select %39, %43, %arg13 : tensor<8xi1>, tensor<8xi64>
      scf.yield %40, %44 : tensor<8xf32>, tensor<8xi64>
    }
    %9 = arith.index_cast %4 : i32 to index
    %10 = arith.index_cast %arg9 : i32 to index
    %11 = arith.addi %9, %10 : index
    %reinterpret_cast = memref.reinterpret_cast %arg3 to offset: [%11], sizes: [8], strides: [1] : memref<?xi64> to memref<8xi64, strided<[1], offset: ?>>
    %12 = arith.addi %9, %c8 : index
    %13 = arith.maxsi %9, %c1 : index
    %14 = arith.minsi %12, %13 : index
    %15 = arith.subi %14, %9 : index
    %extracted_slice = tensor.extract_slice %8#1[0] [%15] [1] : tensor<8xi64> to tensor<?xi64>
    %subview = memref.subview %reinterpret_cast[0] [%15] [1] : memref<8xi64, strided<[1], offset: ?>> to memref<?xi64, strided<[1], offset: ?>>
    bufferization.materialize_in_destination %extracted_slice in writable %subview : (tensor<?xi64>, memref<?xi64, strided<[1], offset: ?>>) -> ()
    return
  }
}

