#loc = loc("/home/zhengyang/git/flagtree/python/test/ops/apply_rotary_pos_emb/apply_rotary_pos_emb_ascend.py":100:0)
module {
  tt.func public @rotary_embedding_siso_kernel(%arg0: !tt.ptr<f32> {tt.divisibility = 16 : i32} loc("/home/zhengyang/git/flagtree/python/test/ops/apply_rotary_pos_emb/apply_rotary_pos_emb_ascend.py":100:0), %arg1: !tt.ptr<f32> {tt.divisibility = 16 : i32} loc("/home/zhengyang/git/flagtree/python/test/ops/apply_rotary_pos_emb/apply_rotary_pos_emb_ascend.py":100:0), %arg2: !tt.ptr<f32> {tt.divisibility = 16 : i32} loc("/home/zhengyang/git/flagtree/python/test/ops/apply_rotary_pos_emb/apply_rotary_pos_emb_ascend.py":100:0), %arg3: !tt.ptr<f32> {tt.divisibility = 16 : i32} loc("/home/zhengyang/git/flagtree/python/test/ops/apply_rotary_pos_emb/apply_rotary_pos_emb_ascend.py":100:0), %arg4: i32 {tt.divisibility = 16 : i32} loc("/home/zhengyang/git/flagtree/python/test/ops/apply_rotary_pos_emb/apply_rotary_pos_emb_ascend.py":100:0), %arg5: i32 loc("/home/zhengyang/git/flagtree/python/test/ops/apply_rotary_pos_emb/apply_rotary_pos_emb_ascend.py":100:0), %arg6: i32 loc("/home/zhengyang/git/flagtree/python/test/ops/apply_rotary_pos_emb/apply_rotary_pos_emb_ascend.py":100:0), %arg7: i32 loc("/home/zhengyang/git/flagtree/python/test/ops/apply_rotary_pos_emb/apply_rotary_pos_emb_ascend.py":100:0), %arg8: i32 loc("/home/zhengyang/git/flagtree/python/test/ops/apply_rotary_pos_emb/apply_rotary_pos_emb_ascend.py":100:0)) attributes {noinline = false} {
    %cst = arith.constant dense<0.000000e+00> : tensor<8x4x1xf32> loc(#loc1)
    %cst_0 = arith.constant dense<0.000000e+00> : tensor<8x1x1xf32> loc(#loc1)
    %c0_i32 = arith.constant 0 : i32 loc(#loc1)
    %c2_i32 = arith.constant 2 : i32 loc(#loc1)
    %c1_i32 = arith.constant 1 : i32 loc(#loc1)
    %c4_i32 = arith.constant 4 : i32 loc(#loc1)
    %c8_i32 = arith.constant 8 : i32 loc(#loc1)
    %0 = tt.get_program_id x : i32 loc(#loc2)
    %1 = arith.muli %0, %c8_i32 : i32 loc(#loc3)
    %2 = tt.make_range {end = 8 : i32, start = 0 : i32} : tensor<8xi32> loc(#loc4)
    %3 = tt.splat %1 : i32 -> tensor<8xi32> loc(#loc5)
    %4 = arith.addi %3, %2 : tensor<8xi32> loc(#loc5)
    %5 = tt.get_program_id y : i32 loc(#loc6)
    %6 = arith.muli %5, %c4_i32 : i32 loc(#loc7)
    %7 = tt.make_range {end = 4 : i32, start = 0 : i32} : tensor<4xi32> loc(#loc8)
    %8 = tt.splat %6 : i32 -> tensor<4xi32> loc(#loc9)
    %9 = arith.addi %8, %7 : tensor<4xi32> loc(#loc9)
    %10 = tt.expand_dims %4 {axis = 1 : i32} : tensor<8xi32> -> tensor<8x1xi32> loc(#loc46)
    %11 = tt.expand_dims %10 {axis = 2 : i32} : tensor<8x1xi32> -> tensor<8x1x1xi32> loc(#loc46)
    %12 = tt.splat %arg4 : i32 -> tensor<8x1x1xi32> loc(#loc47)
    %13 = arith.muli %11, %12 : tensor<8x1x1xi32> loc(#loc47)
    %14 = tt.expand_dims %9 {axis = 0 : i32} : tensor<4xi32> -> tensor<1x4xi32> loc(#loc48)
    %15 = tt.expand_dims %14 {axis = 2 : i32} : tensor<1x4xi32> -> tensor<1x4x1xi32> loc(#loc48)
    %16 = tt.splat %arg5 : i32 -> tensor<1x4x1xi32> loc(#loc49)
    %17 = arith.muli %15, %16 : tensor<1x4x1xi32> loc(#loc49)
    %18 = tt.broadcast %13 : tensor<8x1x1xi32> -> tensor<8x4x1xi32> loc(#loc50)
    %19 = tt.broadcast %17 : tensor<1x4x1xi32> -> tensor<8x4x1xi32> loc(#loc50)
    %20 = arith.addi %18, %19 : tensor<8x4x1xi32> loc(#loc50)
    %21 = tt.splat %arg6 : i32 -> tensor<8x1x1xi32> loc(#loc51)
    %22 = arith.muli %11, %21 : tensor<8x1x1xi32> loc(#loc51)
    %23 = tt.splat %arg7 : i32 -> tensor<8x1x1xi32> loc(#loc52)
    %24 = arith.cmpi slt, %11, %23 : tensor<8x1x1xi32> loc(#loc52)
    %25 = tt.splat %arg8 : i32 -> tensor<1x4x1xi32> loc(#loc53)
    %26 = arith.cmpi slt, %15, %25 : tensor<1x4x1xi32> loc(#loc53)
    %27 = tt.broadcast %24 : tensor<8x1x1xi1> -> tensor<8x4x1xi1> loc(#loc54)
    %28 = tt.broadcast %26 : tensor<1x4x1xi1> -> tensor<8x4x1xi1> loc(#loc54)
    %29 = arith.andi %27, %28 : tensor<8x4x1xi1> loc(#loc54)
    %30 = tt.splat %arg1 : !tt.ptr<f32> -> tensor<8x4x1x!tt.ptr<f32>> loc(#loc55)
    %31 = tt.splat %arg2 : !tt.ptr<f32> -> tensor<8x1x1x!tt.ptr<f32>> loc(#loc56)
    %32 = tt.splat %arg3 : !tt.ptr<f32> -> tensor<8x1x1x!tt.ptr<f32>> loc(#loc57)
    %33 = tt.splat %arg0 : !tt.ptr<f32> -> tensor<8x4x1x!tt.ptr<f32>> loc(#loc58)
    scf.for %arg9 = %c0_i32 to %c4_i32 step %c1_i32  : i32 {
      %34 = arith.muli %arg9, %c2_i32 : i32 loc(#loc25)
      %35 = arith.addi %34, %c1_i32 : i32 loc(#loc26)
      %36 = tt.splat %34 : i32 -> tensor<8x4x1xi32> loc(#loc59)
      %37 = arith.addi %20, %36 : tensor<8x4x1xi32> loc(#loc59)
      %38 = tt.splat %35 : i32 -> tensor<8x4x1xi32> loc(#loc60)
      %39 = arith.addi %20, %38 : tensor<8x4x1xi32> loc(#loc60)
      %40 = tt.splat %34 : i32 -> tensor<8x1x1xi32> loc(#loc61)
      %41 = arith.addi %22, %40 : tensor<8x1x1xi32> loc(#loc61)
      %42 = tt.splat %35 : i32 -> tensor<8x1x1xi32> loc(#loc62)
      %43 = arith.addi %22, %42 : tensor<8x1x1xi32> loc(#loc62)
      %44 = tt.addptr %30, %37 : tensor<8x4x1x!tt.ptr<f32>>, tensor<8x4x1xi32> loc(#loc55)
      %45 = tt.load %44, %29, %cst : tensor<8x4x1x!tt.ptr<f32>> loc(#loc63)
      %46 = tt.addptr %30, %39 : tensor<8x4x1x!tt.ptr<f32>>, tensor<8x4x1xi32> loc(#loc64)
      %47 = tt.load %46, %29, %cst : tensor<8x4x1x!tt.ptr<f32>> loc(#loc65)
      %48 = tt.addptr %31, %41 : tensor<8x1x1x!tt.ptr<f32>>, tensor<8x1x1xi32> loc(#loc56)
      %49 = tt.load %48, %24, %cst_0 : tensor<8x1x1x!tt.ptr<f32>> loc(#loc66)
      %50 = tt.addptr %32, %43 : tensor<8x1x1x!tt.ptr<f32>>, tensor<8x1x1xi32> loc(#loc57)
      %51 = tt.load %50, %24, %cst_0 : tensor<8x1x1x!tt.ptr<f32>> loc(#loc67)
      %52 = tt.broadcast %49 : tensor<8x1x1xf32> -> tensor<8x4x1xf32> loc(#loc68)
      %53 = arith.mulf %45, %52 : tensor<8x4x1xf32> loc(#loc68)
      %54 = tt.broadcast %51 : tensor<8x1x1xf32> -> tensor<8x4x1xf32> loc(#loc69)
      %55 = arith.mulf %47, %54 : tensor<8x4x1xf32> loc(#loc69)
      %56 = arith.subf %53, %55 : tensor<8x4x1xf32> loc(#loc70)
      %57 = arith.mulf %45, %54 : tensor<8x4x1xf32> loc(#loc71)
      %58 = arith.mulf %47, %52 : tensor<8x4x1xf32> loc(#loc72)
      %59 = arith.addf %57, %58 : tensor<8x4x1xf32> loc(#loc73)
      %60 = tt.addptr %33, %37 : tensor<8x4x1x!tt.ptr<f32>>, tensor<8x4x1xi32> loc(#loc58)
      tt.store %60, %56, %29 : tensor<8x4x1x!tt.ptr<f32>> loc(#loc74)
      %61 = tt.addptr %33, %39 : tensor<8x4x1x!tt.ptr<f32>>, tensor<8x4x1xi32> loc(#loc75)
      tt.store %61, %59, %29 : tensor<8x4x1x!tt.ptr<f32>> loc(#loc76)
    } loc(#loc24)
    tt.return loc(#loc45)
  } loc(#loc)
} loc(#loc)
#loc1 = loc(unknown)
#loc2 = loc("/home/zhengyang/git/flagtree/python/test/ops/apply_rotary_pos_emb/apply_rotary_pos_emb_ascend.py":117:32)
#loc3 = loc("/home/zhengyang/git/flagtree/python/test/ops/apply_rotary_pos_emb/apply_rotary_pos_emb_ascend.py":118:32)
#loc4 = loc("/home/zhengyang/git/flagtree/python/test/ops/apply_rotary_pos_emb/apply_rotary_pos_emb_ascend.py":118:55)
#loc5 = loc("/home/zhengyang/git/flagtree/python/test/ops/apply_rotary_pos_emb/apply_rotary_pos_emb_ascend.py":118:42)
#loc6 = loc("/home/zhengyang/git/flagtree/python/test/ops/apply_rotary_pos_emb/apply_rotary_pos_emb_ascend.py":119:31)
#loc7 = loc("/home/zhengyang/git/flagtree/python/test/ops/apply_rotary_pos_emb/apply_rotary_pos_emb_ascend.py":120:30)
#loc8 = loc("/home/zhengyang/git/flagtree/python/test/ops/apply_rotary_pos_emb/apply_rotary_pos_emb_ascend.py":120:53)
#loc9 = loc("/home/zhengyang/git/flagtree/python/test/ops/apply_rotary_pos_emb/apply_rotary_pos_emb_ascend.py":120:40)
#loc10 = loc("/home/zhengyang/git/flagtree/python/test/ops/apply_rotary_pos_emb/apply_rotary_pos_emb_ascend.py":36:20)
#loc11 = loc("/home/zhengyang/git/flagtree/python/test/ops/apply_rotary_pos_emb/apply_rotary_pos_emb_ascend.py":143:16)
#loc12 = loc("/home/zhengyang/git/flagtree/python/test/ops/apply_rotary_pos_emb/apply_rotary_pos_emb_ascend.py":36:37)
#loc13 = loc("/home/zhengyang/git/flagtree/python/test/ops/apply_rotary_pos_emb/apply_rotary_pos_emb_ascend.py":37:21)
#loc14 = loc("/home/zhengyang/git/flagtree/python/test/ops/apply_rotary_pos_emb/apply_rotary_pos_emb_ascend.py":37:38)
#loc15 = loc("/home/zhengyang/git/flagtree/python/test/ops/apply_rotary_pos_emb/apply_rotary_pos_emb_ascend.py":37:10)
#loc16 = loc("/home/zhengyang/git/flagtree/python/test/ops/apply_rotary_pos_emb/apply_rotary_pos_emb_ascend.py":47:37)
#loc17 = loc("/home/zhengyang/git/flagtree/python/test/ops/apply_rotary_pos_emb/apply_rotary_pos_emb_ascend.py":60:43)
#loc18 = loc("/home/zhengyang/git/flagtree/python/test/ops/apply_rotary_pos_emb/apply_rotary_pos_emb_ascend.py":61:39)
#loc19 = loc("/home/zhengyang/git/flagtree/python/test/ops/apply_rotary_pos_emb/apply_rotary_pos_emb_ascend.py":61:11)
#loc20 = loc("/home/zhengyang/git/flagtree/python/test/ops/apply_rotary_pos_emb/apply_rotary_pos_emb_ascend.py":59:16)
#loc21 = loc("/home/zhengyang/git/flagtree/python/test/ops/apply_rotary_pos_emb/apply_rotary_pos_emb_ascend.py":72:14)
#loc22 = loc("/home/zhengyang/git/flagtree/python/test/ops/apply_rotary_pos_emb/apply_rotary_pos_emb_ascend.py":77:14)
#loc23 = loc("/home/zhengyang/git/flagtree/python/test/ops/apply_rotary_pos_emb/apply_rotary_pos_emb_ascend.py":86:20)
#loc24 = loc("/home/zhengyang/git/flagtree/python/test/ops/apply_rotary_pos_emb/apply_rotary_pos_emb_ascend.py":123:26)
#loc25 = loc("/home/zhengyang/git/flagtree/python/test/ops/apply_rotary_pos_emb/apply_rotary_pos_emb_ascend.py":124:30)
#loc26 = loc("/home/zhengyang/git/flagtree/python/test/ops/apply_rotary_pos_emb/apply_rotary_pos_emb_ascend.py":125:34)
#loc27 = loc("/home/zhengyang/git/flagtree/python/test/ops/apply_rotary_pos_emb/apply_rotary_pos_emb_ascend.py":38:10)
#loc28 = loc("/home/zhengyang/git/flagtree/python/test/ops/apply_rotary_pos_emb/apply_rotary_pos_emb_ascend.py":43:10)
#loc29 = loc("/home/zhengyang/git/flagtree/python/test/ops/apply_rotary_pos_emb/apply_rotary_pos_emb_ascend.py":48:10)
#loc30 = loc("/home/zhengyang/git/flagtree/python/test/ops/apply_rotary_pos_emb/apply_rotary_pos_emb_ascend.py":53:14)
#loc31 = loc("/home/zhengyang/git/flagtree/python/test/ops/apply_rotary_pos_emb/apply_rotary_pos_emb_ascend.py":59:8)
#loc32 = loc("/home/zhengyang/git/flagtree/python/test/ops/apply_rotary_pos_emb/apply_rotary_pos_emb_ascend.py":65:16)
#loc33 = loc("/home/zhengyang/git/flagtree/python/test/ops/apply_rotary_pos_emb/apply_rotary_pos_emb_ascend.py":65:8)
#loc34 = loc("/home/zhengyang/git/flagtree/python/test/ops/apply_rotary_pos_emb/apply_rotary_pos_emb_ascend.py":72:8)
#loc35 = loc("/home/zhengyang/git/flagtree/python/test/ops/apply_rotary_pos_emb/apply_rotary_pos_emb_ascend.py":77:8)
#loc36 = loc("/home/zhengyang/git/flagtree/python/test/ops/apply_rotary_pos_emb/apply_rotary_pos_emb_ascend.py":82:22)
#loc37 = loc("/home/zhengyang/git/flagtree/python/test/ops/apply_rotary_pos_emb/apply_rotary_pos_emb_ascend.py":82:45)
#loc38 = loc("/home/zhengyang/git/flagtree/python/test/ops/apply_rotary_pos_emb/apply_rotary_pos_emb_ascend.py":82:35)
#loc39 = loc("/home/zhengyang/git/flagtree/python/test/ops/apply_rotary_pos_emb/apply_rotary_pos_emb_ascend.py":83:22)
#loc40 = loc("/home/zhengyang/git/flagtree/python/test/ops/apply_rotary_pos_emb/apply_rotary_pos_emb_ascend.py":83:45)
#loc41 = loc("/home/zhengyang/git/flagtree/python/test/ops/apply_rotary_pos_emb/apply_rotary_pos_emb_ascend.py":83:35)
#loc42 = loc("/home/zhengyang/git/flagtree/python/test/ops/apply_rotary_pos_emb/apply_rotary_pos_emb_ascend.py":87:8)
#loc43 = loc("/home/zhengyang/git/flagtree/python/test/ops/apply_rotary_pos_emb/apply_rotary_pos_emb_ascend.py":92:20)
#loc44 = loc("/home/zhengyang/git/flagtree/python/test/ops/apply_rotary_pos_emb/apply_rotary_pos_emb_ascend.py":93:8)
#loc45 = loc("/home/zhengyang/git/flagtree/python/test/ops/apply_rotary_pos_emb/apply_rotary_pos_emb_ascend.py":122:4)
#loc46 = loc(callsite(#loc10 at #loc11))
#loc47 = loc(callsite(#loc12 at #loc11))
#loc48 = loc(callsite(#loc13 at #loc11))
#loc49 = loc(callsite(#loc14 at #loc11))
#loc50 = loc(callsite(#loc15 at #loc11))
#loc51 = loc(callsite(#loc16 at #loc11))
#loc52 = loc(callsite(#loc17 at #loc11))
#loc53 = loc(callsite(#loc18 at #loc11))
#loc54 = loc(callsite(#loc19 at #loc11))
#loc55 = loc(callsite(#loc20 at #loc11))
#loc56 = loc(callsite(#loc21 at #loc11))
#loc57 = loc(callsite(#loc22 at #loc11))
#loc58 = loc(callsite(#loc23 at #loc11))
#loc59 = loc(callsite(#loc27 at #loc11))
#loc60 = loc(callsite(#loc28 at #loc11))
#loc61 = loc(callsite(#loc29 at #loc11))
#loc62 = loc(callsite(#loc30 at #loc11))
#loc63 = loc(callsite(#loc31 at #loc11))
#loc64 = loc(callsite(#loc32 at #loc11))
#loc65 = loc(callsite(#loc33 at #loc11))
#loc66 = loc(callsite(#loc34 at #loc11))
#loc67 = loc(callsite(#loc35 at #loc11))
#loc68 = loc(callsite(#loc36 at #loc11))
#loc69 = loc(callsite(#loc37 at #loc11))
#loc70 = loc(callsite(#loc38 at #loc11))
#loc71 = loc(callsite(#loc39 at #loc11))
#loc72 = loc(callsite(#loc40 at #loc11))
#loc73 = loc(callsite(#loc41 at #loc11))
#loc74 = loc(callsite(#loc42 at #loc11))
#loc75 = loc(callsite(#loc43 at #loc11))
#loc76 = loc(callsite(#loc44 at #loc11))
