#loc = loc("/home/zhengyang/FlagTree/flagtree/python/test/ops/sort/sort_ascend.py":172:0)
#loc1 = loc(unknown)
#loc12 = loc("/home/zhengyang/FlagTree/flagtree/python/test/ops/sort/sort_ascend.py":167:76)
#loc13 = loc("/home/zhengyang/FlagTree/flagtree/python/test/ops/sort/sort_ascend.py":198:27)
#loc18 = loc("/home/zhengyang/FlagTree/flagtree/python/test/ops/sort/sort_ascend.py":157:71)
#loc23 = loc("/home/zhengyang/FlagTree/flagtree/python/test/ops/sort/sort_ascend.py":80:52)
#loc28 = loc("/home/zhengyang/FlagTree/flagtree/python/test/ops/sort/sort_ascend.py":81:47)
#loc34 = loc("/home/zhengyang/FlagTree/flagtree/python/test/ops/sort/sort_ascend.py":85:60)
#loc38 = loc("/home/zhengyang/FlagTree/flagtree/python/test/ops/sort/sort_ascend.py":88:55)
#loc67 = loc(callsite(#loc1 at #loc23))
#loc73 = loc(callsite(#loc1 at #loc28))
#loc80 = loc(callsite(#loc1 at #loc34))
#loc85 = loc(callsite(#loc1 at #loc38))
#loc111 = loc(callsite(#loc67 at #loc18))
#loc117 = loc(callsite(#loc73 at #loc18))
#loc125 = loc(callsite(#loc80 at #loc18))
#loc131 = loc(callsite(#loc85 at #loc18))
#loc154 = loc(callsite(#loc111 at #loc12))
#loc160 = loc(callsite(#loc117 at #loc12))
#loc168 = loc(callsite(#loc125 at #loc12))
#loc174 = loc(callsite(#loc131 at #loc12))
#loc193 = loc(callsite(#loc154 at #loc13))
#loc196 = loc(callsite(#loc160 at #loc13))
#loc199 = loc(callsite(#loc168 at #loc13))
#loc202 = loc(callsite(#loc174 at #loc13))
module {
  tt.func public @sort_kernel(%arg0: !tt.ptr<f32> {tt.divisibility = 16 : i32} loc("/home/zhengyang/FlagTree/flagtree/python/test/ops/sort/sort_ascend.py":172:0), %arg1: !tt.ptr<f32> {tt.divisibility = 16 : i32} loc("/home/zhengyang/FlagTree/flagtree/python/test/ops/sort/sort_ascend.py":172:0), %arg2: !tt.ptr<i64> {tt.divisibility = 16 : i32} loc("/home/zhengyang/FlagTree/flagtree/python/test/ops/sort/sort_ascend.py":172:0)) attributes {noinline = false} {
    %cst = arith.constant dense<3.40282347E+38> : tensor<32xf32> loc(#loc1)
    %cst_0 = arith.constant dense<0> : tensor<32xi32> loc(#loc1)
    %cst_1 = arith.constant dense<1> : tensor<1x2x1xi32> loc(#loc1)
    %cst_2 = arith.constant dense<32> : tensor<32xi32> loc(#loc1)
    %c32_i32 = arith.constant 32 : i32 loc(#loc1)
    %0 = tt.make_range {end = 32 : i32, start = 0 : i32} : tensor<32xi32> loc(#loc2)
    %1 = arith.cmpi slt, %0, %cst_2 : tensor<32xi32> loc(#loc3)
    %2 = tt.get_program_id x : i32 loc(#loc4)
    %3 = arith.muli %2, %c32_i32 : i32 loc(#loc5)
    %4 = tt.splat %3 : i32 -> tensor<32xi32> loc(#loc6)
    %5 = arith.addi %4, %0 : tensor<32xi32> loc(#loc6)
    %6 = tt.splat %arg0 : !tt.ptr<f32> -> tensor<32x!tt.ptr<f32>> loc(#loc7)
    %7 = tt.addptr %6, %5 : tensor<32x!tt.ptr<f32>>, tensor<32xi32> loc(#loc7)
    %8 = tt.splat %arg1 : !tt.ptr<f32> -> tensor<32x!tt.ptr<f32>> loc(#loc8)
    %9 = tt.addptr %8, %5 : tensor<32x!tt.ptr<f32>>, tensor<32xi32> loc(#loc8)
    %10 = tt.splat %arg2 : !tt.ptr<i64> -> tensor<32x!tt.ptr<i64>> loc(#loc9)
    %11 = tt.addptr %10, %5 : tensor<32x!tt.ptr<i64>>, tensor<32xi32> loc(#loc9)
    %12 = tt.load %7, %1, %cst : tensor<32x!tt.ptr<f32>> loc(#loc10)
    %13 = tt.make_range {end = 2 : i32, start = 0 : i32} : tensor<2xi32> loc(#loc102)
    %14 = tt.expand_dims %13 {axis = 0 : i32} : tensor<2xi32> -> tensor<1x2xi32> loc(#loc103)
    %15 = tt.expand_dims %14 {axis = 2 : i32} : tensor<1x2xi32> -> tensor<1x2x1xi32> loc(#loc103)
    %16 = tt.broadcast %15 : tensor<1x2x1xi32> -> tensor<8x2x2xi32> loc(#loc104)
    %17 = tt.reshape %16 : tensor<8x2x2xi32> -> tensor<32xi32> loc(#loc105)
    %18 = tt.reshape %12 : tensor<32xf32> -> tensor<16x2x1xf32> loc(#loc149)
    %19 = tt.reshape %0 : tensor<32xi32> -> tensor<16x2x1xi32> loc(#loc150)
    %20 = arith.subi %cst_1, %15 : tensor<1x2x1xi32> loc(#loc151)
    %21 = arith.sitofp %20 : tensor<1x2x1xi32> to tensor<1x2x1xf32> loc(#loc152)
    %22 = tt.broadcast %21 : tensor<1x2x1xf32> -> tensor<16x2x1xf32> loc(#loc152)
    %23 = arith.mulf %18, %22 : tensor<16x2x1xf32> loc(#loc152)
    %24 = "tt.reduce"(%23) <{axis = 1 : i32}> ({
    ^bb0(%arg3: f32 loc(callsite(#loc154 at #loc13)), %arg4: f32 loc(callsite(#loc154 at #loc13))):
      %569 = arith.addf %arg3, %arg4 : f32 loc(#loc204)
      tt.reduce.return %569 : f32 loc(#loc192)
    }) : (tensor<16x2x1xf32>) -> tensor<16x1xf32> loc(#loc192)
    %25 = tt.expand_dims %24 {axis = 1 : i32} : tensor<16x1xf32> -> tensor<16x1x1xf32> loc(#loc156)
    %26 = tt.broadcast %25 : tensor<16x1x1xf32> -> tensor<16x2x1xf32> loc(#loc157)
    %27 = arith.sitofp %15 : tensor<1x2x1xi32> to tensor<1x2x1xf32> loc(#loc158)
    %28 = tt.broadcast %27 : tensor<1x2x1xf32> -> tensor<16x2x1xf32> loc(#loc158)
    %29 = arith.mulf %18, %28 : tensor<16x2x1xf32> loc(#loc158)
    %30 = "tt.reduce"(%29) <{axis = 1 : i32}> ({
    ^bb0(%arg3: f32 loc(callsite(#loc160 at #loc13)), %arg4: f32 loc(callsite(#loc160 at #loc13))):
      %569 = arith.addf %arg3, %arg4 : f32 loc(#loc205)
      tt.reduce.return %569 : f32 loc(#loc195)
    }) : (tensor<16x2x1xf32>) -> tensor<16x1xf32> loc(#loc195)
    %31 = tt.expand_dims %30 {axis = 1 : i32} : tensor<16x1xf32> -> tensor<16x1x1xf32> loc(#loc162)
    %32 = tt.broadcast %31 : tensor<16x1x1xf32> -> tensor<16x2x1xf32> loc(#loc163)
    %33 = tt.reshape %26 : tensor<16x2x1xf32> -> tensor<32xf32> loc(#loc164)
    %34 = tt.reshape %32 : tensor<16x2x1xf32> -> tensor<32xf32> loc(#loc165)
    %35 = tt.broadcast %20 : tensor<1x2x1xi32> -> tensor<16x2x1xi32> loc(#loc166)
    %36 = arith.muli %19, %35 : tensor<16x2x1xi32> loc(#loc166)
    %37 = "tt.reduce"(%36) <{axis = 1 : i32}> ({
    ^bb0(%arg3: i32 loc(callsite(#loc168 at #loc13)), %arg4: i32 loc(callsite(#loc168 at #loc13))):
      %569 = arith.addi %arg3, %arg4 : i32 loc(#loc206)
      tt.reduce.return %569 : i32 loc(#loc198)
    }) : (tensor<16x2x1xi32>) -> tensor<16x1xi32> loc(#loc198)
    %38 = tt.expand_dims %37 {axis = 1 : i32} : tensor<16x1xi32> -> tensor<16x1x1xi32> loc(#loc170)
    %39 = tt.broadcast %38 : tensor<16x1x1xi32> -> tensor<16x2x1xi32> loc(#loc171)
    %40 = tt.broadcast %15 : tensor<1x2x1xi32> -> tensor<16x2x1xi32> loc(#loc172)
    %41 = arith.muli %19, %40 : tensor<16x2x1xi32> loc(#loc172)
    %42 = "tt.reduce"(%41) <{axis = 1 : i32}> ({
    ^bb0(%arg3: i32 loc(callsite(#loc174 at #loc13)), %arg4: i32 loc(callsite(#loc174 at #loc13))):
      %569 = arith.addi %arg3, %arg4 : i32 loc(#loc207)
      tt.reduce.return %569 : i32 loc(#loc201)
    }) : (tensor<16x2x1xi32>) -> tensor<16x1xi32> loc(#loc201)
    %43 = tt.expand_dims %42 {axis = 1 : i32} : tensor<16x1xi32> -> tensor<16x1x1xi32> loc(#loc176)
    %44 = tt.broadcast %43 : tensor<16x1x1xi32> -> tensor<16x2x1xi32> loc(#loc177)
    %45 = tt.reshape %39 : tensor<16x2x1xi32> -> tensor<32xi32> loc(#loc178)
    %46 = tt.reshape %44 : tensor<16x2x1xi32> -> tensor<32xi32> loc(#loc179)
    %47 = tt.bitcast %33 : tensor<32xf32> -> tensor<32xi32> loc(#loc180)
    %48 = tt.bitcast %34 : tensor<32xf32> -> tensor<32xi32> loc(#loc181)
    %49 = tt.bitcast %12 : tensor<32xf32> -> tensor<32xi32> loc(#loc182)
    %50 = arith.cmpf ogt, %33, %34 : tensor<32xf32> loc(#loc183)
    %51 = arith.extui %50 : tensor<32xi1> to tensor<32xi32> loc(#loc184)
    %52 = arith.xori %51, %17 : tensor<32xi32> loc(#loc184)
    %53 = arith.xori %47, %48 : tensor<32xi32> loc(#loc185)
    %54 = arith.cmpi ne, %52, %cst_0 : tensor<32xi32> loc(#loc186)
    %55 = arith.select %54, %53, %cst_0 : tensor<32xi1>, tensor<32xi32> loc(#loc186)
    %56 = arith.xori %49, %55 : tensor<32xi32> loc(#loc187)
    %57 = arith.xori %45, %46 : tensor<32xi32> loc(#loc188)
    %58 = arith.select %54, %57, %cst_0 : tensor<32xi1>, tensor<32xi32> loc(#loc189)
    %59 = arith.xori %0, %58 : tensor<32xi32> loc(#loc190)
    %60 = tt.bitcast %56 : tensor<32xi32> -> tensor<32xf32> loc(#loc191)
    %61 = tt.broadcast %15 : tensor<1x2x1xi32> -> tensor<4x2x4xi32> loc(#loc104)
    %62 = tt.reshape %61 : tensor<4x2x4xi32> -> tensor<32xi32> loc(#loc105)
    %63 = tt.reshape %60 : tensor<32xf32> -> tensor<8x2x2xf32> loc(#loc149)
    %64 = tt.reshape %59 : tensor<32xi32> -> tensor<8x2x2xi32> loc(#loc150)
    %65 = tt.broadcast %21 : tensor<1x2x1xf32> -> tensor<8x2x2xf32> loc(#loc152)
    %66 = arith.mulf %63, %65 : tensor<8x2x2xf32> loc(#loc152)
    %67 = "tt.reduce"(%66) <{axis = 1 : i32}> ({
    ^bb0(%arg3: f32 loc(callsite(#loc154 at #loc13)), %arg4: f32 loc(callsite(#loc154 at #loc13))):
      %569 = arith.addf %arg3, %arg4 : f32 loc(#loc204)
      tt.reduce.return %569 : f32 loc(#loc192)
    }) : (tensor<8x2x2xf32>) -> tensor<8x2xf32> loc(#loc192)
    %68 = tt.expand_dims %67 {axis = 1 : i32} : tensor<8x2xf32> -> tensor<8x1x2xf32> loc(#loc156)
    %69 = tt.broadcast %68 : tensor<8x1x2xf32> -> tensor<8x2x2xf32> loc(#loc157)
    %70 = tt.broadcast %27 : tensor<1x2x1xf32> -> tensor<8x2x2xf32> loc(#loc158)
    %71 = arith.mulf %63, %70 : tensor<8x2x2xf32> loc(#loc158)
    %72 = "tt.reduce"(%71) <{axis = 1 : i32}> ({
    ^bb0(%arg3: f32 loc(callsite(#loc160 at #loc13)), %arg4: f32 loc(callsite(#loc160 at #loc13))):
      %569 = arith.addf %arg3, %arg4 : f32 loc(#loc205)
      tt.reduce.return %569 : f32 loc(#loc195)
    }) : (tensor<8x2x2xf32>) -> tensor<8x2xf32> loc(#loc195)
    %73 = tt.expand_dims %72 {axis = 1 : i32} : tensor<8x2xf32> -> tensor<8x1x2xf32> loc(#loc162)
    %74 = tt.broadcast %73 : tensor<8x1x2xf32> -> tensor<8x2x2xf32> loc(#loc163)
    %75 = tt.reshape %69 : tensor<8x2x2xf32> -> tensor<32xf32> loc(#loc164)
    %76 = tt.reshape %74 : tensor<8x2x2xf32> -> tensor<32xf32> loc(#loc165)
    %77 = tt.broadcast %20 : tensor<1x2x1xi32> -> tensor<8x2x2xi32> loc(#loc166)
    %78 = arith.muli %64, %77 : tensor<8x2x2xi32> loc(#loc166)
    %79 = "tt.reduce"(%78) <{axis = 1 : i32}> ({
    ^bb0(%arg3: i32 loc(callsite(#loc168 at #loc13)), %arg4: i32 loc(callsite(#loc168 at #loc13))):
      %569 = arith.addi %arg3, %arg4 : i32 loc(#loc206)
      tt.reduce.return %569 : i32 loc(#loc198)
    }) : (tensor<8x2x2xi32>) -> tensor<8x2xi32> loc(#loc198)
    %80 = tt.expand_dims %79 {axis = 1 : i32} : tensor<8x2xi32> -> tensor<8x1x2xi32> loc(#loc170)
    %81 = tt.broadcast %80 : tensor<8x1x2xi32> -> tensor<8x2x2xi32> loc(#loc171)
    %82 = arith.muli %64, %16 : tensor<8x2x2xi32> loc(#loc172)
    %83 = "tt.reduce"(%82) <{axis = 1 : i32}> ({
    ^bb0(%arg3: i32 loc(callsite(#loc174 at #loc13)), %arg4: i32 loc(callsite(#loc174 at #loc13))):
      %569 = arith.addi %arg3, %arg4 : i32 loc(#loc207)
      tt.reduce.return %569 : i32 loc(#loc201)
    }) : (tensor<8x2x2xi32>) -> tensor<8x2xi32> loc(#loc201)
    %84 = tt.expand_dims %83 {axis = 1 : i32} : tensor<8x2xi32> -> tensor<8x1x2xi32> loc(#loc176)
    %85 = tt.broadcast %84 : tensor<8x1x2xi32> -> tensor<8x2x2xi32> loc(#loc177)
    %86 = tt.reshape %81 : tensor<8x2x2xi32> -> tensor<32xi32> loc(#loc178)
    %87 = tt.reshape %85 : tensor<8x2x2xi32> -> tensor<32xi32> loc(#loc179)
    %88 = tt.bitcast %75 : tensor<32xf32> -> tensor<32xi32> loc(#loc180)
    %89 = tt.bitcast %76 : tensor<32xf32> -> tensor<32xi32> loc(#loc181)
    %90 = tt.bitcast %60 : tensor<32xf32> -> tensor<32xi32> loc(#loc182)
    %91 = arith.cmpf ogt, %75, %76 : tensor<32xf32> loc(#loc183)
    %92 = arith.extui %91 : tensor<32xi1> to tensor<32xi32> loc(#loc184)
    %93 = arith.xori %92, %62 : tensor<32xi32> loc(#loc184)
    %94 = arith.xori %88, %89 : tensor<32xi32> loc(#loc185)
    %95 = arith.cmpi ne, %93, %cst_0 : tensor<32xi32> loc(#loc186)
    %96 = arith.select %95, %94, %cst_0 : tensor<32xi1>, tensor<32xi32> loc(#loc186)
    %97 = arith.xori %90, %96 : tensor<32xi32> loc(#loc187)
    %98 = arith.xori %86, %87 : tensor<32xi32> loc(#loc188)
    %99 = arith.select %95, %98, %cst_0 : tensor<32xi1>, tensor<32xi32> loc(#loc189)
    %100 = arith.xori %59, %99 : tensor<32xi32> loc(#loc190)
    %101 = tt.bitcast %97 : tensor<32xi32> -> tensor<32xf32> loc(#loc191)
    %102 = tt.reshape %101 : tensor<32xf32> -> tensor<16x2x1xf32> loc(#loc149)
    %103 = tt.reshape %100 : tensor<32xi32> -> tensor<16x2x1xi32> loc(#loc150)
    %104 = arith.mulf %102, %22 : tensor<16x2x1xf32> loc(#loc152)
    %105 = "tt.reduce"(%104) <{axis = 1 : i32}> ({
    ^bb0(%arg3: f32 loc(callsite(#loc154 at #loc13)), %arg4: f32 loc(callsite(#loc154 at #loc13))):
      %569 = arith.addf %arg3, %arg4 : f32 loc(#loc204)
      tt.reduce.return %569 : f32 loc(#loc192)
    }) : (tensor<16x2x1xf32>) -> tensor<16x1xf32> loc(#loc192)
    %106 = tt.expand_dims %105 {axis = 1 : i32} : tensor<16x1xf32> -> tensor<16x1x1xf32> loc(#loc156)
    %107 = tt.broadcast %106 : tensor<16x1x1xf32> -> tensor<16x2x1xf32> loc(#loc157)
    %108 = arith.mulf %102, %28 : tensor<16x2x1xf32> loc(#loc158)
    %109 = "tt.reduce"(%108) <{axis = 1 : i32}> ({
    ^bb0(%arg3: f32 loc(callsite(#loc160 at #loc13)), %arg4: f32 loc(callsite(#loc160 at #loc13))):
      %569 = arith.addf %arg3, %arg4 : f32 loc(#loc205)
      tt.reduce.return %569 : f32 loc(#loc195)
    }) : (tensor<16x2x1xf32>) -> tensor<16x1xf32> loc(#loc195)
    %110 = tt.expand_dims %109 {axis = 1 : i32} : tensor<16x1xf32> -> tensor<16x1x1xf32> loc(#loc162)
    %111 = tt.broadcast %110 : tensor<16x1x1xf32> -> tensor<16x2x1xf32> loc(#loc163)
    %112 = tt.reshape %107 : tensor<16x2x1xf32> -> tensor<32xf32> loc(#loc164)
    %113 = tt.reshape %111 : tensor<16x2x1xf32> -> tensor<32xf32> loc(#loc165)
    %114 = arith.muli %103, %35 : tensor<16x2x1xi32> loc(#loc166)
    %115 = "tt.reduce"(%114) <{axis = 1 : i32}> ({
    ^bb0(%arg3: i32 loc(callsite(#loc168 at #loc13)), %arg4: i32 loc(callsite(#loc168 at #loc13))):
      %569 = arith.addi %arg3, %arg4 : i32 loc(#loc206)
      tt.reduce.return %569 : i32 loc(#loc198)
    }) : (tensor<16x2x1xi32>) -> tensor<16x1xi32> loc(#loc198)
    %116 = tt.expand_dims %115 {axis = 1 : i32} : tensor<16x1xi32> -> tensor<16x1x1xi32> loc(#loc170)
    %117 = tt.broadcast %116 : tensor<16x1x1xi32> -> tensor<16x2x1xi32> loc(#loc171)
    %118 = arith.muli %103, %40 : tensor<16x2x1xi32> loc(#loc172)
    %119 = "tt.reduce"(%118) <{axis = 1 : i32}> ({
    ^bb0(%arg3: i32 loc(callsite(#loc174 at #loc13)), %arg4: i32 loc(callsite(#loc174 at #loc13))):
      %569 = arith.addi %arg3, %arg4 : i32 loc(#loc207)
      tt.reduce.return %569 : i32 loc(#loc201)
    }) : (tensor<16x2x1xi32>) -> tensor<16x1xi32> loc(#loc201)
    %120 = tt.expand_dims %119 {axis = 1 : i32} : tensor<16x1xi32> -> tensor<16x1x1xi32> loc(#loc176)
    %121 = tt.broadcast %120 : tensor<16x1x1xi32> -> tensor<16x2x1xi32> loc(#loc177)
    %122 = tt.reshape %117 : tensor<16x2x1xi32> -> tensor<32xi32> loc(#loc178)
    %123 = tt.reshape %121 : tensor<16x2x1xi32> -> tensor<32xi32> loc(#loc179)
    %124 = tt.bitcast %112 : tensor<32xf32> -> tensor<32xi32> loc(#loc180)
    %125 = tt.bitcast %113 : tensor<32xf32> -> tensor<32xi32> loc(#loc181)
    %126 = tt.bitcast %101 : tensor<32xf32> -> tensor<32xi32> loc(#loc182)
    %127 = arith.cmpf ogt, %112, %113 : tensor<32xf32> loc(#loc183)
    %128 = arith.extui %127 : tensor<32xi1> to tensor<32xi32> loc(#loc184)
    %129 = arith.xori %128, %62 : tensor<32xi32> loc(#loc184)
    %130 = arith.xori %124, %125 : tensor<32xi32> loc(#loc185)
    %131 = arith.cmpi ne, %129, %cst_0 : tensor<32xi32> loc(#loc186)
    %132 = arith.select %131, %130, %cst_0 : tensor<32xi1>, tensor<32xi32> loc(#loc186)
    %133 = arith.xori %126, %132 : tensor<32xi32> loc(#loc187)
    %134 = arith.xori %122, %123 : tensor<32xi32> loc(#loc188)
    %135 = arith.select %131, %134, %cst_0 : tensor<32xi1>, tensor<32xi32> loc(#loc189)
    %136 = arith.xori %100, %135 : tensor<32xi32> loc(#loc190)
    %137 = tt.bitcast %133 : tensor<32xi32> -> tensor<32xf32> loc(#loc191)
    %138 = tt.broadcast %15 : tensor<1x2x1xi32> -> tensor<2x2x8xi32> loc(#loc104)
    %139 = tt.reshape %138 : tensor<2x2x8xi32> -> tensor<32xi32> loc(#loc105)
    %140 = tt.reshape %137 : tensor<32xf32> -> tensor<4x2x4xf32> loc(#loc149)
    %141 = tt.reshape %136 : tensor<32xi32> -> tensor<4x2x4xi32> loc(#loc150)
    %142 = tt.broadcast %21 : tensor<1x2x1xf32> -> tensor<4x2x4xf32> loc(#loc152)
    %143 = arith.mulf %140, %142 : tensor<4x2x4xf32> loc(#loc152)
    %144 = "tt.reduce"(%143) <{axis = 1 : i32}> ({
    ^bb0(%arg3: f32 loc(callsite(#loc154 at #loc13)), %arg4: f32 loc(callsite(#loc154 at #loc13))):
      %569 = arith.addf %arg3, %arg4 : f32 loc(#loc204)
      tt.reduce.return %569 : f32 loc(#loc192)
    }) : (tensor<4x2x4xf32>) -> tensor<4x4xf32> loc(#loc192)
    %145 = tt.expand_dims %144 {axis = 1 : i32} : tensor<4x4xf32> -> tensor<4x1x4xf32> loc(#loc156)
    %146 = tt.broadcast %145 : tensor<4x1x4xf32> -> tensor<4x2x4xf32> loc(#loc157)
    %147 = tt.broadcast %27 : tensor<1x2x1xf32> -> tensor<4x2x4xf32> loc(#loc158)
    %148 = arith.mulf %140, %147 : tensor<4x2x4xf32> loc(#loc158)
    %149 = "tt.reduce"(%148) <{axis = 1 : i32}> ({
    ^bb0(%arg3: f32 loc(callsite(#loc160 at #loc13)), %arg4: f32 loc(callsite(#loc160 at #loc13))):
      %569 = arith.addf %arg3, %arg4 : f32 loc(#loc205)
      tt.reduce.return %569 : f32 loc(#loc195)
    }) : (tensor<4x2x4xf32>) -> tensor<4x4xf32> loc(#loc195)
    %150 = tt.expand_dims %149 {axis = 1 : i32} : tensor<4x4xf32> -> tensor<4x1x4xf32> loc(#loc162)
    %151 = tt.broadcast %150 : tensor<4x1x4xf32> -> tensor<4x2x4xf32> loc(#loc163)
    %152 = tt.reshape %146 : tensor<4x2x4xf32> -> tensor<32xf32> loc(#loc164)
    %153 = tt.reshape %151 : tensor<4x2x4xf32> -> tensor<32xf32> loc(#loc165)
    %154 = tt.broadcast %20 : tensor<1x2x1xi32> -> tensor<4x2x4xi32> loc(#loc166)
    %155 = arith.muli %141, %154 : tensor<4x2x4xi32> loc(#loc166)
    %156 = "tt.reduce"(%155) <{axis = 1 : i32}> ({
    ^bb0(%arg3: i32 loc(callsite(#loc168 at #loc13)), %arg4: i32 loc(callsite(#loc168 at #loc13))):
      %569 = arith.addi %arg3, %arg4 : i32 loc(#loc206)
      tt.reduce.return %569 : i32 loc(#loc198)
    }) : (tensor<4x2x4xi32>) -> tensor<4x4xi32> loc(#loc198)
    %157 = tt.expand_dims %156 {axis = 1 : i32} : tensor<4x4xi32> -> tensor<4x1x4xi32> loc(#loc170)
    %158 = tt.broadcast %157 : tensor<4x1x4xi32> -> tensor<4x2x4xi32> loc(#loc171)
    %159 = arith.muli %141, %61 : tensor<4x2x4xi32> loc(#loc172)
    %160 = "tt.reduce"(%159) <{axis = 1 : i32}> ({
    ^bb0(%arg3: i32 loc(callsite(#loc174 at #loc13)), %arg4: i32 loc(callsite(#loc174 at #loc13))):
      %569 = arith.addi %arg3, %arg4 : i32 loc(#loc207)
      tt.reduce.return %569 : i32 loc(#loc201)
    }) : (tensor<4x2x4xi32>) -> tensor<4x4xi32> loc(#loc201)
    %161 = tt.expand_dims %160 {axis = 1 : i32} : tensor<4x4xi32> -> tensor<4x1x4xi32> loc(#loc176)
    %162 = tt.broadcast %161 : tensor<4x1x4xi32> -> tensor<4x2x4xi32> loc(#loc177)
    %163 = tt.reshape %158 : tensor<4x2x4xi32> -> tensor<32xi32> loc(#loc178)
    %164 = tt.reshape %162 : tensor<4x2x4xi32> -> tensor<32xi32> loc(#loc179)
    %165 = tt.bitcast %152 : tensor<32xf32> -> tensor<32xi32> loc(#loc180)
    %166 = tt.bitcast %153 : tensor<32xf32> -> tensor<32xi32> loc(#loc181)
    %167 = tt.bitcast %137 : tensor<32xf32> -> tensor<32xi32> loc(#loc182)
    %168 = arith.cmpf ogt, %152, %153 : tensor<32xf32> loc(#loc183)
    %169 = arith.extui %168 : tensor<32xi1> to tensor<32xi32> loc(#loc184)
    %170 = arith.xori %169, %139 : tensor<32xi32> loc(#loc184)
    %171 = arith.xori %165, %166 : tensor<32xi32> loc(#loc185)
    %172 = arith.cmpi ne, %170, %cst_0 : tensor<32xi32> loc(#loc186)
    %173 = arith.select %172, %171, %cst_0 : tensor<32xi1>, tensor<32xi32> loc(#loc186)
    %174 = arith.xori %167, %173 : tensor<32xi32> loc(#loc187)
    %175 = arith.xori %163, %164 : tensor<32xi32> loc(#loc188)
    %176 = arith.select %172, %175, %cst_0 : tensor<32xi1>, tensor<32xi32> loc(#loc189)
    %177 = arith.xori %136, %176 : tensor<32xi32> loc(#loc190)
    %178 = tt.bitcast %174 : tensor<32xi32> -> tensor<32xf32> loc(#loc191)
    %179 = tt.reshape %178 : tensor<32xf32> -> tensor<8x2x2xf32> loc(#loc149)
    %180 = tt.reshape %177 : tensor<32xi32> -> tensor<8x2x2xi32> loc(#loc150)
    %181 = arith.mulf %179, %65 : tensor<8x2x2xf32> loc(#loc152)
    %182 = "tt.reduce"(%181) <{axis = 1 : i32}> ({
    ^bb0(%arg3: f32 loc(callsite(#loc154 at #loc13)), %arg4: f32 loc(callsite(#loc154 at #loc13))):
      %569 = arith.addf %arg3, %arg4 : f32 loc(#loc204)
      tt.reduce.return %569 : f32 loc(#loc192)
    }) : (tensor<8x2x2xf32>) -> tensor<8x2xf32> loc(#loc192)
    %183 = tt.expand_dims %182 {axis = 1 : i32} : tensor<8x2xf32> -> tensor<8x1x2xf32> loc(#loc156)
    %184 = tt.broadcast %183 : tensor<8x1x2xf32> -> tensor<8x2x2xf32> loc(#loc157)
    %185 = arith.mulf %179, %70 : tensor<8x2x2xf32> loc(#loc158)
    %186 = "tt.reduce"(%185) <{axis = 1 : i32}> ({
    ^bb0(%arg3: f32 loc(callsite(#loc160 at #loc13)), %arg4: f32 loc(callsite(#loc160 at #loc13))):
      %569 = arith.addf %arg3, %arg4 : f32 loc(#loc205)
      tt.reduce.return %569 : f32 loc(#loc195)
    }) : (tensor<8x2x2xf32>) -> tensor<8x2xf32> loc(#loc195)
    %187 = tt.expand_dims %186 {axis = 1 : i32} : tensor<8x2xf32> -> tensor<8x1x2xf32> loc(#loc162)
    %188 = tt.broadcast %187 : tensor<8x1x2xf32> -> tensor<8x2x2xf32> loc(#loc163)
    %189 = tt.reshape %184 : tensor<8x2x2xf32> -> tensor<32xf32> loc(#loc164)
    %190 = tt.reshape %188 : tensor<8x2x2xf32> -> tensor<32xf32> loc(#loc165)
    %191 = arith.muli %180, %77 : tensor<8x2x2xi32> loc(#loc166)
    %192 = "tt.reduce"(%191) <{axis = 1 : i32}> ({
    ^bb0(%arg3: i32 loc(callsite(#loc168 at #loc13)), %arg4: i32 loc(callsite(#loc168 at #loc13))):
      %569 = arith.addi %arg3, %arg4 : i32 loc(#loc206)
      tt.reduce.return %569 : i32 loc(#loc198)
    }) : (tensor<8x2x2xi32>) -> tensor<8x2xi32> loc(#loc198)
    %193 = tt.expand_dims %192 {axis = 1 : i32} : tensor<8x2xi32> -> tensor<8x1x2xi32> loc(#loc170)
    %194 = tt.broadcast %193 : tensor<8x1x2xi32> -> tensor<8x2x2xi32> loc(#loc171)
    %195 = arith.muli %180, %16 : tensor<8x2x2xi32> loc(#loc172)
    %196 = "tt.reduce"(%195) <{axis = 1 : i32}> ({
    ^bb0(%arg3: i32 loc(callsite(#loc174 at #loc13)), %arg4: i32 loc(callsite(#loc174 at #loc13))):
      %569 = arith.addi %arg3, %arg4 : i32 loc(#loc207)
      tt.reduce.return %569 : i32 loc(#loc201)
    }) : (tensor<8x2x2xi32>) -> tensor<8x2xi32> loc(#loc201)
    %197 = tt.expand_dims %196 {axis = 1 : i32} : tensor<8x2xi32> -> tensor<8x1x2xi32> loc(#loc176)
    %198 = tt.broadcast %197 : tensor<8x1x2xi32> -> tensor<8x2x2xi32> loc(#loc177)
    %199 = tt.reshape %194 : tensor<8x2x2xi32> -> tensor<32xi32> loc(#loc178)
    %200 = tt.reshape %198 : tensor<8x2x2xi32> -> tensor<32xi32> loc(#loc179)
    %201 = tt.bitcast %189 : tensor<32xf32> -> tensor<32xi32> loc(#loc180)
    %202 = tt.bitcast %190 : tensor<32xf32> -> tensor<32xi32> loc(#loc181)
    %203 = tt.bitcast %178 : tensor<32xf32> -> tensor<32xi32> loc(#loc182)
    %204 = arith.cmpf ogt, %189, %190 : tensor<32xf32> loc(#loc183)
    %205 = arith.extui %204 : tensor<32xi1> to tensor<32xi32> loc(#loc184)
    %206 = arith.xori %205, %139 : tensor<32xi32> loc(#loc184)
    %207 = arith.xori %201, %202 : tensor<32xi32> loc(#loc185)
    %208 = arith.cmpi ne, %206, %cst_0 : tensor<32xi32> loc(#loc186)
    %209 = arith.select %208, %207, %cst_0 : tensor<32xi1>, tensor<32xi32> loc(#loc186)
    %210 = arith.xori %203, %209 : tensor<32xi32> loc(#loc187)
    %211 = arith.xori %199, %200 : tensor<32xi32> loc(#loc188)
    %212 = arith.select %208, %211, %cst_0 : tensor<32xi1>, tensor<32xi32> loc(#loc189)
    %213 = arith.xori %177, %212 : tensor<32xi32> loc(#loc190)
    %214 = tt.bitcast %210 : tensor<32xi32> -> tensor<32xf32> loc(#loc191)
    %215 = tt.reshape %214 : tensor<32xf32> -> tensor<16x2x1xf32> loc(#loc149)
    %216 = tt.reshape %213 : tensor<32xi32> -> tensor<16x2x1xi32> loc(#loc150)
    %217 = arith.mulf %215, %22 : tensor<16x2x1xf32> loc(#loc152)
    %218 = "tt.reduce"(%217) <{axis = 1 : i32}> ({
    ^bb0(%arg3: f32 loc(callsite(#loc154 at #loc13)), %arg4: f32 loc(callsite(#loc154 at #loc13))):
      %569 = arith.addf %arg3, %arg4 : f32 loc(#loc204)
      tt.reduce.return %569 : f32 loc(#loc192)
    }) : (tensor<16x2x1xf32>) -> tensor<16x1xf32> loc(#loc192)
    %219 = tt.expand_dims %218 {axis = 1 : i32} : tensor<16x1xf32> -> tensor<16x1x1xf32> loc(#loc156)
    %220 = tt.broadcast %219 : tensor<16x1x1xf32> -> tensor<16x2x1xf32> loc(#loc157)
    %221 = arith.mulf %215, %28 : tensor<16x2x1xf32> loc(#loc158)
    %222 = "tt.reduce"(%221) <{axis = 1 : i32}> ({
    ^bb0(%arg3: f32 loc(callsite(#loc160 at #loc13)), %arg4: f32 loc(callsite(#loc160 at #loc13))):
      %569 = arith.addf %arg3, %arg4 : f32 loc(#loc205)
      tt.reduce.return %569 : f32 loc(#loc195)
    }) : (tensor<16x2x1xf32>) -> tensor<16x1xf32> loc(#loc195)
    %223 = tt.expand_dims %222 {axis = 1 : i32} : tensor<16x1xf32> -> tensor<16x1x1xf32> loc(#loc162)
    %224 = tt.broadcast %223 : tensor<16x1x1xf32> -> tensor<16x2x1xf32> loc(#loc163)
    %225 = tt.reshape %220 : tensor<16x2x1xf32> -> tensor<32xf32> loc(#loc164)
    %226 = tt.reshape %224 : tensor<16x2x1xf32> -> tensor<32xf32> loc(#loc165)
    %227 = arith.muli %216, %35 : tensor<16x2x1xi32> loc(#loc166)
    %228 = "tt.reduce"(%227) <{axis = 1 : i32}> ({
    ^bb0(%arg3: i32 loc(callsite(#loc168 at #loc13)), %arg4: i32 loc(callsite(#loc168 at #loc13))):
      %569 = arith.addi %arg3, %arg4 : i32 loc(#loc206)
      tt.reduce.return %569 : i32 loc(#loc198)
    }) : (tensor<16x2x1xi32>) -> tensor<16x1xi32> loc(#loc198)
    %229 = tt.expand_dims %228 {axis = 1 : i32} : tensor<16x1xi32> -> tensor<16x1x1xi32> loc(#loc170)
    %230 = tt.broadcast %229 : tensor<16x1x1xi32> -> tensor<16x2x1xi32> loc(#loc171)
    %231 = arith.muli %216, %40 : tensor<16x2x1xi32> loc(#loc172)
    %232 = "tt.reduce"(%231) <{axis = 1 : i32}> ({
    ^bb0(%arg3: i32 loc(callsite(#loc174 at #loc13)), %arg4: i32 loc(callsite(#loc174 at #loc13))):
      %569 = arith.addi %arg3, %arg4 : i32 loc(#loc207)
      tt.reduce.return %569 : i32 loc(#loc201)
    }) : (tensor<16x2x1xi32>) -> tensor<16x1xi32> loc(#loc201)
    %233 = tt.expand_dims %232 {axis = 1 : i32} : tensor<16x1xi32> -> tensor<16x1x1xi32> loc(#loc176)
    %234 = tt.broadcast %233 : tensor<16x1x1xi32> -> tensor<16x2x1xi32> loc(#loc177)
    %235 = tt.reshape %230 : tensor<16x2x1xi32> -> tensor<32xi32> loc(#loc178)
    %236 = tt.reshape %234 : tensor<16x2x1xi32> -> tensor<32xi32> loc(#loc179)
    %237 = tt.bitcast %225 : tensor<32xf32> -> tensor<32xi32> loc(#loc180)
    %238 = tt.bitcast %226 : tensor<32xf32> -> tensor<32xi32> loc(#loc181)
    %239 = tt.bitcast %214 : tensor<32xf32> -> tensor<32xi32> loc(#loc182)
    %240 = arith.cmpf ogt, %225, %226 : tensor<32xf32> loc(#loc183)
    %241 = arith.extui %240 : tensor<32xi1> to tensor<32xi32> loc(#loc184)
    %242 = arith.xori %241, %139 : tensor<32xi32> loc(#loc184)
    %243 = arith.xori %237, %238 : tensor<32xi32> loc(#loc185)
    %244 = arith.cmpi ne, %242, %cst_0 : tensor<32xi32> loc(#loc186)
    %245 = arith.select %244, %243, %cst_0 : tensor<32xi1>, tensor<32xi32> loc(#loc186)
    %246 = arith.xori %239, %245 : tensor<32xi32> loc(#loc187)
    %247 = arith.xori %235, %236 : tensor<32xi32> loc(#loc188)
    %248 = arith.select %244, %247, %cst_0 : tensor<32xi1>, tensor<32xi32> loc(#loc189)
    %249 = arith.xori %213, %248 : tensor<32xi32> loc(#loc190)
    %250 = tt.bitcast %246 : tensor<32xi32> -> tensor<32xf32> loc(#loc191)
    %251 = tt.broadcast %15 : tensor<1x2x1xi32> -> tensor<1x2x16xi32> loc(#loc104)
    %252 = tt.reshape %251 : tensor<1x2x16xi32> -> tensor<32xi32> loc(#loc105)
    %253 = tt.reshape %250 : tensor<32xf32> -> tensor<2x2x8xf32> loc(#loc149)
    %254 = tt.reshape %249 : tensor<32xi32> -> tensor<2x2x8xi32> loc(#loc150)
    %255 = tt.broadcast %21 : tensor<1x2x1xf32> -> tensor<2x2x8xf32> loc(#loc152)
    %256 = arith.mulf %253, %255 : tensor<2x2x8xf32> loc(#loc152)
    %257 = "tt.reduce"(%256) <{axis = 1 : i32}> ({
    ^bb0(%arg3: f32 loc(callsite(#loc154 at #loc13)), %arg4: f32 loc(callsite(#loc154 at #loc13))):
      %569 = arith.addf %arg3, %arg4 : f32 loc(#loc204)
      tt.reduce.return %569 : f32 loc(#loc192)
    }) : (tensor<2x2x8xf32>) -> tensor<2x8xf32> loc(#loc192)
    %258 = tt.expand_dims %257 {axis = 1 : i32} : tensor<2x8xf32> -> tensor<2x1x8xf32> loc(#loc156)
    %259 = tt.broadcast %258 : tensor<2x1x8xf32> -> tensor<2x2x8xf32> loc(#loc157)
    %260 = tt.broadcast %27 : tensor<1x2x1xf32> -> tensor<2x2x8xf32> loc(#loc158)
    %261 = arith.mulf %253, %260 : tensor<2x2x8xf32> loc(#loc158)
    %262 = "tt.reduce"(%261) <{axis = 1 : i32}> ({
    ^bb0(%arg3: f32 loc(callsite(#loc160 at #loc13)), %arg4: f32 loc(callsite(#loc160 at #loc13))):
      %569 = arith.addf %arg3, %arg4 : f32 loc(#loc205)
      tt.reduce.return %569 : f32 loc(#loc195)
    }) : (tensor<2x2x8xf32>) -> tensor<2x8xf32> loc(#loc195)
    %263 = tt.expand_dims %262 {axis = 1 : i32} : tensor<2x8xf32> -> tensor<2x1x8xf32> loc(#loc162)
    %264 = tt.broadcast %263 : tensor<2x1x8xf32> -> tensor<2x2x8xf32> loc(#loc163)
    %265 = tt.reshape %259 : tensor<2x2x8xf32> -> tensor<32xf32> loc(#loc164)
    %266 = tt.reshape %264 : tensor<2x2x8xf32> -> tensor<32xf32> loc(#loc165)
    %267 = tt.broadcast %20 : tensor<1x2x1xi32> -> tensor<2x2x8xi32> loc(#loc166)
    %268 = arith.muli %254, %267 : tensor<2x2x8xi32> loc(#loc166)
    %269 = "tt.reduce"(%268) <{axis = 1 : i32}> ({
    ^bb0(%arg3: i32 loc(callsite(#loc168 at #loc13)), %arg4: i32 loc(callsite(#loc168 at #loc13))):
      %569 = arith.addi %arg3, %arg4 : i32 loc(#loc206)
      tt.reduce.return %569 : i32 loc(#loc198)
    }) : (tensor<2x2x8xi32>) -> tensor<2x8xi32> loc(#loc198)
    %270 = tt.expand_dims %269 {axis = 1 : i32} : tensor<2x8xi32> -> tensor<2x1x8xi32> loc(#loc170)
    %271 = tt.broadcast %270 : tensor<2x1x8xi32> -> tensor<2x2x8xi32> loc(#loc171)
    %272 = arith.muli %254, %138 : tensor<2x2x8xi32> loc(#loc172)
    %273 = "tt.reduce"(%272) <{axis = 1 : i32}> ({
    ^bb0(%arg3: i32 loc(callsite(#loc174 at #loc13)), %arg4: i32 loc(callsite(#loc174 at #loc13))):
      %569 = arith.addi %arg3, %arg4 : i32 loc(#loc207)
      tt.reduce.return %569 : i32 loc(#loc201)
    }) : (tensor<2x2x8xi32>) -> tensor<2x8xi32> loc(#loc201)
    %274 = tt.expand_dims %273 {axis = 1 : i32} : tensor<2x8xi32> -> tensor<2x1x8xi32> loc(#loc176)
    %275 = tt.broadcast %274 : tensor<2x1x8xi32> -> tensor<2x2x8xi32> loc(#loc177)
    %276 = tt.reshape %271 : tensor<2x2x8xi32> -> tensor<32xi32> loc(#loc178)
    %277 = tt.reshape %275 : tensor<2x2x8xi32> -> tensor<32xi32> loc(#loc179)
    %278 = tt.bitcast %265 : tensor<32xf32> -> tensor<32xi32> loc(#loc180)
    %279 = tt.bitcast %266 : tensor<32xf32> -> tensor<32xi32> loc(#loc181)
    %280 = tt.bitcast %250 : tensor<32xf32> -> tensor<32xi32> loc(#loc182)
    %281 = arith.cmpf ogt, %265, %266 : tensor<32xf32> loc(#loc183)
    %282 = arith.extui %281 : tensor<32xi1> to tensor<32xi32> loc(#loc184)
    %283 = arith.xori %282, %252 : tensor<32xi32> loc(#loc184)
    %284 = arith.xori %278, %279 : tensor<32xi32> loc(#loc185)
    %285 = arith.cmpi ne, %283, %cst_0 : tensor<32xi32> loc(#loc186)
    %286 = arith.select %285, %284, %cst_0 : tensor<32xi1>, tensor<32xi32> loc(#loc186)
    %287 = arith.xori %280, %286 : tensor<32xi32> loc(#loc187)
    %288 = arith.xori %276, %277 : tensor<32xi32> loc(#loc188)
    %289 = arith.select %285, %288, %cst_0 : tensor<32xi1>, tensor<32xi32> loc(#loc189)
    %290 = arith.xori %249, %289 : tensor<32xi32> loc(#loc190)
    %291 = tt.bitcast %287 : tensor<32xi32> -> tensor<32xf32> loc(#loc191)
    %292 = tt.reshape %291 : tensor<32xf32> -> tensor<4x2x4xf32> loc(#loc149)
    %293 = tt.reshape %290 : tensor<32xi32> -> tensor<4x2x4xi32> loc(#loc150)
    %294 = arith.mulf %292, %142 : tensor<4x2x4xf32> loc(#loc152)
    %295 = "tt.reduce"(%294) <{axis = 1 : i32}> ({
    ^bb0(%arg3: f32 loc(callsite(#loc154 at #loc13)), %arg4: f32 loc(callsite(#loc154 at #loc13))):
      %569 = arith.addf %arg3, %arg4 : f32 loc(#loc204)
      tt.reduce.return %569 : f32 loc(#loc192)
    }) : (tensor<4x2x4xf32>) -> tensor<4x4xf32> loc(#loc192)
    %296 = tt.expand_dims %295 {axis = 1 : i32} : tensor<4x4xf32> -> tensor<4x1x4xf32> loc(#loc156)
    %297 = tt.broadcast %296 : tensor<4x1x4xf32> -> tensor<4x2x4xf32> loc(#loc157)
    %298 = arith.mulf %292, %147 : tensor<4x2x4xf32> loc(#loc158)
    %299 = "tt.reduce"(%298) <{axis = 1 : i32}> ({
    ^bb0(%arg3: f32 loc(callsite(#loc160 at #loc13)), %arg4: f32 loc(callsite(#loc160 at #loc13))):
      %569 = arith.addf %arg3, %arg4 : f32 loc(#loc205)
      tt.reduce.return %569 : f32 loc(#loc195)
    }) : (tensor<4x2x4xf32>) -> tensor<4x4xf32> loc(#loc195)
    %300 = tt.expand_dims %299 {axis = 1 : i32} : tensor<4x4xf32> -> tensor<4x1x4xf32> loc(#loc162)
    %301 = tt.broadcast %300 : tensor<4x1x4xf32> -> tensor<4x2x4xf32> loc(#loc163)
    %302 = tt.reshape %297 : tensor<4x2x4xf32> -> tensor<32xf32> loc(#loc164)
    %303 = tt.reshape %301 : tensor<4x2x4xf32> -> tensor<32xf32> loc(#loc165)
    %304 = arith.muli %293, %154 : tensor<4x2x4xi32> loc(#loc166)
    %305 = "tt.reduce"(%304) <{axis = 1 : i32}> ({
    ^bb0(%arg3: i32 loc(callsite(#loc168 at #loc13)), %arg4: i32 loc(callsite(#loc168 at #loc13))):
      %569 = arith.addi %arg3, %arg4 : i32 loc(#loc206)
      tt.reduce.return %569 : i32 loc(#loc198)
    }) : (tensor<4x2x4xi32>) -> tensor<4x4xi32> loc(#loc198)
    %306 = tt.expand_dims %305 {axis = 1 : i32} : tensor<4x4xi32> -> tensor<4x1x4xi32> loc(#loc170)
    %307 = tt.broadcast %306 : tensor<4x1x4xi32> -> tensor<4x2x4xi32> loc(#loc171)
    %308 = arith.muli %293, %61 : tensor<4x2x4xi32> loc(#loc172)
    %309 = "tt.reduce"(%308) <{axis = 1 : i32}> ({
    ^bb0(%arg3: i32 loc(callsite(#loc174 at #loc13)), %arg4: i32 loc(callsite(#loc174 at #loc13))):
      %569 = arith.addi %arg3, %arg4 : i32 loc(#loc207)
      tt.reduce.return %569 : i32 loc(#loc201)
    }) : (tensor<4x2x4xi32>) -> tensor<4x4xi32> loc(#loc201)
    %310 = tt.expand_dims %309 {axis = 1 : i32} : tensor<4x4xi32> -> tensor<4x1x4xi32> loc(#loc176)
    %311 = tt.broadcast %310 : tensor<4x1x4xi32> -> tensor<4x2x4xi32> loc(#loc177)
    %312 = tt.reshape %307 : tensor<4x2x4xi32> -> tensor<32xi32> loc(#loc178)
    %313 = tt.reshape %311 : tensor<4x2x4xi32> -> tensor<32xi32> loc(#loc179)
    %314 = tt.bitcast %302 : tensor<32xf32> -> tensor<32xi32> loc(#loc180)
    %315 = tt.bitcast %303 : tensor<32xf32> -> tensor<32xi32> loc(#loc181)
    %316 = tt.bitcast %291 : tensor<32xf32> -> tensor<32xi32> loc(#loc182)
    %317 = arith.cmpf ogt, %302, %303 : tensor<32xf32> loc(#loc183)
    %318 = arith.extui %317 : tensor<32xi1> to tensor<32xi32> loc(#loc184)
    %319 = arith.xori %318, %252 : tensor<32xi32> loc(#loc184)
    %320 = arith.xori %314, %315 : tensor<32xi32> loc(#loc185)
    %321 = arith.cmpi ne, %319, %cst_0 : tensor<32xi32> loc(#loc186)
    %322 = arith.select %321, %320, %cst_0 : tensor<32xi1>, tensor<32xi32> loc(#loc186)
    %323 = arith.xori %316, %322 : tensor<32xi32> loc(#loc187)
    %324 = arith.xori %312, %313 : tensor<32xi32> loc(#loc188)
    %325 = arith.select %321, %324, %cst_0 : tensor<32xi1>, tensor<32xi32> loc(#loc189)
    %326 = arith.xori %290, %325 : tensor<32xi32> loc(#loc190)
    %327 = tt.bitcast %323 : tensor<32xi32> -> tensor<32xf32> loc(#loc191)
    %328 = tt.reshape %327 : tensor<32xf32> -> tensor<8x2x2xf32> loc(#loc149)
    %329 = tt.reshape %326 : tensor<32xi32> -> tensor<8x2x2xi32> loc(#loc150)
    %330 = arith.mulf %328, %65 : tensor<8x2x2xf32> loc(#loc152)
    %331 = "tt.reduce"(%330) <{axis = 1 : i32}> ({
    ^bb0(%arg3: f32 loc(callsite(#loc154 at #loc13)), %arg4: f32 loc(callsite(#loc154 at #loc13))):
      %569 = arith.addf %arg3, %arg4 : f32 loc(#loc204)
      tt.reduce.return %569 : f32 loc(#loc192)
    }) : (tensor<8x2x2xf32>) -> tensor<8x2xf32> loc(#loc192)
    %332 = tt.expand_dims %331 {axis = 1 : i32} : tensor<8x2xf32> -> tensor<8x1x2xf32> loc(#loc156)
    %333 = tt.broadcast %332 : tensor<8x1x2xf32> -> tensor<8x2x2xf32> loc(#loc157)
    %334 = arith.mulf %328, %70 : tensor<8x2x2xf32> loc(#loc158)
    %335 = "tt.reduce"(%334) <{axis = 1 : i32}> ({
    ^bb0(%arg3: f32 loc(callsite(#loc160 at #loc13)), %arg4: f32 loc(callsite(#loc160 at #loc13))):
      %569 = arith.addf %arg3, %arg4 : f32 loc(#loc205)
      tt.reduce.return %569 : f32 loc(#loc195)
    }) : (tensor<8x2x2xf32>) -> tensor<8x2xf32> loc(#loc195)
    %336 = tt.expand_dims %335 {axis = 1 : i32} : tensor<8x2xf32> -> tensor<8x1x2xf32> loc(#loc162)
    %337 = tt.broadcast %336 : tensor<8x1x2xf32> -> tensor<8x2x2xf32> loc(#loc163)
    %338 = tt.reshape %333 : tensor<8x2x2xf32> -> tensor<32xf32> loc(#loc164)
    %339 = tt.reshape %337 : tensor<8x2x2xf32> -> tensor<32xf32> loc(#loc165)
    %340 = arith.muli %329, %77 : tensor<8x2x2xi32> loc(#loc166)
    %341 = "tt.reduce"(%340) <{axis = 1 : i32}> ({
    ^bb0(%arg3: i32 loc(callsite(#loc168 at #loc13)), %arg4: i32 loc(callsite(#loc168 at #loc13))):
      %569 = arith.addi %arg3, %arg4 : i32 loc(#loc206)
      tt.reduce.return %569 : i32 loc(#loc198)
    }) : (tensor<8x2x2xi32>) -> tensor<8x2xi32> loc(#loc198)
    %342 = tt.expand_dims %341 {axis = 1 : i32} : tensor<8x2xi32> -> tensor<8x1x2xi32> loc(#loc170)
    %343 = tt.broadcast %342 : tensor<8x1x2xi32> -> tensor<8x2x2xi32> loc(#loc171)
    %344 = arith.muli %329, %16 : tensor<8x2x2xi32> loc(#loc172)
    %345 = "tt.reduce"(%344) <{axis = 1 : i32}> ({
    ^bb0(%arg3: i32 loc(callsite(#loc174 at #loc13)), %arg4: i32 loc(callsite(#loc174 at #loc13))):
      %569 = arith.addi %arg3, %arg4 : i32 loc(#loc207)
      tt.reduce.return %569 : i32 loc(#loc201)
    }) : (tensor<8x2x2xi32>) -> tensor<8x2xi32> loc(#loc201)
    %346 = tt.expand_dims %345 {axis = 1 : i32} : tensor<8x2xi32> -> tensor<8x1x2xi32> loc(#loc176)
    %347 = tt.broadcast %346 : tensor<8x1x2xi32> -> tensor<8x2x2xi32> loc(#loc177)
    %348 = tt.reshape %343 : tensor<8x2x2xi32> -> tensor<32xi32> loc(#loc178)
    %349 = tt.reshape %347 : tensor<8x2x2xi32> -> tensor<32xi32> loc(#loc179)
    %350 = tt.bitcast %338 : tensor<32xf32> -> tensor<32xi32> loc(#loc180)
    %351 = tt.bitcast %339 : tensor<32xf32> -> tensor<32xi32> loc(#loc181)
    %352 = tt.bitcast %327 : tensor<32xf32> -> tensor<32xi32> loc(#loc182)
    %353 = arith.cmpf ogt, %338, %339 : tensor<32xf32> loc(#loc183)
    %354 = arith.extui %353 : tensor<32xi1> to tensor<32xi32> loc(#loc184)
    %355 = arith.xori %354, %252 : tensor<32xi32> loc(#loc184)
    %356 = arith.xori %350, %351 : tensor<32xi32> loc(#loc185)
    %357 = arith.cmpi ne, %355, %cst_0 : tensor<32xi32> loc(#loc186)
    %358 = arith.select %357, %356, %cst_0 : tensor<32xi1>, tensor<32xi32> loc(#loc186)
    %359 = arith.xori %352, %358 : tensor<32xi32> loc(#loc187)
    %360 = arith.xori %348, %349 : tensor<32xi32> loc(#loc188)
    %361 = arith.select %357, %360, %cst_0 : tensor<32xi1>, tensor<32xi32> loc(#loc189)
    %362 = arith.xori %326, %361 : tensor<32xi32> loc(#loc190)
    %363 = tt.bitcast %359 : tensor<32xi32> -> tensor<32xf32> loc(#loc191)
    %364 = tt.reshape %363 : tensor<32xf32> -> tensor<16x2x1xf32> loc(#loc149)
    %365 = tt.reshape %362 : tensor<32xi32> -> tensor<16x2x1xi32> loc(#loc150)
    %366 = arith.mulf %364, %22 : tensor<16x2x1xf32> loc(#loc152)
    %367 = "tt.reduce"(%366) <{axis = 1 : i32}> ({
    ^bb0(%arg3: f32 loc(callsite(#loc154 at #loc13)), %arg4: f32 loc(callsite(#loc154 at #loc13))):
      %569 = arith.addf %arg3, %arg4 : f32 loc(#loc204)
      tt.reduce.return %569 : f32 loc(#loc192)
    }) : (tensor<16x2x1xf32>) -> tensor<16x1xf32> loc(#loc192)
    %368 = tt.expand_dims %367 {axis = 1 : i32} : tensor<16x1xf32> -> tensor<16x1x1xf32> loc(#loc156)
    %369 = tt.broadcast %368 : tensor<16x1x1xf32> -> tensor<16x2x1xf32> loc(#loc157)
    %370 = arith.mulf %364, %28 : tensor<16x2x1xf32> loc(#loc158)
    %371 = "tt.reduce"(%370) <{axis = 1 : i32}> ({
    ^bb0(%arg3: f32 loc(callsite(#loc160 at #loc13)), %arg4: f32 loc(callsite(#loc160 at #loc13))):
      %569 = arith.addf %arg3, %arg4 : f32 loc(#loc205)
      tt.reduce.return %569 : f32 loc(#loc195)
    }) : (tensor<16x2x1xf32>) -> tensor<16x1xf32> loc(#loc195)
    %372 = tt.expand_dims %371 {axis = 1 : i32} : tensor<16x1xf32> -> tensor<16x1x1xf32> loc(#loc162)
    %373 = tt.broadcast %372 : tensor<16x1x1xf32> -> tensor<16x2x1xf32> loc(#loc163)
    %374 = tt.reshape %369 : tensor<16x2x1xf32> -> tensor<32xf32> loc(#loc164)
    %375 = tt.reshape %373 : tensor<16x2x1xf32> -> tensor<32xf32> loc(#loc165)
    %376 = arith.muli %365, %35 : tensor<16x2x1xi32> loc(#loc166)
    %377 = "tt.reduce"(%376) <{axis = 1 : i32}> ({
    ^bb0(%arg3: i32 loc(callsite(#loc168 at #loc13)), %arg4: i32 loc(callsite(#loc168 at #loc13))):
      %569 = arith.addi %arg3, %arg4 : i32 loc(#loc206)
      tt.reduce.return %569 : i32 loc(#loc198)
    }) : (tensor<16x2x1xi32>) -> tensor<16x1xi32> loc(#loc198)
    %378 = tt.expand_dims %377 {axis = 1 : i32} : tensor<16x1xi32> -> tensor<16x1x1xi32> loc(#loc170)
    %379 = tt.broadcast %378 : tensor<16x1x1xi32> -> tensor<16x2x1xi32> loc(#loc171)
    %380 = arith.muli %365, %40 : tensor<16x2x1xi32> loc(#loc172)
    %381 = "tt.reduce"(%380) <{axis = 1 : i32}> ({
    ^bb0(%arg3: i32 loc(callsite(#loc174 at #loc13)), %arg4: i32 loc(callsite(#loc174 at #loc13))):
      %569 = arith.addi %arg3, %arg4 : i32 loc(#loc207)
      tt.reduce.return %569 : i32 loc(#loc201)
    }) : (tensor<16x2x1xi32>) -> tensor<16x1xi32> loc(#loc201)
    %382 = tt.expand_dims %381 {axis = 1 : i32} : tensor<16x1xi32> -> tensor<16x1x1xi32> loc(#loc176)
    %383 = tt.broadcast %382 : tensor<16x1x1xi32> -> tensor<16x2x1xi32> loc(#loc177)
    %384 = tt.reshape %379 : tensor<16x2x1xi32> -> tensor<32xi32> loc(#loc178)
    %385 = tt.reshape %383 : tensor<16x2x1xi32> -> tensor<32xi32> loc(#loc179)
    %386 = tt.bitcast %374 : tensor<32xf32> -> tensor<32xi32> loc(#loc180)
    %387 = tt.bitcast %375 : tensor<32xf32> -> tensor<32xi32> loc(#loc181)
    %388 = tt.bitcast %363 : tensor<32xf32> -> tensor<32xi32> loc(#loc182)
    %389 = arith.cmpf ogt, %374, %375 : tensor<32xf32> loc(#loc183)
    %390 = arith.extui %389 : tensor<32xi1> to tensor<32xi32> loc(#loc184)
    %391 = arith.xori %390, %252 : tensor<32xi32> loc(#loc184)
    %392 = arith.xori %386, %387 : tensor<32xi32> loc(#loc185)
    %393 = arith.cmpi ne, %391, %cst_0 : tensor<32xi32> loc(#loc186)
    %394 = arith.select %393, %392, %cst_0 : tensor<32xi1>, tensor<32xi32> loc(#loc186)
    %395 = arith.xori %388, %394 : tensor<32xi32> loc(#loc187)
    %396 = arith.xori %384, %385 : tensor<32xi32> loc(#loc188)
    %397 = arith.select %393, %396, %cst_0 : tensor<32xi1>, tensor<32xi32> loc(#loc189)
    %398 = arith.xori %362, %397 : tensor<32xi32> loc(#loc190)
    %399 = tt.bitcast %395 : tensor<32xi32> -> tensor<32xf32> loc(#loc191)
    %400 = tt.reshape %399 : tensor<32xf32> -> tensor<1x2x16xf32> loc(#loc149)
    %401 = tt.reshape %398 : tensor<32xi32> -> tensor<1x2x16xi32> loc(#loc150)
    %402 = tt.broadcast %21 : tensor<1x2x1xf32> -> tensor<1x2x16xf32> loc(#loc152)
    %403 = arith.mulf %400, %402 : tensor<1x2x16xf32> loc(#loc152)
    %404 = "tt.reduce"(%403) <{axis = 1 : i32}> ({
    ^bb0(%arg3: f32 loc(callsite(#loc154 at #loc13)), %arg4: f32 loc(callsite(#loc154 at #loc13))):
      %569 = arith.addf %arg3, %arg4 : f32 loc(#loc204)
      tt.reduce.return %569 : f32 loc(#loc192)
    }) : (tensor<1x2x16xf32>) -> tensor<1x16xf32> loc(#loc192)
    %405 = tt.expand_dims %404 {axis = 1 : i32} : tensor<1x16xf32> -> tensor<1x1x16xf32> loc(#loc156)
    %406 = tt.broadcast %405 : tensor<1x1x16xf32> -> tensor<1x2x16xf32> loc(#loc157)
    %407 = tt.broadcast %27 : tensor<1x2x1xf32> -> tensor<1x2x16xf32> loc(#loc158)
    %408 = arith.mulf %400, %407 : tensor<1x2x16xf32> loc(#loc158)
    %409 = "tt.reduce"(%408) <{axis = 1 : i32}> ({
    ^bb0(%arg3: f32 loc(callsite(#loc160 at #loc13)), %arg4: f32 loc(callsite(#loc160 at #loc13))):
      %569 = arith.addf %arg3, %arg4 : f32 loc(#loc205)
      tt.reduce.return %569 : f32 loc(#loc195)
    }) : (tensor<1x2x16xf32>) -> tensor<1x16xf32> loc(#loc195)
    %410 = tt.expand_dims %409 {axis = 1 : i32} : tensor<1x16xf32> -> tensor<1x1x16xf32> loc(#loc162)
    %411 = tt.broadcast %410 : tensor<1x1x16xf32> -> tensor<1x2x16xf32> loc(#loc163)
    %412 = tt.reshape %406 : tensor<1x2x16xf32> -> tensor<32xf32> loc(#loc164)
    %413 = tt.reshape %411 : tensor<1x2x16xf32> -> tensor<32xf32> loc(#loc165)
    %414 = tt.broadcast %20 : tensor<1x2x1xi32> -> tensor<1x2x16xi32> loc(#loc166)
    %415 = arith.muli %401, %414 : tensor<1x2x16xi32> loc(#loc166)
    %416 = "tt.reduce"(%415) <{axis = 1 : i32}> ({
    ^bb0(%arg3: i32 loc(callsite(#loc168 at #loc13)), %arg4: i32 loc(callsite(#loc168 at #loc13))):
      %569 = arith.addi %arg3, %arg4 : i32 loc(#loc206)
      tt.reduce.return %569 : i32 loc(#loc198)
    }) : (tensor<1x2x16xi32>) -> tensor<1x16xi32> loc(#loc198)
    %417 = tt.expand_dims %416 {axis = 1 : i32} : tensor<1x16xi32> -> tensor<1x1x16xi32> loc(#loc170)
    %418 = tt.broadcast %417 : tensor<1x1x16xi32> -> tensor<1x2x16xi32> loc(#loc171)
    %419 = arith.muli %401, %251 : tensor<1x2x16xi32> loc(#loc172)
    %420 = "tt.reduce"(%419) <{axis = 1 : i32}> ({
    ^bb0(%arg3: i32 loc(callsite(#loc174 at #loc13)), %arg4: i32 loc(callsite(#loc174 at #loc13))):
      %569 = arith.addi %arg3, %arg4 : i32 loc(#loc207)
      tt.reduce.return %569 : i32 loc(#loc201)
    }) : (tensor<1x2x16xi32>) -> tensor<1x16xi32> loc(#loc201)
    %421 = tt.expand_dims %420 {axis = 1 : i32} : tensor<1x16xi32> -> tensor<1x1x16xi32> loc(#loc176)
    %422 = tt.broadcast %421 : tensor<1x1x16xi32> -> tensor<1x2x16xi32> loc(#loc177)
    %423 = tt.reshape %418 : tensor<1x2x16xi32> -> tensor<32xi32> loc(#loc178)
    %424 = tt.reshape %422 : tensor<1x2x16xi32> -> tensor<32xi32> loc(#loc179)
    %425 = tt.bitcast %412 : tensor<32xf32> -> tensor<32xi32> loc(#loc180)
    %426 = tt.bitcast %413 : tensor<32xf32> -> tensor<32xi32> loc(#loc181)
    %427 = tt.bitcast %399 : tensor<32xf32> -> tensor<32xi32> loc(#loc182)
    %428 = arith.cmpf ogt, %412, %413 : tensor<32xf32> loc(#loc183)
    %429 = arith.xori %425, %426 : tensor<32xi32> loc(#loc185)
    %430 = arith.select %428, %429, %cst_0 : tensor<32xi1>, tensor<32xi32> loc(#loc186)
    %431 = arith.xori %427, %430 : tensor<32xi32> loc(#loc187)
    %432 = arith.xori %423, %424 : tensor<32xi32> loc(#loc188)
    %433 = arith.select %428, %432, %cst_0 : tensor<32xi1>, tensor<32xi32> loc(#loc189)
    %434 = arith.xori %398, %433 : tensor<32xi32> loc(#loc190)
    %435 = tt.bitcast %431 : tensor<32xi32> -> tensor<32xf32> loc(#loc191)
    %436 = tt.reshape %435 : tensor<32xf32> -> tensor<2x2x8xf32> loc(#loc149)
    %437 = tt.reshape %434 : tensor<32xi32> -> tensor<2x2x8xi32> loc(#loc150)
    %438 = arith.mulf %436, %255 : tensor<2x2x8xf32> loc(#loc152)
    %439 = "tt.reduce"(%438) <{axis = 1 : i32}> ({
    ^bb0(%arg3: f32 loc(callsite(#loc154 at #loc13)), %arg4: f32 loc(callsite(#loc154 at #loc13))):
      %569 = arith.addf %arg3, %arg4 : f32 loc(#loc204)
      tt.reduce.return %569 : f32 loc(#loc192)
    }) : (tensor<2x2x8xf32>) -> tensor<2x8xf32> loc(#loc192)
    %440 = tt.expand_dims %439 {axis = 1 : i32} : tensor<2x8xf32> -> tensor<2x1x8xf32> loc(#loc156)
    %441 = tt.broadcast %440 : tensor<2x1x8xf32> -> tensor<2x2x8xf32> loc(#loc157)
    %442 = arith.mulf %436, %260 : tensor<2x2x8xf32> loc(#loc158)
    %443 = "tt.reduce"(%442) <{axis = 1 : i32}> ({
    ^bb0(%arg3: f32 loc(callsite(#loc160 at #loc13)), %arg4: f32 loc(callsite(#loc160 at #loc13))):
      %569 = arith.addf %arg3, %arg4 : f32 loc(#loc205)
      tt.reduce.return %569 : f32 loc(#loc195)
    }) : (tensor<2x2x8xf32>) -> tensor<2x8xf32> loc(#loc195)
    %444 = tt.expand_dims %443 {axis = 1 : i32} : tensor<2x8xf32> -> tensor<2x1x8xf32> loc(#loc162)
    %445 = tt.broadcast %444 : tensor<2x1x8xf32> -> tensor<2x2x8xf32> loc(#loc163)
    %446 = tt.reshape %441 : tensor<2x2x8xf32> -> tensor<32xf32> loc(#loc164)
    %447 = tt.reshape %445 : tensor<2x2x8xf32> -> tensor<32xf32> loc(#loc165)
    %448 = arith.muli %437, %267 : tensor<2x2x8xi32> loc(#loc166)
    %449 = "tt.reduce"(%448) <{axis = 1 : i32}> ({
    ^bb0(%arg3: i32 loc(callsite(#loc168 at #loc13)), %arg4: i32 loc(callsite(#loc168 at #loc13))):
      %569 = arith.addi %arg3, %arg4 : i32 loc(#loc206)
      tt.reduce.return %569 : i32 loc(#loc198)
    }) : (tensor<2x2x8xi32>) -> tensor<2x8xi32> loc(#loc198)
    %450 = tt.expand_dims %449 {axis = 1 : i32} : tensor<2x8xi32> -> tensor<2x1x8xi32> loc(#loc170)
    %451 = tt.broadcast %450 : tensor<2x1x8xi32> -> tensor<2x2x8xi32> loc(#loc171)
    %452 = arith.muli %437, %138 : tensor<2x2x8xi32> loc(#loc172)
    %453 = "tt.reduce"(%452) <{axis = 1 : i32}> ({
    ^bb0(%arg3: i32 loc(callsite(#loc174 at #loc13)), %arg4: i32 loc(callsite(#loc174 at #loc13))):
      %569 = arith.addi %arg3, %arg4 : i32 loc(#loc207)
      tt.reduce.return %569 : i32 loc(#loc201)
    }) : (tensor<2x2x8xi32>) -> tensor<2x8xi32> loc(#loc201)
    %454 = tt.expand_dims %453 {axis = 1 : i32} : tensor<2x8xi32> -> tensor<2x1x8xi32> loc(#loc176)
    %455 = tt.broadcast %454 : tensor<2x1x8xi32> -> tensor<2x2x8xi32> loc(#loc177)
    %456 = tt.reshape %451 : tensor<2x2x8xi32> -> tensor<32xi32> loc(#loc178)
    %457 = tt.reshape %455 : tensor<2x2x8xi32> -> tensor<32xi32> loc(#loc179)
    %458 = tt.bitcast %446 : tensor<32xf32> -> tensor<32xi32> loc(#loc180)
    %459 = tt.bitcast %447 : tensor<32xf32> -> tensor<32xi32> loc(#loc181)
    %460 = tt.bitcast %435 : tensor<32xf32> -> tensor<32xi32> loc(#loc182)
    %461 = arith.cmpf ogt, %446, %447 : tensor<32xf32> loc(#loc183)
    %462 = arith.xori %458, %459 : tensor<32xi32> loc(#loc185)
    %463 = arith.select %461, %462, %cst_0 : tensor<32xi1>, tensor<32xi32> loc(#loc186)
    %464 = arith.xori %460, %463 : tensor<32xi32> loc(#loc187)
    %465 = arith.xori %456, %457 : tensor<32xi32> loc(#loc188)
    %466 = arith.select %461, %465, %cst_0 : tensor<32xi1>, tensor<32xi32> loc(#loc189)
    %467 = arith.xori %434, %466 : tensor<32xi32> loc(#loc190)
    %468 = tt.bitcast %464 : tensor<32xi32> -> tensor<32xf32> loc(#loc191)
    %469 = tt.reshape %468 : tensor<32xf32> -> tensor<4x2x4xf32> loc(#loc149)
    %470 = tt.reshape %467 : tensor<32xi32> -> tensor<4x2x4xi32> loc(#loc150)
    %471 = arith.mulf %469, %142 : tensor<4x2x4xf32> loc(#loc152)
    %472 = "tt.reduce"(%471) <{axis = 1 : i32}> ({
    ^bb0(%arg3: f32 loc(callsite(#loc154 at #loc13)), %arg4: f32 loc(callsite(#loc154 at #loc13))):
      %569 = arith.addf %arg3, %arg4 : f32 loc(#loc204)
      tt.reduce.return %569 : f32 loc(#loc192)
    }) : (tensor<4x2x4xf32>) -> tensor<4x4xf32> loc(#loc192)
    %473 = tt.expand_dims %472 {axis = 1 : i32} : tensor<4x4xf32> -> tensor<4x1x4xf32> loc(#loc156)
    %474 = tt.broadcast %473 : tensor<4x1x4xf32> -> tensor<4x2x4xf32> loc(#loc157)
    %475 = arith.mulf %469, %147 : tensor<4x2x4xf32> loc(#loc158)
    %476 = "tt.reduce"(%475) <{axis = 1 : i32}> ({
    ^bb0(%arg3: f32 loc(callsite(#loc160 at #loc13)), %arg4: f32 loc(callsite(#loc160 at #loc13))):
      %569 = arith.addf %arg3, %arg4 : f32 loc(#loc205)
      tt.reduce.return %569 : f32 loc(#loc195)
    }) : (tensor<4x2x4xf32>) -> tensor<4x4xf32> loc(#loc195)
    %477 = tt.expand_dims %476 {axis = 1 : i32} : tensor<4x4xf32> -> tensor<4x1x4xf32> loc(#loc162)
    %478 = tt.broadcast %477 : tensor<4x1x4xf32> -> tensor<4x2x4xf32> loc(#loc163)
    %479 = tt.reshape %474 : tensor<4x2x4xf32> -> tensor<32xf32> loc(#loc164)
    %480 = tt.reshape %478 : tensor<4x2x4xf32> -> tensor<32xf32> loc(#loc165)
    %481 = arith.muli %470, %154 : tensor<4x2x4xi32> loc(#loc166)
    %482 = "tt.reduce"(%481) <{axis = 1 : i32}> ({
    ^bb0(%arg3: i32 loc(callsite(#loc168 at #loc13)), %arg4: i32 loc(callsite(#loc168 at #loc13))):
      %569 = arith.addi %arg3, %arg4 : i32 loc(#loc206)
      tt.reduce.return %569 : i32 loc(#loc198)
    }) : (tensor<4x2x4xi32>) -> tensor<4x4xi32> loc(#loc198)
    %483 = tt.expand_dims %482 {axis = 1 : i32} : tensor<4x4xi32> -> tensor<4x1x4xi32> loc(#loc170)
    %484 = tt.broadcast %483 : tensor<4x1x4xi32> -> tensor<4x2x4xi32> loc(#loc171)
    %485 = arith.muli %470, %61 : tensor<4x2x4xi32> loc(#loc172)
    %486 = "tt.reduce"(%485) <{axis = 1 : i32}> ({
    ^bb0(%arg3: i32 loc(callsite(#loc174 at #loc13)), %arg4: i32 loc(callsite(#loc174 at #loc13))):
      %569 = arith.addi %arg3, %arg4 : i32 loc(#loc207)
      tt.reduce.return %569 : i32 loc(#loc201)
    }) : (tensor<4x2x4xi32>) -> tensor<4x4xi32> loc(#loc201)
    %487 = tt.expand_dims %486 {axis = 1 : i32} : tensor<4x4xi32> -> tensor<4x1x4xi32> loc(#loc176)
    %488 = tt.broadcast %487 : tensor<4x1x4xi32> -> tensor<4x2x4xi32> loc(#loc177)
    %489 = tt.reshape %484 : tensor<4x2x4xi32> -> tensor<32xi32> loc(#loc178)
    %490 = tt.reshape %488 : tensor<4x2x4xi32> -> tensor<32xi32> loc(#loc179)
    %491 = tt.bitcast %479 : tensor<32xf32> -> tensor<32xi32> loc(#loc180)
    %492 = tt.bitcast %480 : tensor<32xf32> -> tensor<32xi32> loc(#loc181)
    %493 = tt.bitcast %468 : tensor<32xf32> -> tensor<32xi32> loc(#loc182)
    %494 = arith.cmpf ogt, %479, %480 : tensor<32xf32> loc(#loc183)
    %495 = arith.xori %491, %492 : tensor<32xi32> loc(#loc185)
    %496 = arith.select %494, %495, %cst_0 : tensor<32xi1>, tensor<32xi32> loc(#loc186)
    %497 = arith.xori %493, %496 : tensor<32xi32> loc(#loc187)
    %498 = arith.xori %489, %490 : tensor<32xi32> loc(#loc188)
    %499 = arith.select %494, %498, %cst_0 : tensor<32xi1>, tensor<32xi32> loc(#loc189)
    %500 = arith.xori %467, %499 : tensor<32xi32> loc(#loc190)
    %501 = tt.bitcast %497 : tensor<32xi32> -> tensor<32xf32> loc(#loc191)
    %502 = tt.reshape %501 : tensor<32xf32> -> tensor<8x2x2xf32> loc(#loc149)
    %503 = tt.reshape %500 : tensor<32xi32> -> tensor<8x2x2xi32> loc(#loc150)
    %504 = arith.mulf %502, %65 : tensor<8x2x2xf32> loc(#loc152)
    %505 = "tt.reduce"(%504) <{axis = 1 : i32}> ({
    ^bb0(%arg3: f32 loc(callsite(#loc154 at #loc13)), %arg4: f32 loc(callsite(#loc154 at #loc13))):
      %569 = arith.addf %arg3, %arg4 : f32 loc(#loc204)
      tt.reduce.return %569 : f32 loc(#loc192)
    }) : (tensor<8x2x2xf32>) -> tensor<8x2xf32> loc(#loc192)
    %506 = tt.expand_dims %505 {axis = 1 : i32} : tensor<8x2xf32> -> tensor<8x1x2xf32> loc(#loc156)
    %507 = tt.broadcast %506 : tensor<8x1x2xf32> -> tensor<8x2x2xf32> loc(#loc157)
    %508 = arith.mulf %502, %70 : tensor<8x2x2xf32> loc(#loc158)
    %509 = "tt.reduce"(%508) <{axis = 1 : i32}> ({
    ^bb0(%arg3: f32 loc(callsite(#loc160 at #loc13)), %arg4: f32 loc(callsite(#loc160 at #loc13))):
      %569 = arith.addf %arg3, %arg4 : f32 loc(#loc205)
      tt.reduce.return %569 : f32 loc(#loc195)
    }) : (tensor<8x2x2xf32>) -> tensor<8x2xf32> loc(#loc195)
    %510 = tt.expand_dims %509 {axis = 1 : i32} : tensor<8x2xf32> -> tensor<8x1x2xf32> loc(#loc162)
    %511 = tt.broadcast %510 : tensor<8x1x2xf32> -> tensor<8x2x2xf32> loc(#loc163)
    %512 = tt.reshape %507 : tensor<8x2x2xf32> -> tensor<32xf32> loc(#loc164)
    %513 = tt.reshape %511 : tensor<8x2x2xf32> -> tensor<32xf32> loc(#loc165)
    %514 = arith.muli %503, %77 : tensor<8x2x2xi32> loc(#loc166)
    %515 = "tt.reduce"(%514) <{axis = 1 : i32}> ({
    ^bb0(%arg3: i32 loc(callsite(#loc168 at #loc13)), %arg4: i32 loc(callsite(#loc168 at #loc13))):
      %569 = arith.addi %arg3, %arg4 : i32 loc(#loc206)
      tt.reduce.return %569 : i32 loc(#loc198)
    }) : (tensor<8x2x2xi32>) -> tensor<8x2xi32> loc(#loc198)
    %516 = tt.expand_dims %515 {axis = 1 : i32} : tensor<8x2xi32> -> tensor<8x1x2xi32> loc(#loc170)
    %517 = tt.broadcast %516 : tensor<8x1x2xi32> -> tensor<8x2x2xi32> loc(#loc171)
    %518 = arith.muli %503, %16 : tensor<8x2x2xi32> loc(#loc172)
    %519 = "tt.reduce"(%518) <{axis = 1 : i32}> ({
    ^bb0(%arg3: i32 loc(callsite(#loc174 at #loc13)), %arg4: i32 loc(callsite(#loc174 at #loc13))):
      %569 = arith.addi %arg3, %arg4 : i32 loc(#loc207)
      tt.reduce.return %569 : i32 loc(#loc201)
    }) : (tensor<8x2x2xi32>) -> tensor<8x2xi32> loc(#loc201)
    %520 = tt.expand_dims %519 {axis = 1 : i32} : tensor<8x2xi32> -> tensor<8x1x2xi32> loc(#loc176)
    %521 = tt.broadcast %520 : tensor<8x1x2xi32> -> tensor<8x2x2xi32> loc(#loc177)
    %522 = tt.reshape %517 : tensor<8x2x2xi32> -> tensor<32xi32> loc(#loc178)
    %523 = tt.reshape %521 : tensor<8x2x2xi32> -> tensor<32xi32> loc(#loc179)
    %524 = tt.bitcast %512 : tensor<32xf32> -> tensor<32xi32> loc(#loc180)
    %525 = tt.bitcast %513 : tensor<32xf32> -> tensor<32xi32> loc(#loc181)
    %526 = tt.bitcast %501 : tensor<32xf32> -> tensor<32xi32> loc(#loc182)
    %527 = arith.cmpf ogt, %512, %513 : tensor<32xf32> loc(#loc183)
    %528 = arith.xori %524, %525 : tensor<32xi32> loc(#loc185)
    %529 = arith.select %527, %528, %cst_0 : tensor<32xi1>, tensor<32xi32> loc(#loc186)
    %530 = arith.xori %526, %529 : tensor<32xi32> loc(#loc187)
    %531 = arith.xori %522, %523 : tensor<32xi32> loc(#loc188)
    %532 = arith.select %527, %531, %cst_0 : tensor<32xi1>, tensor<32xi32> loc(#loc189)
    %533 = arith.xori %500, %532 : tensor<32xi32> loc(#loc190)
    %534 = tt.bitcast %530 : tensor<32xi32> -> tensor<32xf32> loc(#loc191)
    %535 = tt.reshape %534 : tensor<32xf32> -> tensor<16x2x1xf32> loc(#loc149)
    %536 = tt.reshape %533 : tensor<32xi32> -> tensor<16x2x1xi32> loc(#loc150)
    %537 = arith.mulf %535, %22 : tensor<16x2x1xf32> loc(#loc152)
    %538 = "tt.reduce"(%537) <{axis = 1 : i32}> ({
    ^bb0(%arg3: f32 loc(callsite(#loc154 at #loc13)), %arg4: f32 loc(callsite(#loc154 at #loc13))):
      %569 = arith.addf %arg3, %arg4 : f32 loc(#loc204)
      tt.reduce.return %569 : f32 loc(#loc192)
    }) : (tensor<16x2x1xf32>) -> tensor<16x1xf32> loc(#loc192)
    %539 = tt.expand_dims %538 {axis = 1 : i32} : tensor<16x1xf32> -> tensor<16x1x1xf32> loc(#loc156)
    %540 = tt.broadcast %539 : tensor<16x1x1xf32> -> tensor<16x2x1xf32> loc(#loc157)
    %541 = arith.mulf %535, %28 : tensor<16x2x1xf32> loc(#loc158)
    %542 = "tt.reduce"(%541) <{axis = 1 : i32}> ({
    ^bb0(%arg3: f32 loc(callsite(#loc160 at #loc13)), %arg4: f32 loc(callsite(#loc160 at #loc13))):
      %569 = arith.addf %arg3, %arg4 : f32 loc(#loc205)
      tt.reduce.return %569 : f32 loc(#loc195)
    }) : (tensor<16x2x1xf32>) -> tensor<16x1xf32> loc(#loc195)
    %543 = tt.expand_dims %542 {axis = 1 : i32} : tensor<16x1xf32> -> tensor<16x1x1xf32> loc(#loc162)
    %544 = tt.broadcast %543 : tensor<16x1x1xf32> -> tensor<16x2x1xf32> loc(#loc163)
    %545 = tt.reshape %540 : tensor<16x2x1xf32> -> tensor<32xf32> loc(#loc164)
    %546 = tt.reshape %544 : tensor<16x2x1xf32> -> tensor<32xf32> loc(#loc165)
    %547 = arith.muli %536, %35 : tensor<16x2x1xi32> loc(#loc166)
    %548 = "tt.reduce"(%547) <{axis = 1 : i32}> ({
    ^bb0(%arg3: i32 loc(callsite(#loc168 at #loc13)), %arg4: i32 loc(callsite(#loc168 at #loc13))):
      %569 = arith.addi %arg3, %arg4 : i32 loc(#loc206)
      tt.reduce.return %569 : i32 loc(#loc198)
    }) : (tensor<16x2x1xi32>) -> tensor<16x1xi32> loc(#loc198)
    %549 = tt.expand_dims %548 {axis = 1 : i32} : tensor<16x1xi32> -> tensor<16x1x1xi32> loc(#loc170)
    %550 = tt.broadcast %549 : tensor<16x1x1xi32> -> tensor<16x2x1xi32> loc(#loc171)
    %551 = arith.muli %536, %40 : tensor<16x2x1xi32> loc(#loc172)
    %552 = "tt.reduce"(%551) <{axis = 1 : i32}> ({
    ^bb0(%arg3: i32 loc(callsite(#loc174 at #loc13)), %arg4: i32 loc(callsite(#loc174 at #loc13))):
      %569 = arith.addi %arg3, %arg4 : i32 loc(#loc207)
      tt.reduce.return %569 : i32 loc(#loc201)
    }) : (tensor<16x2x1xi32>) -> tensor<16x1xi32> loc(#loc201)
    %553 = tt.expand_dims %552 {axis = 1 : i32} : tensor<16x1xi32> -> tensor<16x1x1xi32> loc(#loc176)
    %554 = tt.broadcast %553 : tensor<16x1x1xi32> -> tensor<16x2x1xi32> loc(#loc177)
    %555 = tt.reshape %550 : tensor<16x2x1xi32> -> tensor<32xi32> loc(#loc178)
    %556 = tt.reshape %554 : tensor<16x2x1xi32> -> tensor<32xi32> loc(#loc179)
    %557 = tt.bitcast %545 : tensor<32xf32> -> tensor<32xi32> loc(#loc180)
    %558 = tt.bitcast %546 : tensor<32xf32> -> tensor<32xi32> loc(#loc181)
    %559 = tt.bitcast %534 : tensor<32xf32> -> tensor<32xi32> loc(#loc182)
    %560 = arith.cmpf ogt, %545, %546 : tensor<32xf32> loc(#loc183)
    %561 = arith.xori %557, %558 : tensor<32xi32> loc(#loc185)
    %562 = arith.select %560, %561, %cst_0 : tensor<32xi1>, tensor<32xi32> loc(#loc186)
    %563 = arith.xori %559, %562 : tensor<32xi32> loc(#loc187)
    %564 = arith.xori %555, %556 : tensor<32xi32> loc(#loc188)
    %565 = arith.select %560, %564, %cst_0 : tensor<32xi1>, tensor<32xi32> loc(#loc189)
    %566 = arith.xori %533, %565 : tensor<32xi32> loc(#loc190)
    %567 = tt.bitcast %563 : tensor<32xi32> -> tensor<32xf32> loc(#loc191)
    tt.store %9, %567, %1 : tensor<32x!tt.ptr<f32>> loc(#loc55)
    %568 = arith.extsi %566 : tensor<32xi32> to tensor<32xi64> loc(#loc56)
    tt.store %11, %568, %1 : tensor<32x!tt.ptr<i64>> loc(#loc56)
    tt.return loc(#loc57)
  } loc(#loc)
} loc(#loc)
#loc2 = loc("/home/zhengyang/FlagTree/flagtree/python/test/ops/sort/sort_ascend.py":181:24)
#loc3 = loc("/home/zhengyang/FlagTree/flagtree/python/test/ops/sort/sort_ascend.py":182:18)
#loc4 = loc("/home/zhengyang/FlagTree/flagtree/python/test/ops/sort/sort_ascend.py":183:27)
#loc5 = loc("/home/zhengyang/FlagTree/flagtree/python/test/ops/sort/sort_ascend.py":183:32)
#loc6 = loc("/home/zhengyang/FlagTree/flagtree/python/test/ops/sort/sort_ascend.py":183:36)
#loc7 = loc("/home/zhengyang/FlagTree/flagtree/python/test/ops/sort/sort_ascend.py":184:14)
#loc8 = loc("/home/zhengyang/FlagTree/flagtree/python/test/ops/sort/sort_ascend.py":185:15)
#loc9 = loc("/home/zhengyang/FlagTree/flagtree/python/test/ops/sort/sort_ascend.py":186:21)
#loc10 = loc("/home/zhengyang/FlagTree/flagtree/python/test/ops/sort/sort_ascend.py":190:25)
#loc11 = loc("/home/zhengyang/FlagTree/flagtree/python/test/ops/sort/sort_ascend.py":151:45)
#loc14 = loc("/home/zhengyang/FlagTree/flagtree/python/test/ops/sort/sort_ascend.py":151:48)
#loc15 = loc("/home/zhengyang/FlagTree/flagtree/python/test/ops/sort/sort_ascend.py":151:64)
#loc16 = loc("/home/zhengyang/FlagTree/flagtree/python/test/ops/sort/sort_ascend.py":151:72)
#loc17 = loc("/home/zhengyang/FlagTree/flagtree/python/test/ops/sort/sort_ascend.py":75:24)
#loc19 = loc("/home/zhengyang/FlagTree/flagtree/python/test/ops/sort/sort_ascend.py":76:30)
#loc20 = loc("/home/zhengyang/FlagTree/flagtree/python/test/ops/sort/sort_ascend.py":80:45)
#loc21 = loc("/home/zhengyang/FlagTree/flagtree/python/test/ops/sort/sort_ascend.py":80:41)
#loc22 = loc("/usr/local/python3.11.13/lib/python3.11/site-packages/triton/language/standard.py":267:36)
#loc24 = loc("/usr/local/python3.11.13/lib/python3.11/site-packages/triton/language/standard.py":256:15)
#loc25 = loc("/home/zhengyang/FlagTree/flagtree/python/test/ops/sort/sort_ascend.py":80:55)
#loc26 = loc("/home/zhengyang/FlagTree/flagtree/python/test/ops/sort/sort_ascend.py":80:68)
#loc27 = loc("/home/zhengyang/FlagTree/flagtree/python/test/ops/sort/sort_ascend.py":81:41)
#loc29 = loc("/home/zhengyang/FlagTree/flagtree/python/test/ops/sort/sort_ascend.py":81:50)
#loc30 = loc("/home/zhengyang/FlagTree/flagtree/python/test/ops/sort/sort_ascend.py":81:63)
#loc31 = loc("/home/zhengyang/FlagTree/flagtree/python/test/ops/sort/sort_ascend.py":82:30)
#loc32 = loc("/home/zhengyang/FlagTree/flagtree/python/test/ops/sort/sort_ascend.py":83:32)
#loc33 = loc("/home/zhengyang/FlagTree/flagtree/python/test/ops/sort/sort_ascend.py":85:49)
#loc35 = loc("/home/zhengyang/FlagTree/flagtree/python/test/ops/sort/sort_ascend.py":85:63)
#loc36 = loc("/home/zhengyang/FlagTree/flagtree/python/test/ops/sort/sort_ascend.py":85:76)
#loc37 = loc("/home/zhengyang/FlagTree/flagtree/python/test/ops/sort/sort_ascend.py":88:49)
#loc39 = loc("/home/zhengyang/FlagTree/flagtree/python/test/ops/sort/sort_ascend.py":88:58)
#loc40 = loc("/home/zhengyang/FlagTree/flagtree/python/test/ops/sort/sort_ascend.py":88:71)
#loc41 = loc("/home/zhengyang/FlagTree/flagtree/python/test/ops/sort/sort_ascend.py":91:38)
#loc42 = loc("/home/zhengyang/FlagTree/flagtree/python/test/ops/sort/sort_ascend.py":92:40)
#loc43 = loc("/home/zhengyang/FlagTree/flagtree/python/test/ops/sort/sort_ascend.py":106:20)
#loc44 = loc("/home/zhengyang/FlagTree/flagtree/python/test/ops/sort/sort_ascend.py":107:22)
#loc45 = loc("/home/zhengyang/FlagTree/flagtree/python/test/ops/sort/sort_ascend.py":108:14)
#loc46 = loc("/home/zhengyang/FlagTree/flagtree/python/test/ops/sort/sort_ascend.py":110:19)
#loc47 = loc("/home/zhengyang/FlagTree/flagtree/python/test/ops/sort/sort_ascend.py":110:28)
#loc48 = loc("/home/zhengyang/FlagTree/flagtree/python/test/ops/sort/sort_ascend.py":111:40)
#loc49 = loc("/home/zhengyang/FlagTree/flagtree/python/test/ops/sort/sort_ascend.py":111:48)
#loc50 = loc("/home/zhengyang/FlagTree/flagtree/python/test/ops/sort/sort_ascend.py":111:15)
#loc51 = loc("/home/zhengyang/FlagTree/flagtree/python/test/ops/sort/sort_ascend.py":127:52)
#loc52 = loc("/home/zhengyang/FlagTree/flagtree/python/test/ops/sort/sort_ascend.py":127:64)
#loc53 = loc("/home/zhengyang/FlagTree/flagtree/python/test/ops/sort/sort_ascend.py":127:23)
#loc54 = loc("/home/zhengyang/FlagTree/flagtree/python/test/ops/sort/sort_ascend.py":129:18)
#loc55 = loc("/home/zhengyang/FlagTree/flagtree/python/test/ops/sort/sort_ascend.py":200:22)
#loc56 = loc("/home/zhengyang/FlagTree/flagtree/python/test/ops/sort/sort_ascend.py":201:28)
#loc57 = loc("/home/zhengyang/FlagTree/flagtree/python/test/ops/sort/sort_ascend.py":201:4)
#loc58 = loc(callsite(#loc11 at #loc12))
#loc59 = loc(callsite(#loc14 at #loc12))
#loc60 = loc(callsite(#loc15 at #loc12))
#loc61 = loc(callsite(#loc16 at #loc12))
#loc62 = loc(callsite(#loc17 at #loc18))
#loc63 = loc(callsite(#loc19 at #loc18))
#loc64 = loc(callsite(#loc20 at #loc18))
#loc65 = loc(callsite(#loc21 at #loc18))
#loc66 = loc(callsite(#loc22 at #loc23))
#loc68 = loc(callsite(#loc24 at #loc22))
#loc69 = loc(callsite(#loc25 at #loc18))
#loc70 = loc(callsite(#loc26 at #loc18))
#loc71 = loc(callsite(#loc27 at #loc18))
#loc72 = loc(callsite(#loc22 at #loc28))
#loc74 = loc(callsite(#loc29 at #loc18))
#loc75 = loc(callsite(#loc30 at #loc18))
#loc76 = loc(callsite(#loc31 at #loc18))
#loc77 = loc(callsite(#loc32 at #loc18))
#loc78 = loc(callsite(#loc33 at #loc18))
#loc79 = loc(callsite(#loc22 at #loc34))
#loc81 = loc(callsite(#loc35 at #loc18))
#loc82 = loc(callsite(#loc36 at #loc18))
#loc83 = loc(callsite(#loc37 at #loc18))
#loc84 = loc(callsite(#loc22 at #loc38))
#loc86 = loc(callsite(#loc39 at #loc18))
#loc87 = loc(callsite(#loc40 at #loc18))
#loc88 = loc(callsite(#loc41 at #loc18))
#loc89 = loc(callsite(#loc42 at #loc18))
#loc90 = loc(callsite(#loc43 at #loc18))
#loc91 = loc(callsite(#loc44 at #loc18))
#loc92 = loc(callsite(#loc45 at #loc18))
#loc93 = loc(callsite(#loc46 at #loc18))
#loc94 = loc(callsite(#loc47 at #loc18))
#loc95 = loc(callsite(#loc48 at #loc18))
#loc96 = loc(callsite(#loc49 at #loc18))
#loc97 = loc(callsite(#loc50 at #loc18))
#loc98 = loc(callsite(#loc51 at #loc18))
#loc99 = loc(callsite(#loc52 at #loc18))
#loc100 = loc(callsite(#loc53 at #loc18))
#loc101 = loc(callsite(#loc54 at #loc18))
#loc102 = loc(callsite(#loc58 at #loc13))
#loc103 = loc(callsite(#loc59 at #loc13))
#loc104 = loc(callsite(#loc60 at #loc13))
#loc105 = loc(callsite(#loc61 at #loc13))
#loc106 = loc(callsite(#loc62 at #loc12))
#loc107 = loc(callsite(#loc63 at #loc12))
#loc108 = loc(callsite(#loc64 at #loc12))
#loc109 = loc(callsite(#loc65 at #loc12))
#loc110 = loc(callsite(#loc66 at #loc18))
#loc112 = loc(callsite(#loc68 at #loc23))
#loc113 = loc(callsite(#loc69 at #loc12))
#loc114 = loc(callsite(#loc70 at #loc12))
#loc115 = loc(callsite(#loc71 at #loc12))
#loc116 = loc(callsite(#loc72 at #loc18))
#loc118 = loc(callsite(#loc68 at #loc28))
#loc119 = loc(callsite(#loc74 at #loc12))
#loc120 = loc(callsite(#loc75 at #loc12))
#loc121 = loc(callsite(#loc76 at #loc12))
#loc122 = loc(callsite(#loc77 at #loc12))
#loc123 = loc(callsite(#loc78 at #loc12))
#loc124 = loc(callsite(#loc79 at #loc18))
#loc126 = loc(callsite(#loc68 at #loc34))
#loc127 = loc(callsite(#loc81 at #loc12))
#loc128 = loc(callsite(#loc82 at #loc12))
#loc129 = loc(callsite(#loc83 at #loc12))
#loc130 = loc(callsite(#loc84 at #loc18))
#loc132 = loc(callsite(#loc68 at #loc38))
#loc133 = loc(callsite(#loc86 at #loc12))
#loc134 = loc(callsite(#loc87 at #loc12))
#loc135 = loc(callsite(#loc88 at #loc12))
#loc136 = loc(callsite(#loc89 at #loc12))
#loc137 = loc(callsite(#loc90 at #loc12))
#loc138 = loc(callsite(#loc91 at #loc12))
#loc139 = loc(callsite(#loc92 at #loc12))
#loc140 = loc(callsite(#loc93 at #loc12))
#loc141 = loc(callsite(#loc94 at #loc12))
#loc142 = loc(callsite(#loc95 at #loc12))
#loc143 = loc(callsite(#loc96 at #loc12))
#loc144 = loc(callsite(#loc97 at #loc12))
#loc145 = loc(callsite(#loc98 at #loc12))
#loc146 = loc(callsite(#loc99 at #loc12))
#loc147 = loc(callsite(#loc100 at #loc12))
#loc148 = loc(callsite(#loc101 at #loc12))
#loc149 = loc(callsite(#loc106 at #loc13))
#loc150 = loc(callsite(#loc107 at #loc13))
#loc151 = loc(callsite(#loc108 at #loc13))
#loc152 = loc(callsite(#loc109 at #loc13))
#loc153 = loc(callsite(#loc110 at #loc12))
#loc155 = loc(callsite(#loc112 at #loc18))
#loc156 = loc(callsite(#loc113 at #loc13))
#loc157 = loc(callsite(#loc114 at #loc13))
#loc158 = loc(callsite(#loc115 at #loc13))
#loc159 = loc(callsite(#loc116 at #loc12))
#loc161 = loc(callsite(#loc118 at #loc18))
#loc162 = loc(callsite(#loc119 at #loc13))
#loc163 = loc(callsite(#loc120 at #loc13))
#loc164 = loc(callsite(#loc121 at #loc13))
#loc165 = loc(callsite(#loc122 at #loc13))
#loc166 = loc(callsite(#loc123 at #loc13))
#loc167 = loc(callsite(#loc124 at #loc12))
#loc169 = loc(callsite(#loc126 at #loc18))
#loc170 = loc(callsite(#loc127 at #loc13))
#loc171 = loc(callsite(#loc128 at #loc13))
#loc172 = loc(callsite(#loc129 at #loc13))
#loc173 = loc(callsite(#loc130 at #loc12))
#loc175 = loc(callsite(#loc132 at #loc18))
#loc176 = loc(callsite(#loc133 at #loc13))
#loc177 = loc(callsite(#loc134 at #loc13))
#loc178 = loc(callsite(#loc135 at #loc13))
#loc179 = loc(callsite(#loc136 at #loc13))
#loc180 = loc(callsite(#loc137 at #loc13))
#loc181 = loc(callsite(#loc138 at #loc13))
#loc182 = loc(callsite(#loc139 at #loc13))
#loc183 = loc(callsite(#loc140 at #loc13))
#loc184 = loc(callsite(#loc141 at #loc13))
#loc185 = loc(callsite(#loc142 at #loc13))
#loc186 = loc(callsite(#loc143 at #loc13))
#loc187 = loc(callsite(#loc144 at #loc13))
#loc188 = loc(callsite(#loc145 at #loc13))
#loc189 = loc(callsite(#loc146 at #loc13))
#loc190 = loc(callsite(#loc147 at #loc13))
#loc191 = loc(callsite(#loc148 at #loc13))
#loc192 = loc(callsite(#loc153 at #loc13))
#loc194 = loc(callsite(#loc155 at #loc12))
#loc195 = loc(callsite(#loc159 at #loc13))
#loc197 = loc(callsite(#loc161 at #loc12))
#loc198 = loc(callsite(#loc167 at #loc13))
#loc200 = loc(callsite(#loc169 at #loc12))
#loc201 = loc(callsite(#loc173 at #loc13))
#loc203 = loc(callsite(#loc175 at #loc12))
#loc204 = loc(callsite(#loc194 at #loc13))
#loc205 = loc(callsite(#loc197 at #loc13))
#loc206 = loc(callsite(#loc200 at #loc13))
#loc207 = loc(callsite(#loc203 at #loc13))
